models/6.0/Final_epoch_30_alpha_10000_wir_6.0_wvi_3.0.model (torch, 277218 bytes, 76 tensors)

conv_vi.conv2d.weight f4 [16, 1, 3, 3]
0	0x3e65afd8	0.2243036
1	0x3e951af9	0.2912214
2	0x3d2591d5	0.04042228
3	0xbe68b7ee	-0.22726414
4	0xbc5dd7fb	-0.013540263
5	0x3e19d40a	0.15022293
6	0xbe37377c	-0.1789226
7	0xbe9b2257	-0.30299637
8	0xbd38833f	-0.04504704
9	0x3d11df38	0.03561327
10	0x3ea658b0	0.32489538
11	0x3c55b817	0.013044379
12	0x3e8aff30	0.27147818
13	0x3e54b2af	0.20771287
14	0xbd264b80	-0.040599346
15	0x3e671d6e	0.2256982
16	0xbe1dae79	-0.15398587
17	0x3e89e992	0.26936013
18	0x3e097e54	0.13427097
19	0xbe643b28	-0.22288191
20	0x3e8b6599	0.2722595
21	0x3e09c342	0.13453391
22	0x3e86cc33	0.26327667
23	0x3a41d69d	0.00073943456
24	0xbea70efd	-0.32628623
25	0xbdacdf85	-0.084410705
26	0x3d88f96b	0.06688198
27	0x3ea58190	0.3232541
28	0xbea3d9f2	-0.32002217
29	0xbd518255	-0.051149685
30	0x3e6e87e5	0.23294027
31	0x3ea58a2c	0.3233198
32	0xbe09a6f9	-0.13442601
33	0xbdbe1e82	-0.09283163
34	0xbdc0832f	-0.09400021
35	0xbe4a6e69	-0.1976868
36	0x3e9bb230	0.30409384
37	0x3e9190d6	0.28430814
38	0x3e8d4cea	0.27597743
39	0xbd3640fd	-0.04449557
40	0xbeabe7f5	-0.33575407
41	0x3e868f3c	0.26281154
42	0x3e09d965	0.13461836
43	0x3d869afc	0.0657253
44	0xbe73e936	-0.23819432
45	0x3d96eb9e	0.07369159
46	0x3d2466e0	0.04013717
47	0xbdf0cdbf	-0.11757993
48	0x3e858801	0.26080325
49	0x3e1ccab2	0.15311697
50	0x3e8ef242	0.27919203
51	0xbd440f5c	-0.04786621
52	0xbe6405c2	-0.22267821
53	0x3e86cbac	0.26327264
54	0x3e9543d9	0.29153326
55	0x3e381f05	0.17980583
56	0x3cf04ebe	0.029334422
57	0x3e6a6e29	0.22893585
58	0x3e33bce3	0.17552523
59	0xbea39223	-0.3194743
60	0xbe800c25	-0.25009266
61	0xbe4ec369	-0.2019173
62	0x3e9df724	0.30852616
63	0x3de0dcb8	0.10979599
64	0x3e2ed47f	0.17073248
65	0x3e4cde3a	0.20006648
66	0xbe886dd3	-0.2664629
67	0x3dbac640	0.091198444
68	0xbd86ab64	-0.06575659
69	0x3d82dbe0	0.06389594
70	0x3d93e7e1	0.07221962
71	0xbe78b8d3	-0.24289255
72	0xbe3233fa	-0.1740264
73	0xbe9b29ec	-0.3030542
74	0xbd27e355	-0.040988285
75	0x3e105b99	0.14097442
76	0xbd84669d	-0.064648844
77	0x3e2ea171	0.17053773
78	0xbcd9363b	-0.026515117
79	0xbe94d6ee	-0.29070228
80	0x3ea432e9	0.3207009
81	0xbd5b2743	-0.05350424
82	0xbe6fc552	-0.23415115
83	0x3e5187f5	0.2046202
84	0x3d75178b	0.059836905
85	0xbdeba2f1	-0.11505688
86	0xbe88eb6e	-0.2674212
87	0xbea8d8c3	-0.32977876
88	0x3e5d7a53	0.21628694
89	0x3e9ac478	0.3022802
90	0xbe82ec38	-0.25570846
91	0xbca812d8	-0.020516798
92	0xbe31be28	-0.17357695
93	0xbdf73478	-0.120705545
94	0x3e8077f2	0.2509151
95	0xbdb787ce	-0.089614496
96	0x3cbab949	0.022793429
97	0x3ea0cd9c	0.31406868
98	0x3e5ec66d	0.21755381
99	0x3e53b58e	0.20674726
100	0x3dd7c063	0.10534742
101	0x3dfb56c1	0.12272406
102	0xbe0ee7b8	-0.13955581
103	0x3d8274fe	0.06369971
104	0xbe4aec42	-0.19816688
105	0xbd8b80ee	-0.06811701
106	0x3d3a111f	0.045426484
107	0x3de35a26	0.11101179
108	0x3e945425	0.28970447
109	0x3dbac103	0.09118845
110	0xbe2f2e1b	-0.17107432
111	0xbe3a61a9	-0.18201317
112	0x3e8f784a	0.2802146
113	0xbdb27213	-0.08713164
114	0xbe14293c	-0.14468855
115	0x3da8babc	0.08238742
116	0x3e03a35c	0.12855285
117	0xbe1a5610	-0.15071893
118	0xbe53fca8	-0.2070185
119	0x3e912648	0.2834952
120	0xbe9f728c	-0.3114208
121	0x3d6e102e	0.0581209
122	0x3de10522	0.10987307
123	0xbe5e6117	-0.21716724
124	0x3dd048bd	0.10170124
125	0x3e567010	0.20941186
126	0x3e6913f0	0.22761512
127	0x3dae1039	0.08499188
128	0x3ea4d566	0.3219406
129	0xbe84f496	-0.25967854
130	0x3e76606a	0.24060217
131	0x3e0574fe	0.1303291
132	0xbdc9bcf9	-0.09850497
133	0x3e63d962	0.22250894
134	0xbe38ce04	-0.18047339
135	0x3dde3dc1	0.108516224
136	0x3e6f066c	0.23342294
137	0x3e48c11b	0.19604914
138	0x3e9a2cc5	0.3011228
139	0xbd32b31e	-0.04362785
140	0xbe39d3b0	-0.18147159
141	0x3e7206c4	0.23635393
142	0xbd104be5	-0.03522863
143	0x3e2c6424	0.16835076

conv_vi.conv2d.bias f4 [16]
0	0x3a703a73	0.0009163983
1	0xbe6f91d4	-0.23395473
2	0x3ef0d8e0	0.47040462
3	0xbd934844	-0.07191518
4	0x3def26d8	0.11677331
5	0xbe820f0c	-0.25402105
6	0x3e086f2b	0.13323657
7	0xbe364ecb	-0.17803495
8	0xbe91180e	-0.28338665
9	0xbec9d826	-0.3942272
10	0xbd111ac4	-0.035425916
11	0x3e6b547a	0.22981444
12	0x3e2ad315	0.16682084
13	0x3bd0156a	0.006350209
14	0x3e842a13	0.2581335
15	0xbd93ccc6	-0.07216792

RepVgg_vi1.rbr_dense.conv.weight f4 [32, 16, 3, 3]
0	0xbdac9425	-0.08426694
1	0xbdd10b4e	-0.10207234
2	0x3dc6d02b	0.09707674
3	0xbdf4ade1	-0.11947227
4	0x3c71f9db	0.014769043
5	0xbd1a24d6	-0.037632786
6	0x3c957cc7	0.018247975
7	0xbb15fdd9	-0.00228869
8	0x3de573e3	0.11203744
9	0xbdc6d821	-0.09709192
10	0xbd5b94e6	-0.053608797
11	0xbdac8ee0	-0.08425689
12	0xbd930a3c	-0.071796864
13	0x3c526e07	0.012843615
14	0x3cf8b7a0	0.030360997
15	0xbcb8bcbd	-0.022550935
16	0xbd82feab	-0.0639623
17	0x3c0446f4	0.008073557
18	0x3daa6c53	0.083214425
19	0x3d715da3	0.05892719
20	0x3d905e40	0.07049227
21	0xbd10c8bd	-0.03534769
22	0x3df761ea	0.120792225
23	0xbd8b7ee5	-0.068113126
24	0x3db7b402	0.08969881
25	0x3df95fa8	0.12176448
26	0xbcc6dbb2	-0.02427468
27	0x3b413129	0.0029478765
28	0xbd46b700	-0.048514366
29	0xbc95e969	-0.018299775
30	0xbbf4fe92	-0.007476636
31	0x3da30ed6	0.07961814
32	0x3c0b9a1d	0.00852063
33	0x3d61ddff	0.055143353
34	0x3cd80c05	0.026372919
35	0x3d14a92c	0.036294147
36	0x3d4fe888	0.05075887
37	0xbd5e4607	-0.054266002
38	0x3c008a5a	0.007845486
39	0xbda104e5	-0.07862262
40	0x3d919f86	0.07110505
41	0x3ca059ad	0.01957401
42	0x3d09d48a	0.03364996
43	0x3c49f1b2	0.012325691
44	0xbd2b0b10	-0.041758597
45	0x3cd272bb	0.025689473
46	0xbd1e4bea	-0.038646616
47	0xbd6adb80	-0.057338238
48	0x3c93c25f	0.01803702
49	0x3d3fb8ef	0.046807226
50	0xbd7f2bb1	-0.062297527
51	0x3d82c75b	0.0638568
52	0x3db038f7	0.08604615
53	0xbd897eec	-0.067136616
54	0x3d8f1084	0.06985572
55	0x3bd2c6d4	0.0064323936
56	0xbcf13f0c	-0.029449008
57	0x3d4ae43e	0.049534075
58	0xbd408fed	-0.04701226
59	0xbbab3382	-0.005224646
60	0x3dae3dcf	0.08507883
61	0x3ce93598	0.028467938
62	0xbc89c092	-0.016815457
63	0xbd6e428b	-0.05816893
64	0xbdc0ded7	-0.09417503
65	0xbc67153b	-0.014104183
66	0x3d8eff60	0.06982303
67	0xbdb6718a	-0.089083746
68	0xbcb9a0b7	-0.022659643
69	0x3cabafa2	0.020957772
70	0x3cb9f0ff	0.022697924
71	0x3da79c1f	0.081840746
72	0xbd875745	-0.06608442
73	0x3d87ee7d	0.06637285
74	0xbda5f1cc	-0.0810276
75	0xbc9393d2	-0.018014822
76	0x3d14cdfb	0.03632925
77	0x3bf32e57	0.0074212956
78	0xbda95f69	-0.08270151
79	0x3ce66bff	0.028127668
80	0xbd88096d	-0.06642423
81	0xbd294046	-0.04132106
82	0xbcb550cc	-0.022133254
83	0x3bbd4446	0.005775961
84	0x3c1afc95	0.009459634
85	0xbd99940c	-0.07498941
86	0x3d3e9b0e	0.04653459
87	0xbb86fd78	-0.0041195713
88	0xbce06889	-0.027393596
89	0xbd4ba61b	-0.049718957
90	0x3dce2143	0.10064938
91	0x3d63cf80	0.05561781
92	0x3ace7201	0.0015750529
93	0x3c3f3d0d	0.0116722705
94	0x3bc8ab83	0.0061239614
95	0x3c3735b6	0.011182239
96	0x3cd439b2	0.025906418
97	0xbc84c1e8	-0.016205743
98	0xbd08e0b2	-0.03341741
99	0x3d08ad7e	0.03336858
100	0xbcdee5bd	-0.027209157
101	0x3c2cdf79	0.010551327
102	0x3cf3e8ad	0.029774034
103	0xbd2b70a5	-0.041855473
104	0xbbd12add	-0.0063832835
105	0x3c2413ae	0.010014458
106	0x3de44b3d	0.11147163
107	0xbd1b14d1	-0.03786165
108	0x3d3a4b24	0.045481816
109	0x3cf760e9	0.030197578
110	0x3ccef209	0.025261896
111	0xbc99f8d8	-0.018795416
112	0xbd8b93f4	-0.06815329
113	0x3c446da5	0.011989032
114	0x3d967d30	0.07348096
115	0x3da4efd9	0.0805356
116	0xbdc2c74c	-0.09510669
117	0x3cb377b1	0.02190766
118	0xbcdab378	-0.026696905
119	0xbbf16293	-0.0073664873
120	0xbd531e7c	-0.051542744
121	0xbdb4b67c	-0.08823869
122	0x3ab77053	0.0013995267
123	0x39220793	0.00015452346
124	0xbdbbe2ef	-0.091741435
125	0xbd274f3a	-0.04084704
126	0x3da3abb2	0.07991733
127	0x3d417503	0.04723073
128	0xbd84a3d8	-0.06476563
129	0xbc8d1e90	-0.017226487
130	0xbd2db770	-0.042411268
131	0x3cce5635	0.025187591
132	0xbd404968	-0.046945006
133	0xbd27d937	-0.040978637
134	0x3d5aa3ca	0.053378858
135	0xbd92acd7	-0.07161873
136	0xbd2b3e4a	-0.04180745
137	0xbbe2cfeb	-0.0069217584
138	0x3d56b137	0.0524151
139	0x3d3fb7f0	0.046806276
140	0x3d03c0f9	0.032166455
141	0x3c70d92e	0.014700217
142	0xbcdcd0b3	-0.026954984
143	0xbd6f7fe9	-0.058471594
144	0xbd025ca4	-0.03182663
145	0xbd61cb21	-0.05512536
146	0x3c4f6866	0.012659168
147	0x3e03ef4e	0.12884256
148	0xbc167bb8	-0.00918477
149	0xbd076762	-0.033057578
150	0x3cc1bfdf	0.023651062
151	0xbbcb816c	-0.0062104966
152	0x3e1eff3c	0.15527052
153	0x3d8e944d	0.0696188
154	0x3ba06589	0.0048949164
155	0xbd33bf4b	-0.043883603
156	0x3cb20f93	0.021735942
157	0xbc9ee2d6	-0.019395273
158	0xbc3b2a5e	-0.011423675
159	0x3cabd275	0.020974377
160	0xbba709f4	-0.005097622
161	0xbcc13144	-0.023583062
162	0x3d984c8c	0.07436475
163	0x3d1b63ea	0.037937082
164	0x3ba0b2fd	0.0049041496
165	0xbd979d21	-0.07403017
166	0xbd82f381	-0.06394101
167	0x3d4c14ba	0.049824454
168	0x3db5d177	0.08877843
169	0x3c71faa7	0.014769233
170	0xbd9b1a88	-0.0757342
171	0xbccae402	-0.024766926
172	0xbd360e08	-0.044446975
173	0xbd8c8759	-0.06861753
174	0xbc12d5c3	-0.008962098
175	0xbc95f0cf	-0.018303303
176	0x3d87064b	0.06592997
177	0x3a960b93	0.0011447541
178	0xbd9a1942	-0.07524349
179	0xbc8eb100	-0.017418385
180	0xbc400cfd	-0.011721847
181	0x3cfefca1	0.031126322
182	0xbc963cef	-0.018339602
183	0x3c34e518	0.011040948
184	0xbcf1f2e8	-0.029534772
185	0xbd9892ac	-0.074498504
186	0xbca12c52	-0.019674454
187	0xbc5bdae1	-0.013418884
188	0x3d1f156c	0.03883879
189	0xbb45d7ed	-0.0030188516
190	0x3c4e1f55	0.012580712
191	0x3ccb3d44	0.024809487
192	0xbdbf35b6	-0.093364164
193	0x3c09febf	0.008422553
194	0xbcc37f92	-0.023864541
195	0xbd5e58ca	-0.054283895
196	0xbd63ea6f	-0.055643495
197	0x3ba73499	0.0051027057
198	0xbc447c16	-0.011992475
199	0x3dc9f02e	0.09860264
200	0x3c3ad3aa	0.011403004
201	0x3d3beede	0.0458821
202	0xbc253af9	-0.010084861
203	0xbcf36080	-0.0297091
204	0x3db28421	0.08716608
205	0xbda13034	-0.07870522
206	0xbd4fd9b9	-0.050744746
207	0x3cd39b6e	0.02583095
208	0x3dab610c	0.083681196
209	0xbcd31b00	-0.02576971
210	0xbd249d1a	-0.040188886
211	0xbd2d52f6	-0.042315446
212	0xbcddd511	-0.027079137
213	0x3d174573	0.036931466
214	0xbc9fe455	-0.019518057
215	0x3d38b187	0.04509118
216	0x3d9d628c	0.07684812
217	0xbcebfd3e	-0.028807279
218	0x3ddd29ee	0.10799013
219	0x3d89f253	0.06735673
220	0xbd35ba16	-0.04436692
221	0x3d8962d8	0.06708306
222	0x3bef64fa	0.0073057385
223	0xbce97d10	-0.028502017
224	0x3dbc66bc	0.091992825
225	0x3cd1058d	0.025515342
226	0x3dff09b5	0.12453023
227	0x3d7e706b	0.06211893
228	0xbc95cfff	-0.018287657
229	0xbc4c5006	-0.012470251
230	0xbbf2461a	-0.0073936107
231	0xbd4125a8	-0.047155052
232	0xbddc3c3a	-0.10753675
233	0xbd2a98b0	-0.04164952
234	0x3d816836	0.06318705
235	0x3d26b6fb	0.040701848
236	0x3dce5ca6	0.10076265
237	0x3dccd646	0.10001807
238	0x3d5de3de	0.05417239
239	0x3d8dbd7a	0.069209054
240	0x3bdce429	0.006741066
241	0x3a26fb0c	0.00063698064
242	0x3c8b6b9f	0.017019091
243	0x3dade04a	0.08490045
244	0xbd382d8f	-0.044965323
245	0xbd763d80	-0.060117245
246	0x3d8b1148	0.067904055
247	0x3d2d8f9f	0.042373296
248	0xbc5a9edd	-0.01334354
249	0x3c6b22e3	0.014351579
250	0xbd476cd6	-0.04868778
251	0xbd65f383	-0.056140434
252	0x3d4be587	0.04977944
253	0x3d6ee60a	0.05832485
254	0x3defbbca	0.1170574
255	0xbca0d047	-0.019630564

RepVgg_vi1.rbr_dense.bn.weight f4 [32]
0	0x3f820075	1.015639
1	0x3f80c9e9	1.0061618
2	0x3f7eba6b	0.995032
3	0x3f7579da	0.95889056
4	0x3f6ffb51	0.93742853
5	0x3f882d2c	1.0638785
6	0x3f8011be	1.0005414
7	0x3f807dc7	1.0038384
8	0x3f7a1791	0.9769221
9	0x3f7d50b5	0.98951274
10	0x3f7e8a44	0.99429727
11	0x3f82dc5a	1.0223496
12	0x3f7db43a	0.9910313
13	0x3f77e7c7	0.9683804
14	0x3f7f5e9a	0.99753726
15	0x3f81898c	1.0120101
16	0x3f7bdfcc	0.9838836
17	0x3f78057d	0.96883374
18	0x3f7c1def	0.98483175
19	0x3f853643	1.0407184
20	0x3f771201	0.96511847
21	0x3f8d4466	1.1036499
22	0x3f80a81b	1.0051302
23	0x3f850108	1.039094
24	0x3f80be46	1.0058067
25	0x3f85eae9	1.0462314
26	0x3f7fd0dd	0.99928075
27	0x3f8c6f42	1.0971453
28	0x3f7a9e33	0.9789764
29	0x3f826b0d	1.0188919
30	0x3f8399ac	1.0281272
31	0x3f8076fa	1.0036309

RepVgg_vi1.rbr_dense.bn.bias f4 [32]
0	0xbd6ff427	-0.05858245
1	0xbd449f8a	-0.04800371
2	0x3c852268	0.016251758
3	0x3da83def	0.08214938
4	0xba4ce40a	-0.0007815963
5	0x3dbddece	0.09271012
6	0xbd69be86	-0.057066463
7	0x3d91e863	0.071244024
8	0xbe0739be	-0.1320562
9	0xbd3c511f	-0.0459758
10	0x3d0697f0	0.032859743
11	0xbc062164	-0.008186672
12	0xbcf510a9	-0.02991517
13	0x3e3419f8	0.17588031
14	0xbd5c32e9	-0.05375949
15	0x3d23b413	0.039966654
16	0x3d43b43c	0.047779307
17	0x3c3039c4	0.01075596
18	0xbd46a8cb	-0.048500817
19	0x3e1594f5	0.14607604
20	0x3d83baa9	0.06432087
21	0x3cb1ea74	0.021718241
22	0x3bc87a76	0.006118114
23	0xbddf7ea9	-0.109128304
24	0xbd058123	-0.032593857
25	0xbd2986c5	-0.041388292
26	0xbdd11067	-0.102082066
27	0xbc928695	-0.01788644
28	0x3c980390	0.018556386
29	0xbcc9b9d8	-0.02462475
30	0xbd6e11bd	-0.058122385
31	0xbc1a25d0	-0.009408429

RepVgg_vi1.rbr_dense.bn.running_mean f4 [32]
0	0xc1be52f3	-23.790503
1	0xc1c1fbcc	-24.247948
2	0x41718b29	15.096475
3	0xc206116e	-33.51702
4	0xc1975871	-18.918184
5	0xc2a9df5e	-84.936264
6	0xc20f9de9	-35.90421
7	0x4162a8b4	14.166187
8	0xc1e11388	-28.134537
9	0x41495996	12.584372
10	0x4233987a	44.898903
11	0xc1932378	-18.392319
12	0xc101ca8f	-8.111953
13	0xc2298585	-42.38039
14	0x414e07dc	12.876919
15	0xc1b2d5fd	-22.354486
16	0x41a1e067	20.234571
17	0x41ec0a0f	29.504911
18	0x41600bc6	14.002874
19	0x418b6de8	17.428665
20	0xc18edb6b	-17.857138
21	0x420b728d	34.861866
22	0xc1ca4fdb	-25.288992
23	0x41ba995a	23.324879
24	0xc2818dc8	-64.77692
25	0xc1a26dcc	-20.303612
26	0xc1b797ad	-22.94906
27	0x4162fce2	14.186739
28	0x417e5855	15.896565
29	0xc19a9d91	-19.326937
30	0x412d8d52	10.847002
31	0xc1dbc878	-27.472885

RepVgg_vi1.rbr_dense.bn.running_var f4 [32]
0	0x434fc47b	207.7675
1	0x435dbc74	221.73615
2	0x42b821d4	92.06607
3	0x43d05bce	416.71722
4	0x4307eb8e	135.92014
5	0x451644dd	2404.304
6	0x43da7c9b	436.97348
7	0x42eca2c9	118.31794
8	0x43b03a78	352.4568
9	0x42b68a6d	91.27036
10	0x443a22ae	744.5419
11	0x43106aa4	144.41656
12	0x4271775b	60.366558
13	0x441aa727	618.61176
14	0x42d6b5cc	107.35507
15	0x4337d1f9	183.8202
16	0x431e3e4f	158.2434
17	0x43ad4181	346.51175
18	0x42a49bcc	82.30429
19	0x431cf851	156.96999
20	0x431e862a	158.52408
21	0x43d3efe7	423.87424
22	0x43815f7a	258.7459
23	0x435811c1	216.06935
24	0x44b0bfd7	1413.995
25	0x432f430d	175.26192
26	0x43414e6d	193.30635
27	0x42f1dbdb	120.929405
28	0x42c2d31a	97.41231
29	0x43198e4b	153.55583
30	0x424e1690	51.522034
31	0x438c47c0	280.56055

RepVgg_vi1.rbr_1x1.conv.weight f4 [32, 16, 1, 1]
0	0x3e4ca28f	0.19983886
1	0xbdafccf0	-0.085840106
2	0xbdd7981a	-0.10527058
3	0x3e883432	0.26602322
4	0xbe0a2fde	-0.13494822
5	0xbe631f74	-0.22179967
6	0xbd57bf31	-0.05267257
7	0x3dd93bd2	0.10607113
8	0xbba9b84d	-0.005179441
9	0x3dc1033b	0.09424444
10	0xbe6d33af	-0.23164247
11	0xbe448f7b	-0.19195358
12	0xbc9aed69	-0.018912034
13	0xbd7001f0	-0.058595598
14	0xbe6b1625	-0.22957666
15	0x3e08c40f	0.1335604
16	0xbcf5655f	-0.029955564
17	0xbc88b5d9	-0.016688274
18	0x3dc80985	0.09767441
19	0xbe42cdee	-0.19023868
20	0xbe221cd3	-0.15831308
21	0x3e13dcb4	0.1443966
22	0xbc220fe0	-0.00989148
23	0x3e4c8c0c	0.19975299
24	0x3e53f830	0.20700145
25	0xbc30e8ef	-0.010797723
26	0xbca92e71	-0.020652028
27	0x3e3cf6ec	0.18453568
28	0xbe88c4ee	-0.26712745
29	0xbb65fefd	-0.0035094612
30	0xbd049424	-0.03236784
31	0xbdf7b7b2	-0.12095584
32	0xbe7acbea	-0.2449185
33	0xbd81063f	-0.063000195
34	0x3d0bcceb	0.034130972
35	0x3cec1a15	0.02882103
36	0x3d95bb8c	0.07311162
37	0x3d8c5705	0.06852535
38	0x3e6aebac	0.22941464
39	0xbe286431	-0.1644447
40	0xbe0588f0	-0.13040519
41	0xbe00248a	-0.12513939
42	0xbc3bb65d	-0.011457053
43	0xbe46c884	-0.19412428
44	0xbe15f39d	-0.14643712
45	0xbda1b83b	-0.07896467
46	0x3ddc3763	0.10752752
47	0x3d87213f	0.06598138
48	0x3dd6281e	0.104568705
49	0xbe278013	-0.1635745
50	0x3d9f6bb4	0.077842146
51	0xbd40932c	-0.047015354
52	0xbe6a329b	-0.22870867
53	0x3e10a79e	0.14126441
54	0xbdcf1544	-0.10111478
55	0xbe4eadc6	-0.20183477
56	0x3dd9574a	0.10612352
57	0x3c32ae0b	0.010905753
58	0xbe84ca87	-0.25935766
59	0xbd139109	-0.03602699
60	0xbe1d25c9	-0.15346445
61	0x3e60d860	0.2195754
62	0x3d65a255	0.056063015
63	0xbe02a99e	-0.12760016
64	0xbe05981e	-0.1304631
65	0xbe65c83e	-0.22439668
66	0x3e253418	0.16133153
67	0x3dc3d05f	0.09561228
68	0x3e12e6b8	0.14345825
69	0x3e6aa748	0.22915375
70	0xbdaff9b4	-0.08592549
71	0x3dd11f4d	0.10211048
72	0x3e720ce1	0.23637725
73	0x3d85bd83	0.06530287
74	0x3e59baf4	0.21262723
75	0x3d65792d	0.056023765
76	0x3c73a76e	0.014871461
77	0x3dc1aea3	0.094571374
78	0x3e75aab7	0.23990904
79	0xbd9e2607	-0.07722097
80	0x3dd90c2d	0.105980255
81	0x3e4e193d	0.20126815
82	0x3dc6d7a9	0.09709103
83	0xbcd30801	-0.025760652
84	0x3e2168c5	0.15762623
85	0x3e455670	0.19271255
86	0x3da791af	0.08182084
87	0x3e3a1661	0.181726
88	0x3e3056ed	0.1722066
89	0x3e6d6bbb	0.23185627
90	0xbcc28801	-0.023746492
91	0x3e5a3959	0.21310939
92	0xbc6bffa5	-0.014404212
93	0x3d80ef6e	0.062956676
94	0x3e2dbd1c	0.16966671
95	0x3e398346	0.18116483
96	0x3e3b2e9a	0.18279496
97	0xbceb8517	-0.028749986
98	0xbe88ef8e	-0.26745266
99	0x3d3250b2	0.04353399
100	0xbe418c00	-0.18901062
101	0xbbffa94d	-0.0078021646
102	0xbd86e040	-0.06585741
103	0xbd2500ff	-0.040284153
104	0x3db92de6	0.090419576
105	0xbe1eb5f8	-0.15499103
106	0x3e1f8093	0.15576391
107	0xbd9013ec	-0.0703505
108	0x3caaa977	0.02083276
109	0x3d14e4e0	0.036351085
110	0xbe41404f	-0.18872188
111	0xbe55d254	-0.20881015
112	0x3acd7517	0.0015675154
113	0xbcd3fa55	-0.025876204
114	0xbe2111db	-0.15729468
115	0xbe08e80c	-0.13369769
116	0xbe112f22	-0.14178136
117	0xbe3747d7	-0.17898498
118	0x3e1b8ea7	0.15191136
119	0xbe3ec78a	-0.18630806
120	0x3e59ff3d	0.21288772
121	0xbc89b940	-0.016811967
122	0x3dd42c2b	0.10359987
123	0x3d87db0e	0.06633578
124	0x3acb039d	0.0015488748
125	0xbc4eabfa	-0.012614245
126	0xbe5e5ca3	-0.21715026
127	0xbe133e7b	-0.14379303
128	0xbe2418ef	-0.16025136
129	0xbdc7a164	-0.0974758
130	0xbdbb6871	-0.0915078
131	0x3e4ee2ce	0.20203707
132	0xbe3628dd	-0.17789026
133	0xbe930bfd	-0.28720084
134	0x3db30bf0	0.08742511
135	0xbcff77c8	-0.031185046
136	0xbccf2306	-0.025285255
137	0x3e630323	0.22169165
138	0xbe544e03	-0.20732884
139	0xbd9c6aff	-0.076375954
140	0x3e43d5d5	0.19124539
141	0x3e4ffec3	0.20312028
142	0xbd3e6430	-0.046482265
143	0x3d3bb024	0.045822278
144	0x3e2ebde5	0.17064627
145	0xbc05099e	-0.008119969
146	0x3e8311a0	0.25599384
147	0x3da35610	0.079753995
148	0x3e08e3f7	0.13368212
149	0xbe1e8e9b	-0.15484087
150	0xbe80e9ab	-0.25178275
151	0x3d983e16	0.07433717
152	0x3c9186f8	0.017764553
153	0x3dc4875d	0.09596131
154	0x3d039d4a	0.032132424
155	0xbd7cd79c	-0.06172906
156	0xbe7cf82d	-0.24704047
157	0x3e394748	0.18093598
158	0xbdf687ad	-0.12037597
159	0xbe4f7659	-0.2025999
160	0xbe061194	-0.13092643
161	0x3d82e34f	0.06391012
162	0x3dd87807	0.105697684
163	0xbd96f488	-0.073708594
164	0x3ce04376	0.027375918
165	0x3de55d33	0.11199417
166	0xbe2cd515	-0.1687816
167	0x3e76457d	0.24049945
168	0x3e305078	0.17218196
169	0x3d951f75	0.072813906
170	0xbd769604	-0.06020166
171	0x3d33a471	0.043857995
172	0x3e736dc8	0.23772347
173	0x3cad1149	0.021126406
174	0x3dbf1001	0.093292244
175	0x3d631c0f	0.05544668
176	0x3cabb926	0.02096231
177	0x3e19b5d7	0.15010773
178	0x3e64abb3	0.22331123
179	0xbdca0842	-0.09864856
180	0x3e497d8a	0.19676796
181	0x3dc032db	0.093847
182	0xbe44db99	-0.19224395
183	0xbd38f00b	-0.045150798
184	0x3e2f6f15	0.17132218
185	0xbca5582b	-0.020183643
186	0xbdf66c79	-0.12032408
187	0x3e12b6d4	0.14327556
188	0x3d951ca7	0.072808556
189	0x3e02d02e	0.12774727
190	0x3e07948d	0.13240261
191	0x3d92cb3e	0.071676716
192	0xbadde9d8	-0.0016930653
193	0x3e449cdb	0.1920046
194	0x3e10d8a5	0.14145143
195	0xbd583c82	-0.05279208
196	0x3e5b77f5	0.21432479
197	0xbdb83511	-0.089944966
198	0x3d95ed21	0.073206194
199	0xbbb7a608	-0.0056045093
200	0xbd10acc5	-0.035321016
201	0x3e45a797	0.19302212
202	0xbe26cbd3	-0.1628869
203	0xbe78097c	-0.24222368
204	0x3d518739	0.05115435
205	0x3d147dc8	0.036252767
206	0x3c52dcf7	0.012870065
207	0x3e30ca41	0.17264654
208	0x3dd5fab2	0.10448207
209	0xbe1581c0	-0.14600277
210	0xbe056656	-0.1302732
211	0x3e551d7e	0.20812032
212	0x3d0264c1	0.031834368
213	0xbe7e374b	-0.2482578
214	0xbcd000c8	-0.025390998
215	0xbe189609	-0.14900984
216	0x3c6e6a9c	0.014551785
217	0xbd82dade	-0.06389402
218	0xbea3f926	-0.32026023
219	0x3d6ad14e	0.057328515
220	0x3d3d60de	0.046234958
221	0xbe37d426	-0.17952022
222	0x3e013310	0.12617135
223	0x3e2012c8	0.15632164
224	0x3d3f0b5e	0.0466417
225	0x3e32acba	0.17448702
226	0x3dbf82e6	0.09351139
227	0xbc7be985	-0.0153755
228	0xbe78986d	-0.24276896
229	0xbe5c057e	-0.2148647
230	0x3ddecf64	0.108794
231	0x3d52218a	0.051301517
232	0x3e266e2a	0.16252962
233	0xbd3a3529	-0.045460854
234	0xbdf2f877	-0.11863797
235	0x3c162a72	0.009165393
236	0x3dc4368f	0.09580719
237	0x3e47b919	0.19504203
238	0x3cfcd0a9	0.030861216
239	0xbe269ae9	-0.16270031
240	0x3e26f727	0.16305219
241	0x3e62f4fa	0.22163764
242	0x3c8642f0	0.01638934
243	0xbda26b30	-0.07930601
244	0x3dc5b98a	0.096545294
245	0x3e52766e	0.2055299
246	0x3dbf6f73	0.09347429
247	0x3e7df8f8	0.24802005
248	0xbe5aafd0	-0.2135613
249	0x3d8c2f27	0.06844931
250	0xbe556606	-0.208397
251	0xbe1c8c47	-0.15287887
252	0x3da89ab6	0.08232634
253	0x3d1094f8	0.035298318
254	0xbdeed337	-0.1166138
255	0xbd58ee32	-0.052961536

RepVgg_vi1.rbr_1x1.bn.weight f4 [32]
0	0x3f801d8f	1.000902
1	0x3f7cd0c3	0.98756045
2	0x3f7962b2	0.9741622
3	0x3f6f8bf1	0.9357291
4	0x3f889547	1.0670556
5	0x3f7043ed	0.93853647
6	0x3f8133bd	1.0093914
7	0x3f80ad88	1.0052958
8	0x3f74e309	0.9565893
9	0x3f801026	1.0004928
10	0x3f7ebcb1	0.9950667
11	0x3f802672	1.0011733
12	0x3f861a93	1.047686
13	0x3f732dd6	0.94991815
14	0x3f7fe308	0.999558
15	0x3f8039e3	1.0017666
16	0x3f7a158d	0.97689134
17	0x3f767e9c	0.9628694
18	0x3f7a7a40	0.9784279
19	0x3f7affd1	0.98046595
20	0x3f85ff4e	1.0468538
21	0x3f662e0a	0.89914
22	0x3f79f6be	0.97642124
23	0x3f76a5c7	0.96346706
24	0x3f7fdec5	0.99949294
25	0x3f779a10	0.96719456
26	0x3f7d79a2	0.9901372
27	0x3f681f87	0.90673107
28	0x3f763904	0.9618075
29	0x3f7cbacd	0.98722535
30	0x3f7b8895	0.9825528
31	0x3f81ec2c	1.0150199

RepVgg_vi1.rbr_1x1.bn.bias f4 [32]
0	0xbd6ff427	-0.05858245
1	0xbd449f8a	-0.04800371
2	0x3c852268	0.016251758
3	0x3da83def	0.08214938
4	0xba4ce40a	-0.0007815963
5	0x3dbddece	0.09271012
6	0xbd69be86	-0.057066463
7	0x3d91e863	0.071244024
8	0xbe0739be	-0.1320562
9	0xbd3c511f	-0.0459758
10	0x3d0697f0	0.032859743
11	0xbc062164	-0.008186672
12	0xbcf510a9	-0.02991517
13	0x3e3419f8	0.17588031
14	0xbd5c32e9	-0.05375949
15	0x3d23b413	0.039966654
16	0x3d43b43c	0.047779307
17	0x3c3039c4	0.01075596
18	0xbd46a8cb	-0.048500817
19	0x3e1594f5	0.14607604
20	0x3d83baa9	0.06432087
21	0x3cb1ea74	0.021718241
22	0x3bc87a76	0.006118114
23	0xbddf7ea9	-0.109128304
24	0xbd058123	-0.032593857
25	0xbd2986c5	-0.041388292
26	0xbdd11067	-0.102082066
27	0xbc928695	-0.01788644
28	0x3c980390	0.018556386
29	0xbcc9b9d8	-0.02462475
30	0xbd6e11bd	-0.058122385
31	0xbc1a25d0	-0.009408429

RepVgg_vi1.rbr_1x1.bn.running_mean f4 [32]
0	0xc25d0379	-55.25339
1	0xc196072a	-18.753498
2	0x418ec59a	17.846485
3	0xc25ab4d5	-54.676594
4	0x418b90bd	17.445673
5	0x42cb8738	101.7641
6	0xc2864064	-67.12576
7	0xc265aa91	-57.41657
8	0xc23459c3	-45.087658
9	0xc23cd897	-47.211514
10	0x42192a18	38.291107
11	0x42741e7e	61.029778
12	0x425bc174	54.93892
13	0xc1893938	-17.152939
14	0xc19300e4	-18.375435
15	0x42246ebe	41.108147
16	0x416ad3b3	14.676684
17	0x42551269	53.26798
18	0x4289dd91	68.93275
19	0xc1b75ed8	-22.92131
20	0x42874d81	67.651375
21	0xc203c53b	-32.942608
22	0xc120eb18	-10.057396
23	0xc2443dea	-49.060463
24	0xc1fb55df	-31.41693
25	0x4235d382	45.45655
26	0xc1e0901e	-28.07037
27	0xc20abcf1	-34.684513
28	0x41fa53ca	31.290913
29	0xc15e0641	-13.876527
30	0xc1e50eaf	-28.63217
31	0x42140d9f	37.0133

RepVgg_vi1.rbr_1x1.bn.running_var f4 [32]
0	0x4482ad61	1045.4181
1	0x42ee6d45	119.21342
2	0x42e1c827	112.89092
3	0x447bc4bd	1007.07404
4	0x42e7004b	115.50057
5	0x45583fdf	3459.992
6	0x44be1f4d	1520.9781
7	0x448ac1de	1110.0583
8	0x442c8854	690.1301
9	0x444114bd	772.32404
10	0x43f91a3e	498.20502
11	0x449c0b40	1248.3516
12	0x447dca62	1015.16223
13	0x42f31dfb	121.558556
14	0x42e68a24	115.269806
15	0x44116ea9	581.72906
16	0x42921592	73.04213
17	0x446df5c3	951.84
18	0x44c6478b	1586.2357
19	0x432fa1d2	175.63211
20	0x44c11f98	1544.9873
21	0x43b77183	366.8868
22	0x4229669e	42.350212
23	0x444af7a8	811.8696
24	0x43a83244	336.3927
25	0x442c6417	689.5639
26	0x43886667	272.80002
27	0x43cded8a	411.85577
28	0x43aa66ae	340.8022
29	0x429540ec	74.6268
30	0x43907d0b	288.9769
31	0x43ec8fa0	473.12207

RepVgg_vi2.rbr_identity.weight f4 [32]
0	0x3f722a05	0.94595367
1	0x3f85823f	1.0430373
2	0x3f7d6cae	0.9899396
3	0x3f7f7a7c	0.9979627
4	0x3f6f56f4	0.93492055
5	0x3f807a78	1.0037374
6	0x3f79a605	0.9751895
7	0x3f733bac	0.9501293
8	0x3f837672	1.0270522
9	0x3f74bf2f	0.95604223
10	0x3f778347	0.9668469
11	0x3f67b051	0.9050341
12	0x3f716aae	0.94303405
13	0x3f8295d8	1.0201979
14	0x3f75d2f1	0.96024996
15	0x3f7685c7	0.9629788
16	0x3f79c2d1	0.9756289
17	0x3f82358c	1.0172591
18	0x3f7c1127	0.9846367
19	0x3f79d57e	0.9759139
20	0x3f72207c	0.9458082
21	0x3f6892f9	0.9084926
22	0x3f7d589f	0.9896335
23	0x3f6aec4f	0.9176683
24	0x3f76ec21	0.96454054
25	0x3f747ec7	0.95505947
26	0x3f810d0f	1.008211
27	0x3f71c488	0.9444051
28	0x3f8177ae	1.0114648
29	0x3f808e0c	1.0043349
30	0x3f7ec840	0.9952431
31	0x3f7d0f2a	0.98851264

RepVgg_vi2.rbr_identity.bias f4 [32]
0	0x3d9ce33c	0.07660529
1	0xbe29fc9a	-0.16600266
2	0xbc46468c	-0.012101781
3	0x3cc34bea	0.02383991
4	0xbde68be9	-0.112571545
5	0xbd9f3487	-0.07773691
6	0x3d2ea84c	0.04264097
7	0xbda7d9b5	-0.08195821
8	0xbcd0a80c	-0.025470756
9	0x3db45d0e	0.08806811
10	0x3e66fbb1	0.2255695
11	0x3dcec87f	0.10096835
12	0x3de546dc	0.11195156
13	0xbc09ccea	-0.008410672
14	0xbc4d01b0	-0.012512609
15	0xbd2874b7	-0.041126933
16	0xbd8a1d8f	-0.06743919
17	0x3c735713	0.014852303
18	0x3d898e66	0.067166135
19	0xbd9afe1c	-0.07567999
20	0x3ca27a8c	0.019833826
21	0xbce3d92c	-0.027813517
22	0xbcb21247	-0.021737231
23	0x3e147d9a	0.14501038
24	0x3d9f95f0	0.0779227
25	0x3cc05521	0.023478093
26	0x3c647aa2	0.013945254
27	0x3e0587cd	0.13040085
28	0x3bb82f9d	0.0056209103
29	0xbd6189e9	-0.055063162
30	0x3cec3ad5	0.028836647
31	0x3cc6f42b	0.02428635

RepVgg_vi2.rbr_identity.running_mean f4 [32]
0	0x3f3b133c	0.73076224
1	0x3f3b0482	0.73053753
2	0x3f4a87dd	0.7911356
3	0x3f567ec8	0.837872
4	0x3e0cd859	0.13754405
5	0x3e4a776e	0.19772121
6	0x3f3d8c84	0.74042535
7	0x3e938d40	0.28818703
8	0x3f1abcdc	0.60444427
9	0x3e1c914c	0.15289801
10	0x3f525e8f	0.82175535
11	0x3dbc28fc	0.09187505
12	0x3e85024b	0.25978312
13	0x3f736732	0.9507934
14	0x3e2bd456	0.16780218
15	0x3e35038f	0.17677139
16	0x3f50b95c	0.81532836
17	0x3f4424de	0.76618755
18	0x3f37b287	0.71756786
19	0x3ecc76cf	0.39934394
20	0x3e80a970	0.2512927
21	0x3e26dfe1	0.1629634
22	0x3f443608	0.76644945
23	0x3d53ec5e	0.05173909
24	0x3f43a82e	0.76428497
25	0x3deed58c	0.116618246
26	0x3f2c0ed1	0.6721011
27	0x3e332b0c	0.1749689
28	0x3f450c9c	0.76972365
29	0x3f3b76a8	0.7322793
30	0x3e0c7d9c	0.13719791
31	0x3dfc596b	0.123217426

RepVgg_vi2.rbr_identity.running_var f4 [32]
0	0x3f66ef3c	0.9020879
1	0x3f5f9a46	0.8734478
2	0x3fd488a8	1.6604204
3	0x3f7960c7	0.97413296
4	0x3e234c81	0.15947153
5	0x3cc6d1e9	0.024270015
6	0x3f6c96d1	0.9241763
7	0x3df1fb4d	0.1181551
8	0x3f326560	0.69685936
9	0x3e1ca924	0.15298897
10	0x3fe06526	1.7530868
11	0x3e1c37c6	0.15255651
12	0x3ea7c74d	0.32769242
13	0x3f88733f	1.066017
14	0x3e1e81b2	0.15479162
15	0x3e0814dc	0.13289207
16	0x3fd3278c	1.6496444
17	0x3fc68ae3	1.5511135
18	0x3fbc1d9b	1.4696535
19	0x3e244499	0.16041793
20	0x3e3a6e44	0.18206125
21	0x3d856247	0.065128855
22	0x3f62e75a	0.88634264
23	0x3da30411	0.0795976
24	0x3f74a5ec	0.95565677
25	0x3e1324b0	0.14369464
26	0x3f509949	0.81483895
27	0x3e5075f8	0.20357502
28	0x3fc47ed5	1.5351206
29	0x3f56e915	0.83949405
30	0x3e101755	0.140714
31	0x3e302321	0.172009

RepVgg_vi2.rbr_dense.conv.weight f4 [32, 32, 3, 3]
0	0xbda1d145	-0.07901243
1	0xbd0f7605	-0.03502466
2	0xbc8ec6b0	-0.017428726
3	0xbcbe18e5	-0.02320523
4	0x3d076354	0.03305371
5	0xbba48b0e	-0.0050214594
6	0x3ceca1cf	0.02888575
7	0xbc3d61a9	-0.0115589285
8	0xbc8638ec	-0.016384564
9	0xbd4ead68	-0.05045834
10	0xbd1b3b13	-0.037898134
11	0x3c53da3e	0.012930451
12	0xbd776c6c	-0.060406134
13	0xbd0ea859	-0.034828518
14	0xbc908177	-0.017639859
15	0xbafae10a	-0.0019140553
16	0xbb17ac45	-0.0023143452
17	0xbcc61fa3	-0.024185007
18	0xbd723010	-0.059127867
19	0x3d6f3ee4	0.058409587
20	0x3caeab5f	0.02132195
21	0x3c9913f7	0.018686278
22	0x3d77ef64	0.060531035
23	0x3c9992a1	0.018746676
24	0xbd581dbf	-0.052762743
25	0x3d7a7b3b	0.061152678
26	0xbd0c603a	-0.034271456
27	0xbcc10bd0	-0.023565203
28	0xbcd5a6b3	-0.026080465
29	0x3d133579	0.035939667
30	0xbb229d26	-0.0024812906
31	0x3c9b330c	0.01894524
32	0x3d3e39fe	0.046442024
33	0xbd2ba937	-0.041909423
34	0xbd5b2ef8	-0.05351159
35	0x3d123e25	0.035703797
36	0x3d35fea5	0.0444323
37	0xbba06266	-0.0048945425
38	0xbc696568	-0.014245369
39	0xbd82c71c	-0.06385633
40	0x3d1abc24	0.03777708
41	0xbc6e4d3a	-0.014544779
42	0x3d793b30	0.06084746
43	0xbad93698	-0.0016572056
44	0x3d47361d	0.04863559
45	0xbc7c58f8	-0.015402071
46	0x3cf7bc21	0.030241074
47	0xbcfe427a	-0.031037558
48	0xbcb57989	-0.022152679
49	0xbc0f0443	-0.008729043
50	0xbc21c663	-0.009873959
51	0x3de63707	0.112409644
52	0x3d93bece	0.072141275
53	0x3cc42cfc	0.023947231
54	0xbd264cc4	-0.040600553
55	0x3ce55681	0.02799535
56	0x3ca97bcc	0.020688914
57	0x3ad34b7f	0.0016120522
58	0xbb1221cd	-0.002229798
59	0xbc336470	-0.010949239
60	0xbc7dff83	-0.015502813
61	0x3d622d67	0.05521908
62	0xbd61c458	-0.05511889
63	0xbc5f0f40	-0.013614476
64	0x3c80852c	0.015688501
65	0x3d8f7b88	0.070059836
66	0x3d35970a	0.044333495
67	0xbc557f76	-0.013030877
68	0x3d1fb4f7	0.03899094
69	0x3ad7d549	0.0016466762
70	0xbd5c797b	-0.05382679
71	0xbdaf3028	-0.08554107
72	0xbc2fdf39	-0.010734373
73	0x3d405f4b	0.04696588
74	0xbbe5a04c	-0.0070076343
75	0xbca64c24	-0.020299979
76	0xbcb0938b	-0.021554729
77	0x3cf16de3	0.029471343
78	0xbcaab339	-0.020837413
79	0x3c831ff4	0.016006447
80	0x3d89f6d2	0.0673653
81	0x3c2ee4f6	0.010674706
82	0xbc8b5a9d	-0.017010981
83	0xbd5ba315	-0.053622324
84	0x3d093574	0.033498242
85	0x3bf9361d	0.0076053278
86	0xbc34b805	-0.011030202
87	0x3d8d3f15	0.068967976
88	0x3de72e23	0.11288097
89	0x3ad6646c	0.0016356832
90	0xbd7b4ba7	-0.061351445
91	0xbc869e2c	-0.016432844
92	0x3cc6931d	0.024240071
93	0x3d4819b6	0.048852645
94	0xba588164	-0.0008259027
95	0xbd6d3e17	-0.05792054
96	0x3c90c722	0.017673079
97	0xbd44adba	-0.04801724
98	0x3d41475e	0.0471872
99	0x3cabaf11	0.020957502
100	0x3dbf0b66	0.09328346
101	0xbd010818	-0.03150186
102	0x3d2929d6	0.041299663
103	0xb778f4c3	-1.483894e-05
104	0xbd55ab25	-0.05216517
105	0xbcc93598	-0.024561688
106	0x3bcd3056	0.0062618656
107	0x3d895eef	0.0670756
108	0xbd774727	-0.06037059
109	0x3dbd7279	0.092503496
110	0x3b4c1fa4	0.003114679
111	0x3d4ae4c8	0.04953459
112	0x3c4315d7	0.0119070625
113	0xbd3c4b7c	-0.045970425
114	0x3c9540b5	0.018219331
115	0xbca74356	-0.02041785
116	0xbd3bafc1	-0.04582191
117	0xbc574af8	-0.013140433
118	0xbc38ed65	-0.011287068
119	0xbc94fa93	-0.01818589
120	0x3c3fde1a	0.011710668
121	0x3d43f889	0.047844443
122	0x3cc52c04	0.02406884
123	0x3d833a90	0.06407654
124	0x3d17b9c7	0.037042405
125	0xbc30879b	-0.010774518
126	0x3c0aee7b	0.00847971
127	0x3d1fd2ef	0.03901952
128	0x3bcf787e	0.0063315025
129	0xbd65e521	-0.056126717
130	0xbba094bb	-0.0049005426
131	0x3d2d4dda	0.042310573
132	0x3d094979	0.033517335
133	0x3daa0ddc	0.08303425
134	0x3ca4a9e3	0.02010054
135	0x3d04f58c	0.032460734
136	0x3d8bdbe8	0.06829053
137	0xbc663043	-0.014049592
138	0x3c77bbcc	0.015120458
139	0xbdcae36b	-0.09906658
140	0xbc172752	-0.009225683
141	0xbc2fbaec	-0.010725718
142	0x3bcf0e19	0.0063188192
143	0xbd3501a1	-0.044191007
144	0x3d0b12a1	0.033953313
145	0x3d4e57b2	0.0503766
146	0xbc94ff80	-0.018188238
147	0xbc0a6ea7	-0.008449233
148	0x3d011567	0.03151455
149	0xbcdae418	-0.026720092
150	0x3d0db7d4	0.03459914
151	0xbda0bbeb	-0.078483425
152	0xbd911551	-0.07084144
153	0xbd4e0b82	-0.050303943
154	0xbd43f4d5	-0.047840912
155	0xbbe14afa	-0.006875393
156	0xbd560777	-0.052253213
157	0x3d105946	0.035241388
158	0xbd5f4c5d	-0.054516185
159	0x3d309a5b	0.043115955
160	0xbb111583	-0.0022138066
161	0xbc1eff8f	-0.009704485
162	0x3d35ef02	0.04441739
163	0x3bcb0c85	0.006196561
164	0xbd38bf74	-0.04510446
165	0x3d00ed44	0.031476274
166	0xbd8b5f45	-0.068052806
167	0x3c591951	0.013250665
168	0xbcda195f	-0.026623426
169	0x3c901ce1	0.017591896
170	0xbd356fb0	-0.044295967
171	0xba8d0fd8	-0.0010762168
172	0xbca6735e	-0.020318683
173	0x3dcb1603	0.09916308
174	0xbd6eec5b	-0.058330875
175	0x3ccc8ddc	0.024969988
176	0x3d173a46	0.03692081
177	0xbc31512c	-0.010822576
178	0x3d6125bc	0.054967627
179	0xbd0a7398	-0.033801645
180	0xbac8ccfa	-0.0015319877
181	0x3c22dcd6	0.009940347
182	0x3d432d2f	0.047650512
183	0xbd39731a	-0.045275785
184	0x3ce44c40	0.02786839
185	0x3c9c8d82	0.019110445
186	0xbb45bb83	-0.003017158
187	0x3cb652ab	0.022256216
188	0xbce30947	-0.027714385
189	0xbdc2b3a3	-0.09506919
190	0xbbb38aa8	-0.0054791756
191	0xbd8156cb	-0.063153826
192	0xbd2dc1eb	-0.042421263
193	0x3d104907	0.035225894
194	0xbd4e1e09	-0.050321613
195	0xbd18c97e	-0.037301533
196	0xbcf69f9d	-0.030105406
197	0xbd97e9bc	-0.07417628
198	0x3d1a9cdb	0.037747245
199	0x3ca5cb10	0.02023843
200	0x3d998bc1	0.07497359
201	0x3c42880e	0.011873258
202	0x3c8a4ec6	0.016883265
203	0x38f1dc24	0.0001153278
204	0x3d1a8c46	0.03773143
205	0x3d7a4cd8	0.06110844
206	0x3c75673f	0.014978229
207	0x3cb9580f	0.022624997
208	0x3bf76db7	0.007550921
209	0xbd902d3c	-0.07039878
210	0x3d0d276c	0.034461424
211	0x3cbcc766	0.0230443
212	0x3d49516e	0.049149923
213	0x3d09451a	0.033513166
214	0x3d2845b0	0.041082084
215	0x3dcf263e	0.10114716
216	0x3c90e461	0.017687025
217	0xbbfef6fc	-0.0077809077
218	0xbd6b6eea	-0.057478823
219	0x3c645b1c	0.013937738
220	0x3c5ef463	0.013608071
221	0xbd1c0c71	-0.038097803
222	0xbcc9a620	-0.024615347
223	0xbd6b4db1	-0.05744714
224	0xbb91923b	-0.004442481
225	0x3cf2b37e	0.029626604
226	0x3d911084	0.07083228
227	0x3daadf44	0.08343366
228	0xbd45adfb	-0.048261624
229	0x3cc50486	0.024050009
230	0x3d8e2a86	0.069417045
231	0xbd7b939f	-0.06142008
232	0xbd3f8e50	-0.04676658
233	0x3d0e84cb	0.03479461
234	0x3c32d98d	0.010916126
235	0x3caaad9c	0.020834737
236	0xbd281dca	-0.041044034
237	0x3d8234dc	0.063577384
238	0xbc8d9d72	-0.01728699
239	0x3c6c79bb	0.01443332
240	0xbd34a79e	-0.044105165
241	0xbd3c30eb	-0.04594509
242	0xbd3c50aa	-0.045975365
243	0x3d2e3318	0.042529196
244	0x3b35aece	0.00277226
245	0xbc51943c	-0.0127916895
246	0xbdd002cc	-0.101567835
247	0x39e229ad	0.0004313713
248	0x3c527a33	0.012846517
249	0xbdfe424f	-0.12414991
250	0xbccef921	-0.025265278
251	0x3cbd766f	0.023127763
252	0x3d74f0e1	0.059800033
253	0x3d44aa26	0.04801383
254	0x3d07073f	0.032965895
255	0x3d30ae21	0.043134812

RepVgg_vi2.rbr_dense.bn.weight f4 [32]
0	0x3f88f745	1.0700461
1	0x3f87f134	1.0620484
2	0x3f8038c4	1.0017323
3	0x3f8169be	1.0110395
4	0x3f84d829	1.0378467
5	0x3f8b4f6f	1.0883616
6	0x3f83e721	1.030491
7	0x3f8cafa6	1.0991104
8	0x3f848004	1.0351567
9	0x3f8a3c3e	1.0799634
10	0x3f84f079	1.0385886
11	0x3f9c5eb3	1.22164
12	0x3f86e744	1.0539327
13	0x3f86410a	1.0488598
14	0x3f870132	1.054724
15	0x3f8c1427	1.094365
16	0x3f81ec5d	1.0150257
17	0x3f83bbca	1.0291684
18	0x3f861585	1.0475317
19	0x3f94481f	1.158451
20	0x3f7fa918	0.9986739
21	0x3f8d004c	1.1015716
22	0x3f8347cf	1.0256289
23	0x3f89b032	1.0756896
24	0x3f86f43c	1.0543284
25	0x3f916360	1.1358452
26	0x3f818122	1.0117533
27	0x3f8ab6b8	1.0837011
28	0x3f856115	1.0420252
29	0x3f85fe21	1.0468179
30	0x3f802fab	1.0014547
31	0x3f84c380	1.0372162

RepVgg_vi2.rbr_dense.bn.bias f4 [32]
0	0x3d9ce33c	0.07660529
1	0xbe29fc9a	-0.16600266
2	0xbc46468c	-0.012101781
3	0x3cc34bea	0.02383991
4	0xbde68be9	-0.112571545
5	0xbd9f3487	-0.07773691
6	0x3d2ea84c	0.04264097
7	0xbda7d9b5	-0.08195821
8	0xbcd0a80c	-0.025470756
9	0x3db45d0e	0.08806811
10	0x3e66fbb1	0.2255695
11	0x3dcec87f	0.10096835
12	0x3de546dc	0.11195156
13	0xbc09ccea	-0.008410672
14	0xbc4d01b0	-0.012512609
15	0xbd2874b7	-0.041126933
16	0xbd8a1d8f	-0.06743919
17	0x3c735713	0.014852303
18	0x3d898e66	0.067166135
19	0xbd9afe1c	-0.07567999
20	0x3ca27a8c	0.019833826
21	0xbce3d92c	-0.027813517
22	0xbcb21247	-0.021737231
23	0x3e147d9a	0.14501038
24	0x3d9f95f0	0.0779227
25	0x3cc05521	0.023478093
26	0x3c647aa2	0.013945254
27	0x3e0587cd	0.13040085
28	0x3bb82f9d	0.0056209103
29	0xbd6189e9	-0.055063162
30	0x3cec3ad5	0.028836647
31	0x3cc6f42b	0.02428635

RepVgg_vi2.rbr_dense.bn.running_mean f4 [32]
0	0x3de97293	0.113988064
1	0xbd74c917	-0.059762087
2	0x3d6491c1	0.055803064
3	0x3f9e5f8f	1.2372912
4	0x3f37da24	0.7181723
5	0x3ea75204	0.3267976
6	0x3e8f188a	0.2794841
7	0x3e98cc89	0.29843548
8	0x3e01d342	0.12678245
9	0xbe31a5f5	-0.17348464
10	0xbfc19da9	-1.5126239
11	0xbd0dce49	-0.034620557
12	0xbf9e3958	-1.236125
13	0x3d31b27e	0.043383114
14	0x3ec8a8aa	0.3919118
15	0x3e1893f3	0.14900188
16	0xbdc55b31	-0.09636534
17	0x3f268439	0.65045506
18	0xbeb3f5b8	-0.35148406
19	0xbd90e05d	-0.07074044
20	0xbf1a86c1	-0.6036187
21	0xbf941c99	-1.1571227
22	0x3f00faf0	0.503829
23	0xbf546b4c	-0.8297622
24	0xbf9336fd	-1.1501156
25	0xbe9215a5	-0.28532138
26	0x3f518fce	0.81860054
27	0xbe45ddef	-0.19322942
28	0x3ebeb95e	0.372508
29	0x3f8e9597	1.1139401
30	0xbe2dfa45	-0.16990001
31	0xbefa296a	-0.4885972

RepVgg_vi2.rbr_dense.bn.running_var f4 [32]
0	0x3dd8fd10	0.10595143
1	0x3d49eb2c	0.049296543
2	0x3e2eac88	0.17058003
3	0x3f88a789	1.0676128
4	0x3ea28d50	0.31748438
5	0x3df15685	0.117840804
6	0x3ecf207a	0.40454465
7	0x3e3468e3	0.17618136
8	0x3e1ab7ea	0.1510922
9	0x3eead417	0.45864937
10	0x400f81c1	2.2422945
11	0x3d8060f0	0.06268489
12	0x3f7c7604	0.9861758
13	0x3ea45ca0	0.32101917
14	0x3ed7d6b2	0.42155987
15	0x3e08a7a7	0.13345204
16	0x3e4ac61e	0.19802138
17	0x3f00f1e7	0.50369114
18	0x3e591ceb	0.21202438
19	0x3d50330e	0.05082994
20	0x3f2c711d	0.673601
21	0x3f405e99	0.75144345
22	0x3ea73ac3	0.3266202
23	0x3f7b1ca6	0.9809059
24	0x3f67b199	0.9050537
25	0x3e022e40	0.12712955
26	0x3f4112b9	0.75419194
27	0x3dcbb49d	0.099465586
28	0x3d986011	0.07440198
29	0x3f2760bd	0.65381986
30	0x3ec83744	0.39104664
31	0x3ef20c5d	0.47275057

RepVgg_vi2.rbr_1x1.conv.weight f4 [32, 32, 1, 1]
0	0x3cd3b0e8	0.025841191
1	0xbd1ed4e1	-0.038777236
2	0x3dd99518	0.106241405
3	0xbdb9a2d2	-0.09064259
4	0x3decdbde	0.11565374
5	0x3ded0656	0.11573474
6	0xbe2ae03c	-0.16687101
7	0xbd7063a2	-0.058688767
8	0xbe169a2d	-0.14707251
9	0xbd0b7c96	-0.03405436
10	0xbd702253	-0.058626484
11	0x3d46f075	0.04856916
12	0x3caed7ae	0.021343078
13	0x3d691a98	0.056910127
14	0x3dd54d33	0.10415115
15	0xbe102efa	-0.1408042
16	0x3d66dd82	0.05636359
17	0xbe2d876d	-0.16946192
18	0x3dd7f7db	0.105453216
19	0x3e2dd4ff	0.16975783
20	0x3d07c786	0.033149265
21	0xbdb27ebf	-0.08715581
22	0xbe038ab1	-0.12845875
23	0xbd866ae8	-0.065633595
24	0xbd914ab6	-0.07094328
25	0x3dec307c	0.11532685
26	0x3d60d2a1	0.05488837
27	0x3e0b23b6	0.13587841
28	0x3db8b82a	0.090195015
29	0x3d3bd9a2	0.045861848
30	0x3d042c5b	0.032268863
31	0xbe0d8d28	-0.13823378
32	0xbd8c108f	-0.06839096
33	0xbc911bd4	-0.017713465
34	0xbd974ca7	-0.07387667
35	0xbd244be0	-0.040111423
36	0x3dd65cd2	0.10466923
37	0xbd0aa219	-0.033845995
38	0x3e05b1de	0.13056132
39	0xbd64b01c	-0.055832013
40	0xbdfe24d9	-0.12409372
41	0x3cc165f2	0.023608182
42	0x3dcaaa95	0.09895817
43	0xbe1f92c8	-0.15583336
44	0xbc85f733	-0.016353225
45	0xbd1de5b5	-0.038549144
46	0x3e357122	0.17718938
47	0xbd50f26a	-0.051012434
48	0xbdac8c21	-0.08425165
49	0xbe2a5a10	-0.16635919
50	0x3de3f0be	0.11129902
51	0xbd93eebc	-0.07223269
52	0xbcab920e	-0.020943668
53	0xbd4031b0	-0.046922386
54	0x3d02faca	0.031977452
55	0x3dcf3abb	0.10118624
56	0x3e329112	0.17438152
57	0x3e172e0d	0.1476366
58	0x3dccca80	0.09999561
59	0x3ded104e	0.115753755
60	0x3e05b15a	0.13055936
61	0xbe1be2dd	-0.1522326
62	0xbd029500	-0.03188038
63	0x3dfbf084	0.12301734
64	0x3c045a6c	0.008078199
65	0x3db6eba2	0.08931662
66	0x3daeeb90	0.08541024
67	0xbdfe0247	-0.12402778
68	0x3d1effdf	0.038818236
69	0x3d9ce637	0.076610975
70	0x3d10749a	0.03526745
71	0xbe0bd45a	-0.13655224
72	0x3d9a6af6	0.075399324
73	0x3d8ac607	0.06776052
74	0x3da47f57	0.08032101
75	0xbdca2044	-0.098694354
76	0x3d9ff57c	0.07810494
77	0xbd18465b	-0.03717647
78	0x3dbe644f	0.09296476
79	0xbe477b59	-0.19480647
80	0x3e09a5f1	0.13442208
81	0xbe1629f1	-0.14664437
82	0x3cadbce9	0.021208243
83	0xbddde3c1	-0.10834456
84	0x3d2365a2	0.039891846
85	0x3e1774ab	0.14790599
86	0x3e2a1292	0.16608647
87	0x3e3c7435	0.18403704
88	0xbd13509d	-0.03596555
89	0xbd1b8fbb	-0.03797887
90	0xbe1da304	-0.15394217
91	0x3df0dc44	0.11760762
92	0xbd2e9670	-0.042623937
93	0x3d28a777	0.041175332
94	0x3d3b1d77	0.045682397
95	0x3c78af48	0.015178509
96	0xbd752865	-0.059852976
97	0x3daa7e3e	0.0832486
98	0xbe3533b5	-0.17695506
99	0x3dd7e2e5	0.105413236
100	0xbdb620d1	-0.08892978
101	0xbd49a921	-0.04923356
102	0x3de1408f	0.10998642
103	0xbd897955	-0.067125954
104	0xbdd1da0e	-0.10246669
105	0xbe06e0fa	-0.13171759
106	0xbd4ca4b2	-0.049961753
107	0x3e08f372	0.13374117
108	0x3dbe68c2	0.09297325
109	0xbd138d1d	-0.036023248
110	0x3c86d398	0.016458318
111	0xbc8ef1e0	-0.01744932
112	0x3c088e1b	0.008334662
113	0xbd993df4	-0.0748252
114	0x3d705aff	0.05868053
115	0x3d6d3d13	0.057919573
116	0x3d79f1c0	0.061021566
117	0xbd5c7d38	-0.053830355
118	0x3e2c3ae7	0.16819344
119	0xbd9cf81b	-0.0766451
120	0xbd064d83	-0.032788765
121	0xbce36ca3	-0.027761763
122	0xbd0acfbb	-0.033889513
123	0x3d4c438b	0.0498691
124	0xbe11ab60	-0.1422553
125	0x3d9d3fb1	0.07678164
126	0x3e16bdbe	0.14720818
127	0xbd49b345	-0.04924323
128	0x3e248594	0.16066581
129	0x3cfdf3f7	0.03100012
130	0x3e1b01bb	0.15137379
131	0x3c4b34cc	0.0124027245
132	0xbe64f381	-0.22358514
133	0xbd71d8f9	-0.059044812
134	0xbcde9f45	-0.027175555
135	0x3d42a825	0.047523636
136	0x3df69453	0.12040009
137	0x3e2e6ebf	0.17034434
138	0x3e1864f9	0.14882268
139	0xbdef8499	-0.11695213
140	0x3d8e573d	0.06950233
141	0x3e191a2c	0.1495139
142	0xbde5a0e8	-0.11212331
143	0xbe09fd5e	-0.13475558
144	0x3e277f35	0.1635712
145	0x3de584f1	0.11206997
146	0xbe26fa74	-0.16306478
147	0x3df6796d	0.12034879
148	0xbdcec94e	-0.100969896
149	0xbc8f1dcd	-0.017470265
150	0xbc780aec	-0.015139323
151	0xbdd11c61	-0.10210491
152	0x3d907038	0.07052654
153	0x3e214cb9	0.15751924
154	0x3e2e1f13	0.17004041
155	0x3dd6af7f	0.10482692
156	0xbd97d126	-0.07412939
157	0x3d339275	0.043840844
158	0x3da18ac2	0.07887794
159	0xbe2fd3b0	-0.17170596
160	0xbc9059c3	-0.017620927
161	0x3ced9fe0	0.029006898
162	0xbd8ceec3	-0.06881478
163	0x3e4b9eb0	0.19884753
164	0xbe02c737	-0.12771307
165	0xbdd2854d	-0.10279331
166	0x3dda2b5f	0.10652804
167	0x3de3b829	0.1111911
168	0xbd9b50a5	-0.07583741
169	0x3dfd85f1	0.12379063
170	0x3dc292fb	0.095006905
171	0x3d9dfdab	0.07714399
172	0xbd668132	-0.056275554
173	0x3e2b91d4	0.16754848
174	0xbcdf223d	-0.027238006
175	0x3d4511d3	0.0481127
176	0xbdc85fd2	-0.09783901
177	0x3dea2cca	0.11434324
178	0xbe43cca7	-0.19121037
179	0x3d25e14a	0.040498056
180	0x3e0be475	0.13661368
181	0xbdabfa0d	-0.08397303
182	0xbe1870a9	-0.14886726
183	0xbc877bd7	-0.016538544
184	0x3e3133a7	0.1730486
185	0x3d9dbfc0	0.07702589
186	0xbd28f987	-0.041253593
187	0xbe81e843	-0.25372514
188	0xbc1cd942	-0.009573283
189	0x3dadf40f	0.08493816
190	0xbcf962f3	-0.03044269
191	0x3ddac54f	0.10682165
192	0xbccb6d93	-0.024832522
193	0xbdc1eb53	-0.09468713
194	0x3d8e3c90	0.06945145
195	0xbd133bf8	-0.035945863
196	0x3d1d7aad	0.03844707
197	0x3d9a8c0f	0.07546245
198	0xbddfdae4	-0.10930422
199	0xbdae3823	-0.08506801
200	0xbca30e4f	-0.019904284
201	0xbd93c0d8	-0.072145164
202	0x3e297bab	0.16551082
203	0x3def5c5b	0.11687537
204	0x3cb24aa6	0.02176411
205	0xbe072c9c	-0.13200611
206	0x3ca5b618	0.02022843
207	0xbcedfd8a	-0.02905156
208	0x3e5b5b33	0.21421508
209	0x3d2dfacf	0.042475518
210	0xbc575867	-0.013143635
211	0x3e0b9866	0.13632354
212	0x3e16d049	0.14727892
213	0xbe21dff7	-0.15808092
214	0x3d11de15	0.035612185
215	0xbd7f6ae4	-0.0623578
216	0x3dc94016	0.098266765
217	0x3e0431b9	0.12909593
218	0x3c99fa0b	0.018795988
219	0xbc985ceb	-0.018598994
220	0xbc372dd3	-0.011180359
221	0x3e0bcaf0	0.13651633
222	0xb8c58014	-9.4175484e-05
223	0xbd968633	-0.07349815
224	0x3d83af56	0.06429927
225	0xbdc77f1b	-0.0974104
226	0xbe054418	-0.13014257
227	0x3e3f3d4c	0.18675727
228	0xbdc16af8	-0.09444231
229	0x3dce79fa	0.10081859
230	0x3e241c50	0.16026425
231	0xbe2e28fa	-0.17007819
232	0x3d96983b	0.073532544
233	0xbd0cd061	-0.034378413
234	0xbe3c8faf	-0.18414186
235	0xbe2cf377	-0.1688975
236	0x3df49db8	0.11944145
237	0x3e1a5feb	0.15075652
238	0xbc28a6e6	-0.010293698
239	0xbda5f3de	-0.081031546
240	0x3e1c19b9	0.15244187
241	0xbda58cca	-0.08083494
242	0x3e0fa594	0.14028007
243	0x3cedd80e	0.029033687
244	0xbe2d9bc0	-0.16953945
245	0x3e329aba	0.17441836
246	0xbbacfe6b	-0.0052793524
247	0x3e35102f	0.17681955
248	0xbe382c69	-0.17985691
249	0xbdfa288b	-0.12214764
250	0xbdcbb798	-0.09947127
251	0xbe1cf564	-0.15327984
252	0x3e0a0878	0.13479793
253	0x3e1b65c2	0.15175536
254	0x3dc99b61	0.09844089
255	0x3dd5ec71	0.10445488

RepVgg_vi2.rbr_1x1.bn.weight f4 [32]
0	0x3f832764	1.0246396
1	0x3f7e374e	0.9930314
2	0x3f80c290	1.0059376
3	0x3f808c0e	1.0042741
4	0x3f85eae7	1.0462312
5	0x3f80aa18	1.0051908
6	0x3f810744	1.0080342
7	0x3f86b68c	1.0524459
8	0x3f811ef4	1.0087571
9	0x3f80b7a1	1.0056039
10	0x3f8265b3	1.0187286
11	0x3f8058ff	1.002716
12	0x3f84c65d	1.0373036
13	0x3f7ad2e2	0.9797803
14	0x3f86eabf	1.0540389
15	0x3f726984	0.94692254
16	0x3f779d96	0.9672483
17	0x3f81f173	1.015181
18	0x3f82deee	1.0224283
19	0x3f85b67a	1.0446312
20	0x3f8158e3	1.0105251
21	0x3f89bc9a	1.0760682
22	0x3f78459b	0.9698121
23	0x3f89e1a5	1.0771986
24	0x3f85b957	1.0447186
25	0x3f7a27c3	0.9771692
26	0x3f7b08ae	0.9806012
27	0x3f81c696	1.0138729
28	0x3f7b6dbc	0.98214316
29	0x3f832f3f	1.0248793
30	0x3f7a1c50	0.9769945
31	0x3f7c7045	0.9860881

RepVgg_vi2.rbr_1x1.bn.bias f4 [32]
0	0x3d9ce33c	0.07660529
1	0xbe29fc9a	-0.16600266
2	0xbc46468c	-0.012101781
3	0x3cc34bea	0.02383991
4	0xbde68be9	-0.112571545
5	0xbd9f3487	-0.07773691
6	0x3d2ea84c	0.04264097
7	0xbda7d9b5	-0.08195821
8	0xbcd0a80c	-0.025470756
9	0x3db45d0e	0.08806811
10	0x3e66fbb1	0.2255695
11	0x3dcec87f	0.10096835
12	0x3de546dc	0.11195156
13	0xbc09ccea	-0.008410672
14	0xbc4d01b0	-0.012512609
15	0xbd2874b7	-0.041126933
16	0xbd8a1d8f	-0.06743919
17	0x3c735713	0.014852303
18	0x3d898e66	0.067166135
19	0xbd9afe1c	-0.07567999
20	0x3ca27a8c	0.019833826
21	0xbce3d92c	-0.027813517
22	0xbcb21247	-0.021737231
23	0x3e147d9a	0.14501038
24	0x3d9f95f0	0.0779227
25	0x3cc05521	0.023478093
26	0x3c647aa2	0.013945254
27	0x3e0587cd	0.13040085
28	0x3bb82f9d	0.0056209103
29	0xbd6189e9	-0.055063162
30	0x3cec3ad5	0.028836647
31	0x3cc6f42b	0.02428635

RepVgg_vi2.rbr_1x1.bn.running_mean f4 [32]
0	0xbe01c5a7	-0.12673055
1	0x3c88edf4	0.016715027
2	0x3e1bc356	0.15211233
3	0xbd5a38ad	-0.053276706
4	0x3f5302fa	0.82426417
5	0x3ea6531a	0.32485276
6	0x3ea5a9d1	0.32356122
7	0x3e9884a7	0.29788706
8	0x3eecaf70	0.46227598
9	0xbf021b7d	-0.50823194
10	0xbf1bcc26	-0.6085838
11	0xbf03a65a	-0.5142571
12	0xbf06f53c	-0.5271795
13	0xbf111b81	-0.5668259
14	0x3e2f582b	0.17123477
15	0xbeb5742b	-0.35440192
16	0x3e7f620d	0.24939747
17	0x3e9c9585	0.30582824
18	0x3e54d8bc	0.20785803
19	0x3dea14a0	0.11429715
20	0xbf238f9a	-0.63890994
21	0xbf19ee2f	-0.60129064
22	0x3c88fca8	0.016722038
23	0xbf093cd1	-0.53608423
24	0xbf041dc2	-0.51607907
25	0x3d0e6dbd	0.034772623
26	0xbef271b0	-0.47352362
27	0xbefcf9a5	-0.49409214
28	0x3e5708cf	0.20999454
29	0x3eea3e58	0.4575069
30	0xbd2e234a	-0.042514123
31	0xbe958cb5	-0.29208913

RepVgg_vi2.rbr_1x1.bn.running_var f4 [32]
0	0x3e86b400	0.26309204
1	0x3cb3ffb6	0.021972518
2	0x3da522b2	0.08063258
3	0x3ec94f00	0.39318085
4	0x3ec3c7fb	0.3823851
5	0x3edc9026	0.43078727
6	0x3f043760	0.51646996
7	0x3e40c2ed	0.18824358
8	0x3efff397	0.49990532
9	0x3e22adfb	0.15886681
10	0x3f8f57f2	1.1198714
11	0x3e24c540	0.1609087
12	0x3e528a7d	0.20560642
13	0x3e7cbe82	0.24682048
14	0x3f3d5519	0.73957974
15	0x3f6df94f	0.9295854
16	0x3da8661b	0.082226
17	0x3e3ecbdf	0.18632458
18	0x3e9c72f9	0.30556467
19	0x3d004879	0.031319115
20	0x3f2091f7	0.62722725
21	0x3e8e1fcc	0.27758634
22	0x3da0bc76	0.07848446
23	0x3e590adc	0.21195549
24	0x3f38d05f	0.7219295
25	0x3dc43542	0.095804706
26	0x3e3094fd	0.17244335
27	0x3efef759	0.49798086
28	0x3dcf63a8	0.1012643
29	0x3da2eca3	0.07955291
30	0x3edab3f0	0.42715406
31	0x3f0db7a1	0.5535832
