models/test/test1_model.model (torch, 222460 bytes, 20 tensors)

conv_vi.conv2d.weight f4 [16, 1, 3, 3]
-0.08515681 0.17964253 0.022732204 0.109499656 0.33746174 -0.08502387 -0.55514956 -0.30936676
-0.36889866 0.046616968 -0.30434683 -0.13628115 0.08996463 -0.03346589 0.22248702 0.27212268
0.27980366 0.021525249 0.10571094 0.088461496 -0.22922008 0.0298173 0.17072903 0.028609894
-0.0071866205 -0.12821421 0.05449883 -0.32240567 -0.028655784 0.19861998 0.19497037 0.15682901
-0.034930144 0.16016546 -0.2012436 0.0166737 -0.12341603 -0.15677479 0.037603695 -0.02674112
0.32061782 0.031433344 -0.021313077 0.20306547 0.23542927 -0.107722566 0.098995656 0.07910836
0.32242227 0.14570844 -0.10606766 -0.12507646 -0.08418517 -0.30387315 0.126257 -0.15287413
0.050154585 0.04864914 -0.045406304 -0.2414445 0.17629138 -0.16275834 0.31610158 0.26621708
-0.20964988 -0.3138978 0.035265192 -0.29043978 0.08776387 0.1726819 -0.063848704 0.3106476
-0.14361326 -0.028202763 0.4016082 -0.023483211 0.2011201 -0.21375516 -0.17213309 -0.29718626
0.0103846295 0.03029567 -0.18042172 0.20629056 -0.2925465 0.20870367 0.27196953 0.086226806
0.13278733 0.18935 -0.28734365 0.06944855 -0.2775073 -0.24311201 0.23417634 0.2763816
0.13273726 0.17849457 0.28406164 0.10778118 -0.029819718 0.19748826 0.050762396 -0.29802898
0.33686078 -0.11271097 -0.2505517 -0.1189198 -0.071753666 -0.050426632 0.23925546 0.054911315
0.06339278 0.026369512 -0.19382744 -0.013367875 -0.23829561 0.03208155 0.2804539 0.31026185
0.19909558 0.035355028 -0.17050195 0.11109089 -0.06625492 -0.10547719 -0.2286113 0.030453594
0.3122464 -0.109059215 0.11821128 0.023869736 -0.20955804 0.27014172 0.106329165 -0.011260896
-0.11084733 0.3671531 -0.34090787 -0.12995344 0.18943748 -0.14620493 -0.08763656 -0.05765035
00000000: b266 aebd 36f4 373e e338 ba3c 5b41 e03d
00000010: c9c7 ac3e ff20 aebd 481e 0ebf 5265 9ebe
00000020: 49e0 bcbe 6ff1 3e3d 59d3 9bbe 498d 0bbe
00000030: 603f b83d 8713 09bd a3d3 633e aa53 8b3e
00000040: 6d42 8f3e b855 b03c fa7e d83d 4d2b b53d
00000050: abb8 6abe 6943 f43c 97d3 2e3e 4c5f ea3c
00000060: be7d ebbb 964a 03be 2a3a 5f3d 5b12 a5be
00000070: 89bf eabc 0963 4b3e 50a6 473e c997 203e
00000080: e912 0fbd 6a02 243e cd12 4ebe 4997 883c
00000090: 8bc1 fcbd 9289 20be 5506 1a3d 3110 dbbc
000000a0: 0528 a43e 40c0 003d c398 aebc 65f0 4f3e
000000b0: 5f14 713e a69d dcbd 3cbe ca3d 9003 a23d
000000c0: 8814 a53e 9834 153e 003a d9bd 0b14 00be
000000d0: 4669 acbd 4395 9bbe 8449 013e 098b 1cbe
000000e0: e56e 4d3d 5244 473d f6fb 39bd 3a3d 77be
000000f0: ba85 343e 1faa 26be 11d8 a13e 9b4d 883e
00000100: 75ae 56be 36b7 a0be 3c72 103d 86b4 94be
00000110: 8bbd b33d 86d3 303e 1cc3 82bd 340d 9f3e
00000120: 5b0f 13be 7b09 e7bc 979f cd3e dd5f c0bc
00000130: 6df2 4d3e a2e2 5abe a843 30be cc28 98be
00000140: 4b24 2a3c a02e f83c 79c0 38be d53d 533e
00000150: a8c8 95be 6ab6 553e 973f 8b3e ae97 b03d
00000160: 67f9 073e f7e4 413e b51e 93be 0b3b 8e3d
00000170: 7015 8ebe 5bf2 78be eccb 6f3e e481 8d3e
00000180: 47ec 073e 48c7 363e 8770 913e 61bc dc3d
00000190: 7b48 f4bc 5d3a 4a3e 3bec 4f3d 4197 98be
000001a0: 0479 ac3e 02d5 e6bd 5048 80be 398c f3bd
000001b0: 96f3 92bd 288c 4ebd 62ff 743e b0ea 603d
000001c0: 13d4 813d e004 d83c b37a 46be ee04 5bbc
000001d0: c403 74be f267 033d a797 8f3e a4da 9e3e
000001e0: b6df 4b3e 6fd0 103d 1098 2ebe 9f83 e33d
000001f0: a9b0 87bd 6d04 d8bd 1519 6abe d179 f93c
00000200: c3de 9f3e 705a dfbd c118 f23d 778a c33c
00000210: 6296 56be 0450 8a3e 1bc3 d93d 9f7f 38bc
00000220: ed03 e3bd 7efb bb3e 7a8b aebe 8412 05be
00000230: e6fb 413e bfb6 15be cc7a b3bd c622 6cbd

conv_vi.conv2d.bias f4 [16]
0.20229667 0.2726296 0.053157125 0.20350018 0.045695063 -0.07110223 0.42626032 -0.36718005
0.058330093 -0.4590921 0.13138828 -0.37091208 -0.06505868 0.24724528 0.41908327 0.1271167
00000000: dc26 4f3e 1b96 8b3e 49bb 593d 5a62 503e
00000010: bf2a 3b3d 0c9e 91bd cb3e da3e 06ff bbbe
00000020: 89eb 6e3d 1f0e ebbe a68a 063e 30e8 bdbe
00000030: 7c3d 85bd de2d 7d3e 1592 d63e e12a 023e

RepVgg_vi1.rbr_reparam.weight f4 [32, 16, 3, 3]
0.008856231 0.009672137 0.0023490093 -0.009561116 -0.059036437 -0.01971287 0.0047305925 0.012550475
0.013945655 0.007242473 0.0011391357 -0.0074819564 0.000566872 0.015628492 -0.006475614 -0.00033468418
0.0031273598 -0.0057154573 0.008979332 -0.005059184 -0.0044774106 0.006453479 0.030281987 -0.0044758245
0.0014382001 -0.007070198 0.0013804171 -0.0073201833 -0.0037944806 -0.007869248 0.0040872395 -4.723179e-05
-0.0026608994 0.007079791 0.00045394458 0.00052931363 0.0044441284 0.005849833 0.0003567046 -0.0058087506
-0.0058314516 -0.0010909218 -0.003799083 -0.0032533966 -0.007375832 0.012869133 0.013236055 -0.002619528
0.0079074735 -0.016494805 -0.019535176 -0.006368236 -0.007559274 -0.012381477 -0.0005552069 0.0018381047
-0.0015420214 -0.007228781 -0.0045726947 0.0043113264 0.000817183 -0.0018681237 -0.0029146252 0.012853777
3.882765e-05 -0.0023829245 6.320623e-05 0.023324993 -0.001146297 -0.0018105134 -0.0049468903 -0.0066027204
0.008422303 0.0042164526 0.010040407 -0.0026623595 -0.040746827 -0.020078337 0.0039654635 0.002010058
-0.023257354 0.0050144475 -0.0024286262 0.0007433603 -0.003196326 0.006851731 0.005950514 6.639666e-05
0.0063138 -0.00055107987 -0.004120338 0.001440461 -0.003507799 0.006640201 -0.016288329 -0.0014872836
-0.00039330806 -0.0020317251 0.0011664158 0.0003773471 0.008237086 0.006479593 0.0035888494 -0.021288643
-0.0049710907 -0.00058929494 -0.00619824 -0.0012945666 0.011854877 0.0148166455 0.008683298 -0.0010570257
-0.019808812 -0.024499068 0.008667746 0.0069444776 -0.004842785 0.0043309396 0.007670065 -0.001165498
-0.0038015868 0.0054701357 0.0037774874 0.0038620152 0.0051773535 -0.007942006 0.0052495683 -3.771704e-06
-0.0016368122 0.0088012805 0.014582772 0.002956459 0.0012669972 0.006182703 0.0030089482 -0.008533201
0.007850721 0.0185879 -0.005587886 -0.0119291665 -0.0023311763 0.0057777306 0.0062489975 -0.008090558
-5.5563127e-05 0.003275218 0.007278871 0.019355068 0.022096522 0.01195656 0.013101049 0.010315401
0.008859329 0.0027453103 -0.0038391503 -0.010879501 0.004290345 0.012285836 -0.005194588 -0.0008067153
0.0027683703 0.0010025015 0.006651189 0.0022490718 -0.00025507502 -0.0039792047 -0.026440535 -0.0037515012
-0.0034460025 0.0046142675 -0.004231378 0.002617605 0.0014991988 0.0027291803 0.0034947277 -0.009704597
-0.0074501606 -0.005501293 -0.00015523624 -0.0014758038 -0.0013350267 -0.0045304885 -0.0066711064 0.003667926
-0.0122691095 0.0015605506 0.0018390762 -0.00081242353 0.00016858123 0.0037722941 0.008975077 0.005681819
0.0028597964 -0.007490611 -0.002298568 -0.0018365167 0.0045036264 0.0040782047 -0.0041538756 0.0023621058
0.0023143021 0.00729013 0.0108336285 -0.0050004683 0.0007847811 0.006501744 -0.0017103229 -0.0028100929
-0.003105906 0.0047911913 0.0024785 0.025791705 0.007397386 0.0014508308 0.0015448024 0.0010532746
0.0013849293 0.005380304 -0.000734615 -0.006721215 -0.022889927 -0.011075275 -0.006895484 -0.006748688
-0.0027535036 0.001546059 0.0052836244 9.133685e-06 0.0036401572 -0.019637909 -0.0002034458 -0.004392637
-0.0030847155 0.003245206 -0.004957343 0.0023820798 -0.002283046 0.0015499458 0.018669834 -0.0031086279
0.0021531153 0.003123066 -0.0051002167 0.0054083774 0.0044511384 0.009580799 0.0036756245 -0.007882409
0.00047220528 -0.01089483 0.0054163407 0.0019710523 -0.0021298842 -0.003940811 -0.0028932188 0.004811217
00000000: ba19 113c e277 1e3c d6f1 193b 3aa6 1cbc
00000010: 31d0 71bd e27c a1bc 1603 9b3b 82a0 4d3c
00000020: 517c 643c 4452 ed3b 0d4f 953a 332b f5bb
00000030: 239a 143a 5307 803c 6331 d4bb 8d78 afb9
00000040: 64f4 4c3b bb48 bbbb 0c1e 133c 83c7 a5bb
00000050: 3eb7 92bb b577 d33b ee11 f83c f0a9 92bb
00000060: fd81 bc3a 1fad e7bb 1def b43a 26de efbb
00000070: d2ac 78bb 05ee 00bc 40ee 853b c01a 46b8
00000080: 7c62 2ebb 97fd e73b 69ff ed39 a3c1 0a3a
00000090: 0da0 913b f5af bf3b 1504 bb39 5557 bebb
000000a0: c315 bfbb 43fd 8eba 09fa 78bb f036 55bb
000000b0: f7b0 f1bb 0ed9 523c 0adc 583c 63ac 2bbb
000000c0: 598e 013c 1d20 87bc 3c08 a0bc a3ac d0bb
000000d0: c9b3 f7bb aedb 4abc 4e8b 11ba 8fec f03a
000000e0: a71d caba 69df ecbb 8bd6 95bb 0746 8d3b
000000f0: 3938 563a d4db f4ba 4c03 3fbb a698 523c
00000100: dfda 2238 d72a 1cbb 968d 8438 0e14 bf3c
00000110: 583f 96ba c04e edba 8619 a2bb a25b d8bb
00000120: b3fd 093c 2b2a 8a3b 8580 243c fb7a 2ebb
00000130: 25e6 26bd 537b a4bc b8f0 813b 2dbb 033b
00000140: 3586 bebc 3c50 a43b 9629 1fbb 11de 423a
00000150: 7479 51bb 7c84 e03b 88fc c23b 6f3e 8b38
00000160: fee3 ce3b 5876 10ba e603 87bb dacd bc3a
00000170: 1ae3 65bb 0b96 d93b 1a6f 85bc f5f0 c2ba
00000180: ea34 ceb9 b126 05bb 6be2 983a acd6 c539
00000190: d8f4 063c c452 d43b e732 6b3b 8565 aebc
000001a0: 88e4 a2bb ea7a 1aba 9b1a cbbb 72ae a9ba
000001b0: f53a 423c 84c1 723c 6444 0e3c e68b 8aba
000001c0: 1746 a2bc 45b2 c8bc 2903 0e3c 808e e33b
000001d0: 3ab0 9ebb 8eea 8d3b 2b55 fb3b a0c3 98ba
000001e0: 0b24 79bb d33e b33b b98f 773b dd19 7d3b
000001f0: caa6 a93b 301f 02bc 9204 ac3b 621d 7db6
00000200: 4e8a d6ba 3f33 103c 94ec 6e3c 27c1 413b
00000210: 5f11 a63a 4698 ca3b c631 453b d7ce 0bbc
00000220: 4fa0 003c a745 983c 961a b7bb 8d72 43bc
00000230: a6c6 18bb 1e53 bd3b 64c4 cc3b 438e 04bc
00000240: 740c 69b8 0aa5 563b 9883 ee3b 858e 9e3c
00000250: c403 b53c 73e5 433c c8a5 563c ed01 293c
00000260: b826 113c aaea 333b 419a 7bbb ef3f 32bc
00000270: 0696 8c3b 884a 493c 5d37 aabb bf79 53ba
00000280: 8c6d 353b 5e66 833a 38f2 d93b 2a65 133b
00000290: 97bb 85b9 fd63 82bb d299 d8bc bfdb 75bb
000002a0: 54d6 61bb 4833 973b 5fa7 8abb 208c 2b3b
000002b0: c480 c43a 0cdc 323b cd07 653b 0800 1fbc
000002c0: 7a20 f4bb 3144 b4bb e9c6 22b9 c26f c1ba
000002d0: 10fc aeba 7e74 94bb 4c99 dabb 9661 703b
000002e0: 6004 49bc 648b cc3a 280d f13a d2f8 54ba
000002f0: 2ec5 3039 9838 773b 340c 133c 8d2e ba3b
00000300: 6c6b 3b3b cd73 f5bb 92a3 16bb 46b7 f0ba
00000310: 2893 933b 76a2 853b 3c1d 88bb 8fcd 1a3b
00000320: 8cab 173b 0be2 ee3b 887f 313c f8da a3bb
00000330: c5b9 4d3a 950c d53b ea2c e0ba 8929 38bb
00000340: 758c 4bbb 6dff 9c3b 546e 223b 2049 d33c
00000350: c565 f23b ce29 be3a f87a ca3a 080e 8a3a
00000360: 8486 b53a 434d b03b 2e93 40ba a33d dcbb
00000370: a883 bbbc 1275 35bc 83f3 e1bb 1924 ddbb
00000380: 2074 34bb 22a5 ca3a 4122 ad3b e13c 1937
00000390: b48f 6e3b aedf a0bc 1154 55b9 1cf0 8fbb
000003a0: f028 4abb 86ad 543b 3571 a2bb ab1c 1c3b
000003b0: 289f 15bb 8d27 cb3a 7bf1 983c 1fba 4bbb
000003c0: 481b 0d3b 5aac 4c3b b81f a7bb c238 b13b
000003d0: dbda 913b c9f8 1c3c bfe2 703b 3825 01bc
000003e0: 5292 f739 3b80 32bc 8f7b b13b c52c 013b
000003f0: 8795 0bbb eb21 81bb 289c 3dbb 6aa7 9d3b

RepVgg_vi1.rbr_reparam.bias f4 [32]
-2.636672 2.1768022 2.9156098 -2.8658488 -0.05011618 0.03905201 -2.9902272 -0.14371133
-0.105653524 0.20243943 -0.3087653 -0.97267973 1.9245431 -2.7782593 3.0866175 3.2644079
3.2744641 3.0658858 -3.1868625 -0.13112497 0.30585718 0.08597171 3.2294629 -0.06325126
-2.1633012 -2.8800032 -0.06996596 -2.5860653 1.5397143 -0.23110402 2.6067486 1.2663112
00000000: 3cbf 28c0 ba50 0b40 5a99 3a40 116a 37c0
00000010: a046 4dbd 00f5 1f3d e25f 3fc0 1029 13be
00000020: e060 d8bd 484c 4f3e 7c16 9ebe 8a01 79bf
00000030: 6e57 f63f 00cf 31c0 248b 4540 0fec 5040
00000040: d290 5140 7937 4440 8ef5 4bc0 a045 06be
00000050: 5099 9c3e f011 b03d 85af 4e40 e089 81bd
00000060: 8773 0ac0 f951 38c0 504a 8fbd 1882 25c0
00000070: 5c15 c53f 88a6 6cbe f8d4 2640 7c16 a23f

RepVgg_vi2.rbr_reparam.weight f4 [32, 32, 3, 3]
-0.03958434 -0.015603101 0.0065746056 -0.01223536 0.8947386 -4.7666e-05 -0.014316534 0.003420739
0.025996208 0.03929722 0.02377091 0.034559894 -0.048253477 -0.22895381 -0.013328931 -0.021839604
-0.0029483282 -0.0030102613 0.0038966367 -0.005514957 0.021997284 -0.05156408 -0.2064608 -0.023362631
-0.042463426 -0.016239032 -0.014389364 -0.016867677 -0.01262022 0.025476262 -0.03417723 0.023932373
0.00021228347 -0.0016180227 -0.02176462 0.011710922 0.022177605 -0.0013208069 0.009492989 0.026529334
-0.13741793 -0.037581816 -0.0076453397 -0.037390374 -0.055752646 -0.053613473 -0.019350393 0.0034419866
-0.089876875 0.08108448 0.013021407 -0.11831981 -0.050658885 -0.06969163 0.0055114366 -0.0044463524
0.020019332 -0.038412485 0.02259267 -0.028936233 0.025047662 0.010205795 -0.019145856 -0.048299093
0.0047851815 0.013914382 -0.053347733 0.031334847 -0.033497658 -0.02122835 -0.019833785 -0.054781117
0.058706217 -0.026687644 -0.0065473565 -0.024823703 0.0068279672 -0.008645284 -0.0063400334 -0.04697081
-0.048948895 -0.031809494 0.022161914 -0.03223557 0.0484569 -0.023530118 0.031712454 -0.036556516
0.03708851 -0.022491975 0.01038557 0.021059342 0.032208253 0.021324832 0.06207045 0.0007276326
-0.011831898 0.01885748 0.035634134 -0.019480499 0.018499417 0.06997222 -0.014718449 0.041454542
-0.0040299334 -0.023405122 -0.03269248 0.0044885604 -0.05863975 -0.05508877 -0.024433512 -0.04344671
-0.39326906 -0.07076476 -0.041321844 -0.055439528 -0.066183984 0.035584707 -0.0033790316 -0.005712526
0.017131329 -0.10226252 0.023230491 0.017611409 0.0054878397 0.009086473 -0.045080893 -0.04098522
-0.025394587 -0.022420987 -0.06787909 -0.015130109 -0.054591633 0.040141385 0.002946681 -0.048816852
-0.06711304 -0.010705603 -0.0317031 -0.09805025 -0.00530019 0.044034977 0.008558899 0.0065692156
-0.010251671 0.022804433 -0.038747013 -0.037027836 0.117979445 -0.02161024 -0.07606274 -0.07610828
-0.05776602 -0.029276947 -0.02123863 0.01009609 -0.009682183 -0.05685366 -0.022716453 -0.03936927
0.0056661568 0.03879579 0.013443302 -0.007404704 0.036791045 0.026205815 -0.14738205 -0.009624233
0.009133159 0.019518655 -0.009780123 0.013092571 -0.012435126 -0.0223325 0.01255252 0.1468814
-0.0051372875 -0.0072829598 0.01655445 -0.0005830646 0.05262118 0.025184186 0.05270045 -0.016912652
-0.14455307 0.05224886 0.006052571 -0.012353156 0.002610395 -0.0064099845 0.007938029 -0.027536988
-0.051800516 0.09248512 -0.02292592 -0.013277524 -0.020901065 0.0046813106 0.01225787 -0.04219097
0.0052541033 -0.04058823 -0.20722736 0.035901356 0.018781627 -0.00015536293 -0.005000352 -0.023050802
-0.018034983 -3.849517e-05 -0.052851256 -0.10528644 -0.005966755 -0.056723624 -0.014292743 0.013095024
0.023915753 0.009046759 0.014986945 -0.012156654 0.05017046 -0.0066771964 -0.015369756 0.017791865
-0.019664919 0.013989348 0.024629632 -0.011587231 0.034862697 -0.042465936 0.0072044684 -0.0027260943
0.02051631 0.010755665 0.00014348047 -0.018268578 -0.021076428 0.011657787 -0.06813483 0.020187732
0.06329581 0.037918422 0.07594066 0.020831825 0.0018115358 0.03554496 -0.023880307 0.071131915
-0.023748169 0.007390144 -0.017943662 0.0037392976 -0.02035216 0.05363726 0.011303945 -0.06447031
00000000: 3023 22bd 26a4 7fbc ca6f d73b d276 48bc
00000010: 970d 653f faec 47b8 e58f 6abc 7a2e 603b
00000020: 00f6 d43c 1ff6 203d 36bb c23c ad8e 0d3d
00000030: 70a5 45bd de72 6abe 9761 5abc f8e8 b2bc
00000040: bd38 41bb ce47 45bb b75e 7f3b d0b6 b4bb
00000050: a633 b43c db34 53bd 766a 53be fd62 bfbc
00000060: 21ee 2dbd b807 85bc 5ec1 6bbc 152e 8abc
00000070: 0ac5 4ebc 98b3 d03c 6cfd 0bbd d30d c43c
00000080: 6998 5e39 d513 d4ba b74b b2bc 2bdf 3f3c
00000090: cfad b53c ed1e adba 7b88 1b3c 0c54 d93c
000000a0: 49b7 0cbe 64ef 19bd c285 fabb a626 19bd
000000b0: e35c 64bd cd99 5bbd b784 9ebc f492 613b
000000c0: 5e11 b8bd 9f0f a63d bd57 553c a851 f2bd
000000d0: b17f 4fbd 7cba 8ebd 4899 b43b b5b2 91bb
000000e0: 95ff a33c 6956 1dbd 4314 b93c ae0b edbc
000000f0: c130 cd3c 3536 273c c5d7 9cbc 45d5 45bd
00000100: 03cd 9c3b 26f9 633c 2783 5abd f858 003d
00000110: d734 09bd 14e7 adbc 767a a2bc 2a62 60bd
00000120: ee75 703d 0ca0 dabc 358b d6bb 145b cbbc
00000130: 24bd df3b f3a4 0dbc 0ec0 cfbb 7764 40bd
00000140: a37e 48bd ac4a 02bd e78c b53c 7209 04bd
00000150: be7a 463d 3cc2 c0bc ebe4 013d 49bc 15bd
00000160: 1fea 173d 1741 b8bc 3d28 2a3c a484 ac3c
00000170: cdec 033d 6ab1 ae3c 963d 7e3d 99be 3e3a
00000180: 94da 41bc 007b 9a3c 19f5 113d 9195 9fbc
00000190: 178c 973c 984d 8f3d a625 71bc 3dcc 293d
000001a0: 880d 84bb 19bc bfbc 8de8 05bd c614 933b
000001b0: 3c30 70bd c3a4 61bd ca28 c8bc 2df5 31bd
000001c0: 905a c9be 1ded 90bd 1841 29bd 8f14 63bd
000001d0: 788b 87bd 45c1 113d be72 5dbb 2430 bbbb
000001e0: 0057 8c3c 036f d1bd df4d be3c cd45 903c
000001f0: 56d3 b33b 6edf 143c bea6 38bd 1ee0 27bd
00000200: 4f08 d0bc 38ac b7bc 3104 8bbd 47e4 77bc
00000210: 7a9b 5fbd 4b6b 243d 1b1d 413b 2ef4 47bd
00000220: 9072 89bd 8e66 2fbc 1cdb 01bd 92ce c8bd
00000230: 37ad adbb 055e 343d a03a 0c3c 9342 d73b
00000240: a0f6 27bc 5dd0 ba3c 30b5 1ebd 80aa 17bd
00000250: 359f f13d f507 b1bc c8c6 9bbd a8de 9bbd
00000260: 109c 6cbd 35d6 efbc a3fc adbc 126a 253c
00000270: 05a2 1ebc 62df 68bd db17 babc ac41 21bd
00000280: 2bab b93b 56e8 1e3d 4c41 5c3c 29a3 f2bb
00000290: 35b2 163d 94ad d63c 52eb 16be f5ae 1dbc
000002a0: 3fa3 153c 96e5 9f3c cf3c 20bc 3982 563c
000002b0: b3bc 4bbc a6f2 b6bc 16a9 4d3c 1468 163e
000002c0: b156 a8bb e5a5 eebb 339d 873c ced8 18ba
000002d0: 4e89 573d 114f ce3c 6ddc 573d 678c 8abc
000002e0: b805 14be e702 563d a554 c63b e464 4abc
000002f0: 2913 2b3b d90a d2bb 820e 023c 4095 e1bc
00000300: c72c 54bd d768 bd3d 24cf bbbc f989 59bc
00000310: b638 abbc ae65 993b 3cd5 483c 70d0 2cbd
00000320: 9d2a ac3b d83f 26bd 6933 54be 4d0d 133d
00000330: eddb 993c ebe8 22b9 fed9 a3bb 09d5 bcbc
00000340: 1abe 93bc e075 21b8 8f7a 58bd 6ba0 d7bd
00000350: c584 c3bb 0857 68bd 1c2c 6abc 838c 563c
00000360: f8ea c33c dc38 143c ce8b 753c b42c 47bc
00000370: 8a7f 4d3d 62cc dabb 6ed1 7bbc 3fc0 913c
00000380: 5318 a1bc 9433 653c 15c4 c93c 5fd8 3dbc
00000390: 30cc 0e3d c3f0 2dbd 7613 ec3b 46a8 32bb
000003a0: d211 a83c 8738 303c 3f73 1639 fca7 95bc
000003b0: 79a8 acbc 4d00 3f3c 468a 8bbd be60 a53c
000003c0: 3ca1 813d 5950 1b3d c786 9b3d 81a7 aa3c
000003d0: 0e71 ed3a 9897 113d a2a0 c3bc 9cad 913d
000003e0: 858b c2bc 0529 f23b 96fe 92bc 010f 753b
000003f0: 93b9 a6bc beb2 5b3d 2f34 393c 0309 84bd

RepVgg_vi2.rbr_reparam.bias f4 [32]
1.6209126 -2.196085 0.6903995 0.7646112 -0.5561013 1.8936722 -0.012042075 -0.045636535
2.4116783 2.5590925 -0.966929 2.4776514 -2.4387593 -3.0552456 -1.8260022 -4.174402
-3.5073476 1.3775856 0.74822956 -0.57669806 -0.84553504 -0.89673966 -1.4366131 1.3482295
2.7554147 0.3192961 -0.052351326 0.00047302246 -2.6374602 -4.316338 -2.7089412 -1.5541906
00000000: 107a cf3f a88c 0cc0 06be 303f 8fbd 433f
00000010: a85c 0ebf da63 f23f 204c 45bc 60ed 3abd
00000020: f058 1a40 2cc8 2340 a988 77bf d791 1e40
00000030: a214 1cc0 2589 43c0 71ba e9bf b494 85c0
00000040: 6278 60c0 ba54 b03f f98b 3f3f 7ca2 13bf
00000050: fc74 58bf bb90 65bf f0e2 b7bf c992 ac3f
00000060: b758 3040 c77a a33e 586e 56bd 0000 f839
00000070: 26cc 28c0 711f 8ac0 4b5f 2dc0 b8ef c6bf

conv_ir.conv2d.weight f4 [16, 1, 3, 3]
0.2535742 0.08461742 0.058807246 0.068356976 0.04413881 -0.20133044 -0.11670874 -0.0010418996
0.17292169 -0.2298177 -0.17486767 0.1344283 -0.12993808 0.26384592 0.106910415 0.18784182
-0.1611158 0.09876585 -0.14121827 0.19565386 0.2449066 0.0880338 -0.14636236 -0.1780325
-0.084151275 0.09297249 0.039876807 0.2088478 0.010337822 -0.16861461 -0.2545939 -0.14108633
0.23816137 -0.13865423 -0.13558163 0.3354541 -0.007580832 0.030342644 0.09433935 0.022212036
-0.2563737 -0.081717186 0.11875171 0.01840154 0.3114536 0.0043414035 0.021739952 -0.17578179
-0.1418195 0.26543865 0.067027 -0.49850863 -0.4939661 -0.5376487 0.12690921 -0.16622269
-0.26991186 0.3639923 0.013181502 0.3154401 -0.17378543 -0.041723523 -0.31457093 -0.4327913
-0.22117545 0.07371816 -0.3121328 -0.022364516 0.1745614 -0.033223897 0.13066295 0.015697723
-0.19063663 -0.32764357 0.013460962 0.12139771 -0.062375404 -0.17182668 0.21430874 0.15514408
-0.0020681147 0.13888393 0.32646695 -0.1383475 -0.1567487 -0.12034711 -0.40922606 0.108907446
0.21237077 -0.356349 0.32391027 -0.11410725 -0.31811365 -0.17606051 -0.117799856 -0.17116246
0.41743758 -0.17755897 -0.18624504 -0.030828474 -0.0510706 -0.06442918 0.13426137 -0.088587254
-0.2581847 0.16135141 0.13251773 0.1617166 0.25560236 -0.32047948 -0.20737118 0.1721243
0.31230515 -0.11306618 -0.29854682 0.27260643 -0.2179148 -0.03866604 -0.23407024 0.19511245
0.0016904144 0.063573845 -0.18914609 0.08738993 0.25333485 0.1404193 -0.2720263 0.11742159
0.031498067 0.2528885 0.23962218 0.22362807 -0.052201126 0.20323214 -0.07724267 -0.10178186
-0.215426 0.16775832 0.09372135 -0.005284634 0.21217923 0.31016615 -0.13374601 -0.18356247
00000000: 7ad4 813e e64b ad3d dedf 703d befe 8b3d
00000010: e6ca 343d 9129 4ebe fe04 efbd 5990 88ba
00000020: 6212 313e 5555 6bbe 8310 33be 93a7 093e
00000030: 7d0e 05be d016 873e d9f3 da3d 9b59 403e
00000040: 8afb 24be c045 ca3d 869b 10be 7c59 483e
00000050: ccc8 7a3e 114b b43d 04e0 15be 274e 36be
00000060: 8157 acbd 5c68 be3d dd55 233d 33dc 553e
00000070: f85f 293c 4fa9 2cbe 225a 82be ef78 10be
00000080: 93e0 733e 60fb 0dbe e9d5 0abe a4c0 ab3e
00000090: a168 f8bb 2391 f83c fd34 c13d 04f6 b53c
000000a0: 6a43 83be 575b a7bd 1934 f33d d4be 963c
000000b0: d976 9f3e 5542 8e3b fc17 b23c 2400 34be
000000c0: 2239 11be 93e7 873e 7445 893d 863c ffbe
000000d0: 20e9 fcbe 58a3 09bf 7df4 013e 4836 2abe
000000e0: e331 8abe 335d ba3e 3af7 573c 5d81 a13e
000000f0: cff4 31be 49e6 2abd 710f a1be d296 ddbe
00000100: d17b 62be 8cf9 963d dfcf 9fbe ca35 b7bc
00000110: 39c0 323e c815 08bd 82cc 053e 8398 803c
00000120: 4036 43be e6c0 a7be 5e8b 5c3c 5d9f f83d
00000130: 5a7d 7fbd 55f3 2fbe c073 5b3e 17de 1e3e
00000140: 3589 07bb 9737 0e3e ad26 a73e f8aa 0dbe
00000150: bb82 20be 8c78 f6bd 1486 d1be de0a df3d
00000160: b977 593e 6073 b6be 91d7 a53e 10b1 e9bd
00000170: cbdf a2be 3549 34be 0d41 f1bd 3645 2fbe
00000180: 61ba d53e 05d2 35be 05b7 3ebe ff8b fcbc
00000190: 682f 51bd 72f3 83bd d07b 093e 3c6d b5bd
000001a0: c930 84be 4e39 253e bab2 073e 0999 253e
000001b0: 50de 823e e315 a4be 1c59 54be 5a41 303e
000001c0: 76e6 9f3e 3e8f e7bd 21db 98be 1293 8b3e
000001d0: 0f25 5fbe 4860 1ebd 1cb0 6fbe 8fcb 473e
000001e0: e590 dd3a 0133 823d 83af 41be 7ef9 b23d
000001f0: 1bb5 813e 14ca 0f3e 0847 8bbe bb7a f03d
00000200: 1e04 013d 9a7a 813e 845f 753e c2fe 643e
00000210: d9d0 55bd 161c 503e 6831 9ebd 0273 d0bd
00000220: a298 5cbe d6c8 2b3e fbf0 bf3d b92a adbb
00000230: 8345 593e 19ce 9e3e b7f4 08be cdf7 3bbe

conv_ir.conv2d.bias f4 [16]
0.3283656 0.7907371 0.32371575 0.4173867 0.1886848 0.49390027 -7.111007e-05 0.57982254
0.20953326 0.5749657 -0.15031317 0.78582156 0.11592843 -0.0030114136 -0.14444362 0.0002816791
00000000: 891f a83e bf6d 4a3f 12be a53e b6b3 d53e
00000010: 9736 413e 7fe0 fc3e ee20 95b8 406f 143f
00000020: e38f 563e f430 133f b2eb 19be 9a2b 493f
00000030: e26b ed3d 235b 45bb 07e9 13be 54ae 9339

RepVgg_ir1.rbr_reparam.weight f4 [32, 16, 3, 3]
-0.071802184 -0.046186328 0.04612155 -0.005315721 0.06344653 0.06233824 0.028807096 -0.025845064
-0.07382723 0.031444207 -0.0091628255 0.067258544 -0.04631326 -0.058339447 0.067184575 0.033243153
0.0025985471 0.021651307 -0.1492279 -0.042777363 -0.22546615 0.01431915 0.027637025 0.03892772
0.025768058 0.04527914 0.09980638 -0.0611002 -0.008433795 0.0595531 -0.04738835 0.044696115
0.07120337 -0.055548966 0.016338112 0.052156195 0.06166402 -0.065296456 0.019394355 -0.016385708
0.08259885 0.09443534 0.08522776 -0.028471202 0.029325273 0.07028 0.12387184 0.12013258
0.012570229 -0.049783234 -0.09615675 -0.063982904 0.054630563 0.06512718 0.07809409 0.13189732
0.11869238 -0.054654963 -0.24200982 -0.08667283 0.08516129 -0.06806133 -0.019987466 -0.03435735
0.04367817 0.036166955 -0.12849903 -0.058454845 0.034873996 0.06470168 0.014879208 0.024409242
-0.006634057 -0.11143978 -0.017392192 -0.02575271 -0.017564625 -0.014218942 -0.05859275 0.028045753
0.09527008 0.039261345 -0.067278795 0.042537242 0.07608801 0.06217044 0.069678836 0.069601834
0.046373293 0.043689594 -0.017529935 -0.007956456 -0.03275278 -0.0030019078 -0.02176208 -0.015765982
-0.015837748 -0.083739944 0.03975131 0.053430136 0.034181677 0.1136027 -0.08599949 0.09637997
-0.06922752 0.073223755 -0.06752042 -0.034410533 0.07424421 -0.07956012 -0.03842722 0.029669203
-0.012397278 -0.050066747 -0.0026770784 -0.0066961097 -0.089168675 0.019558523 0.0009611444 -0.060427386
-0.029683722 0.11100547 0.0807676 0.033023912 -0.070947975 -0.021714121 -0.04566767 0.027253544
-0.007862964 -0.034415003 -0.114339106 0.03889046 0.050912272 0.04833594 -0.06615292 0.084160164
-0.07819085 0.062281977 0.0023987694 0.11460787 -0.029931063 -0.025353013 -0.0035521046 -0.058168396
-0.010803689 -0.0008866834 0.013659257 0.047419686 0.02877472 -0.029687319 0.023167213 -0.01423282
-0.024181893 0.0020497434 0.04867038 -0.038781643 -0.027060693 0.03159023 -0.042876847 -0.006039708
-0.013090413 -0.04687302 -0.042080756 0.014964554 0.029922845 -0.03367704 -0.08928246 0.005494494
-0.016474757 -0.0064462065 -0.025718711 -0.015944026 -0.00026745128 0.01441301 0.017992241 0.039004456
0.006707238 0.04612195 0.023291674 -0.013607216 0.008513216 -0.00042409683 -0.031270605 -0.009610358
-0.02147722 -0.025410766 -0.007422871 0.0022689893 0.0068620653 0.05532662 0.027173745 0.011026105
0.06355303 0.008473583 0.08386044 0.01781044 0.0038877819 0.06538321 0.079677716 0.049527932
-0.0024646807 0.065039486 0.05722154 0.009857785 0.017008912 0.0025065616 0.01200154 0.023251358
-0.007053775 -0.031346157 -0.022444252 0.09115495 -0.10114319 0.013399073 0.0033740222 -0.05702754
-0.05678068 0.02022474 -0.007122768 -0.018427359 0.04815513 -0.016433975 -0.011879674 -0.032676473
-0.010100126 -0.020846337 -0.038497876 0.006775626 0.002710432 0.026095124 0.023401482 -0.0149183255
0.008437949 0.050459124 0.06270751 0.0471625 0.009191069 0.022889076 0.017252542 -0.03714283
0.040851496 -0.003813656 0.0026192067 0.014413095 -0.0047209067 0.022928622 0.012722979 0.069044545
-0.014229528 0.048502184 -0.030536165 -0.039451696 0.034924217 -0.016268881 0.016568251 0.033547454
00000000: 060d 93bd e02d 3dbd f3e9 3c3d 802f aebb
00000010: 41f0 813d 6256 7f3d dcfc eb3c 07b9 d3bc
00000020: bb32 97bd a4cb 003d ad1f 16bc d9be 893d
00000030: f9b2 3dbd 58f5 6ebd 1198 893d f929 083d
00000040: 634c 2a3b 155e b13c 33cf 18be 5137 2fbd
00000050: 99e0 66be de9a 6a3c 0b67 e23c ac72 1f3d
00000060: 8917 d33c 9f76 393d 4a67 cc3d 3444 7abd
00000070: e62d 0abc f4ed 733d 491a 42bd 4613 373d
00000080: 13d3 913d 5087 63bd 81d7 853c bca1 553d
00000090: 6993 7c3d 26ba 85bd e9e0 9e3c 523b 86bc
000000a0: 9629 a93d 5167 c13d e48b ae3d 703c e9bc
000000b0: 8e3b f03c f6ee 8f3d 85b0 fd3d 1208 f63d
000000c0: 5df3 4d3c 81e9 4bbd d5ed c4bd 7809 83bd
000000d0: 4cc4 5f3d 6661 853d cbef 9f3d 1710 073e
000000e0: fe14 f33d e2dd 5fbd 6cd1 77be 8681 b1bd
000000f0: 0b69 ae3d bd63 8bbd c1bc a3bc 4bba 0cbd
00000100: e1e7 323d cd23 143d 4095 03be 596e 6fbd
00000110: 09d8 0e3d 5082 843d ecc7 733c e4f5 c73c
00000120: 8162 d9bb 8a3a e4bd 127a 8ebc 59f7 d2bc
00000130: b0e3 8fbc 91f6 68bc f4fe 6fbd 35c0 e53c
00000140: f61c c33d 81d0 203d 77c9 89bd 883b 2e3d
00000150: 08d4 9b3d 6ea6 7e3d c7b3 8e3d 688b 8e3d
00000160: ecf1 3d3d dcf3 323d f09a 8fbc cc5b 02bc
00000170: c727 06bd a8bb 44bb 6446 b2bc a927 81bc
00000180: 2abe 81bc d97f abbd 45d2 223d 8fd9 5a3d
00000190: 1602 0c3d 88a8 e83d 8020 b0bd dd62 c53d
000001a0: 28c7 8dbd 56f6 953d 2548 8abd 0ff2 0cbd
000001b0: 590d 983d 6bf0 a2bd dc65 1dbd d40c f33c
000001c0: f41d 4bbc ca12 4dbd ec71 2fbb 0a6b dbbb
000001d0: 119e b6bd 3239 a03c 4ff5 7b3a b582 77bd
000001e0: 472b f3bc d656 e33d 7c69 a53d 1544 073d
000001f0: 2c4d 91bd d0e1 b1bc 060e 3bbd d342 df3c
00000200: a9d3 00bc bff6 0cbd 9f2a eabd 9a4b 1f3d
00000210: 6389 503d e8fb 453d 2f7b 87bd 2a5c ac3d
00000220: 8622 a0bd 631b 7f3d ac34 1d3b 88b7 ea3d
00000230: fd31 f5bc 1fb1 cfbc 6dca 68bb fc41 6ebd
00000240: f501 31bc 5170 68ba 14cb 5f3c 253b 423d
00000250: f6b8 eb3c d232 f3bc 2bc9 bd3c c630 69bc
00000260: 1b19 c6bc fd54 063b 985a 473d 80d9 1ebd
00000270: 63ae ddbc c264 013d a29f 2fbd bee8 c5bb
00000280: 2c79 56bc ecfd 3fbd df5c 2cbd e42d 753c
00000290: c120 f53c f0f0 09bd b9d9 b6bd 280b b43b
000002a0: 12f6 86bc b33a d3bb 0cb0 d2bc 0c9d 82bc
000002b0: b438 8cb9 8c24 6c3c 7764 933c 23c3 1f3d
000002c0: 64c8 db3b 5fea 3c3d 2ece be3c cdf0 5ebc
000002d0: 047b 0b3c 5059 deb9 9b15 00bd c374 1dbc
000002e0: fff0 afbc 3d2a d0bc 8e3b f3bb 53b3 143b
000002f0: 2ddb e03b 2a9e 623d 799b de3c d6a6 343c
00000300: 1728 823d c8d4 0a3c 06bf ab3d 33e7 913c
00000310: 28ca 7e3b a2e7 853d 122e a33d cddd 4a3d
00000320: 7b86 21bb 6c33 853d 2261 6a3d 8c82 213c
00000330: 4656 8b3c 2045 243b 1ba2 443c a279 be3c
00000340: 5a23 e7bb d464 00bd 02dd b7bc 72af ba3d
00000350: 2924 cfbd c987 5b3c b31e 5d3b b695 69bd
00000360: dc92 68bd 5bae a53c 1c66 e9bb f9f4 96bc
00000370: 503e 453d 8ba0 86bc f7a2 42bc c4d7 05bd
00000380: 007b 25bc f0c5 aabc f3af 1dbd 1206 de3b
00000390: 81a1 313b 71c5 d53c 77b4 bf3c fe6b 74bc
000003a0: 533f 0a3c 3aae 4e3d cc6c 803d 772d 413d
000003b0: 2396 163c df81 bb3c 3455 8d3c 1523 18bd
000003c0: e653 273d 88ee 79bb ffa6 2b3b e724 6c3c
000003d0: d6b1 9abb ced4 bb3c 0b74 503c 3a67 8d3d
000003e0: f722 69bc 3aaa 463d fb26 fabc 1a98 21bd
000003f0: b20c 0f3d 5146 85bc 24ba 873c 0e69 093d

RepVgg_ir1.rbr_reparam.bias f4 [32]
-1.104048 0.014045358 -0.08743012 -2.8133268 3.3054886 0.6391504 -1.4939964 1.2220691
-2.766211 2.650089 4.1458497 3.9168808 3.6230876 -4.603134 0.43801677 -2.8121119
-0.5197251 -0.546394 0.27425873 -0.5047854 3.3621178 -0.43366504 3.5122473 0.12999845
2.9906619 2.9930425 -0.421803 3.82054 0.5223861 -2.4842715 0.09637809 3.0191464
00000000: 7251 8dbf 801e 663c 900e b3bd 8c0d 34c0
00000010: 208d 5340 5c9f 233f 463b bfbf c36c 9c3f
00000020: 9a09 31c0 0f9b 2940 cdaa 8440 2dae 7a40
00000030: abe0 6740 e04c 93c0 bc43 e03e a4f9 33c0
00000040: b40c 05bf 7ae0 0bbf a46b 8c3e 9e39 01bf
00000050: f02c 5740 5809 debe a9c8 6040 501e 053e
00000060: 0167 3f40 028e 3f40 90f6 d7be ba83 7440
00000070: 18bb 053f 4efe 1ec0 e061 c53d b239 4140

RepVgg_ir2.rbr_reparam.weight f4 [32, 32, 3, 3]
0.1549418 0.064773284 0.23403542 -0.34930623 0.88469905 -0.11397384 -0.06763859 -0.12984858
-0.42758372 -0.0065475972 0.046494976 0.049913548 -0.15342101 -0.37625292 -0.008354167 0.014037867
-0.065773115 -0.11772855 -0.16273956 -0.11354349 -0.42465696 -0.02410108 -0.01017094 0.26404512
-0.10965068 -0.092450045 0.067327544 0.21366587 -0.04230066 0.16629903 -0.17051564 -0.19846237
-0.08349152 -0.13744158 0.08000897 -0.10131144 -0.02579068 -0.08310476 -0.047675595 -0.007109512
-0.18719229 -0.13862604 0.083417535 0.19096118 0.2178867 0.4675121 0.095495164 0.15392193
0.12518375 -0.09048186 -0.123283215 0.22999716 0.16110075 -0.32130495 0.07964692 -0.15946886
-0.20775121 -0.26269197 -0.059328757 0.029293614 0.037063774 0.042685755 0.17559353 -0.0736765
-0.09188064 -0.044088528 -0.20880564 0.31839535 -0.0066082035 -0.023203684 -0.13323292 -0.16552424
0.054786026 0.21356724 7.778131e-05 0.03866239 -0.046612337 0.09150171 0.10023299 0.014593101
-0.16596267 -0.07498975 -0.067415796 -0.077919185 0.114189364 -0.21706864 -0.114899814 -0.06445954
-0.08902605 -0.08222081 0.023487069 0.21099764 0.038820926 -0.16817486 -0.51442003 -0.09953151
-0.021612054 0.012615979 0.060595665 0.03011125 0.09768352 0.08293799 0.036167692 -0.19493026
-0.1077909 0.029042697 0.11919523 0.1745875 0.009422979 0.0009247373 0.119249746 0.067185424
-0.0016627014 -0.05306817 0.14804827 -0.10126624 -0.15147357 0.14355338 0.10754986 0.006781627
0.16994146 -0.3657579 0.035243955 -0.21065661 -0.016677143 -0.1944043 0.11276215 0.08402185
-0.23500097 -0.07613161 -0.28775275 -0.017620252 0.03488855 0.078515574 -0.03203132 0.12191819
0.055193707 -0.052987233 0.0054421336 -0.25454685 0.013518396 0.19109038 0.09029624 -0.1408717
-0.02423622 0.056163438 0.17545904 0.05370279 -0.3474484 0.23459639 -0.080102965 0.26244128
0.10532731 -0.24160479 0.19607471 -0.15148762 -0.275128 -0.0064822435 0.19024439 0.26955423
0.19000657 0.4855274 0.07000355 0.086932644 -0.12272775 -0.04187706 -0.02648214 0.049021836
0.11568476 0.121731296 0.044116925 -0.024068274 -0.09002891 0.13970372 0.21504003 -0.15359771
-0.10818187 0.18549745 -0.059962403 -0.072822094 -0.19340432 -0.19381301 -0.23110081 -0.14705254
0.22666216 -0.05735445 -0.03411178 0.17495711 0.0748667 0.28140786 -0.0021080421 0.14066578
0.01027213 0.009993937 -0.053551927 0.33570755 0.12791087 0.11420544 0.08145535 -0.11760671
0.03044127 -0.14455368 0.2704534 -0.13882612 0.08107067 0.12211743 -0.12945846 -0.23990597
-0.0054494413 0.0054602628 0.05531524 -0.37679446 -0.12610985 0.07085579 0.15890422 -0.078745365
-0.13376564 -0.011926283 0.08275039 0.020427585 -0.23016539 0.14560965 0.076890625 0.18593338
-0.08495778 0.17206427 -0.17512122 -0.091663726 -0.04339148 0.34409675 -0.054420553 0.15010788
0.17440133 0.016413258 0.10317982 -0.079275124 0.4306501 -0.19915117 -0.26240033 0.078746684
0.07820392 -0.030260686 -0.032343946 -0.05249498 0.21197395 -0.009336801 0.11279919 0.104372695
0.1345324 0.082792215 0.12596925 -0.1804993 -0.113622546 -0.010311752 -0.057676926 0.008875251
00000000: 10a9 1e3e dba7 843d fba6 6f3e 44d8 b2be
00000010: a37b 623f 1e6b e9bd 1a86 8abd 07f7 04be
00000020: 41ec dabe 3a8d d6bb 8471 3e3d 2672 4c3d
00000030: 661a 1dbe 39a4 c0be ebdf 08bc 15ff 653c
00000040: 0eb4 86bd ab1b f1bd 33a5 26be 7d89 e8bd
00000050: a36c d9be a16f c5bc 04a4 26bc ec30 873e
00000060: 8990 e0bd 7356 bdbd 06e3 893d 3acb 5a3e
00000070: 7543 2dbd 4b4a 2a3e a79b 2ebe b839 4bbe
00000080: 9afd aabd 7cbd 0cbe bedb a33d 5f7c cfbd
00000090: fa46 d3bc d432 aabd 7c47 43bd e9f6 e8bb
000000a0: 56af 3fbe fcf3 0dbe d0d6 aa3d 548b 433e
000000b0: b11d 5f3e bf5d ef3e f892 c33d b69d 1d3e
000000c0: 2b30 003e 8e4e b9bd e97b fcbd 6084 6b3e
000000d0: 98f7 243e 1582 a4be ed1d a33d ce4b 23be
000000e0: bcbc 54be 907f 86be b602 73bd 29f9 ef3c
000000f0: 2fd0 173d 42d7 2e3d cace 333e b4e3 96bd
00000100: eb2b bcbd 2c96 34bd 25d1 55be b704 a33e
00000110: a189 d8bb a715 bebc 366e 08be 307f 29be
00000120: 5067 603d 5fb1 5a3e 861e a338 745c 1e3d
00000130: 94ec 3ebd 4065 bb3d f446 cd3d e717 6f3c
00000140: 1ef2 29be 3a94 99bd 4b11 8abd 1894 9fbd
00000150: 1ddc e93d 3e47 5ebe 9850 ebbd 5d03 84bd
00000160: 4a53 b6bd 6263 a8bd f467 c03c c40f 583e
00000170: b102 1f3d 0836 2cbe 08b1 03bf 2dd7 cbbd
00000180: c30b b1bc 40b3 4e3c 2933 783d deab f63c
00000190: 4c0e c83d 65db a93d 9324 143d cc9b 47be
000001a0: 7ac1 dcbd f3ea ed3c a11c f43d 11c7 323e
000001b0: d762 1a3c 126a 723a 3639 f43d 8398 893d
000001c0: 00ef d9ba 025e 59bd f799 173e ad64 cfbd
000001d0: e31b 1bbe a8ff 123e 1a43 dc3d 6938 de3b
000001e0: 2205 2e3e 9f44 bbbe f75b 103d 5eb6 57be
000001f0: 819e 88bc ec11 47be d8ef e63d a613 ac3d
00000200: 18a4 70be e4ea 9bbd 5454 93be 5958 90bc
00000210: 4ce7 0e3d c6cc a03d 4633 03bd 3eb0 f93d
00000220: cc12 623d 2409 59bd ed53 b23b f753 82be
00000230: 437c 5d3c 32ad 433e 3ced b83d ac40 10be
00000240: 0a8b c6bc a20b 663d 89ab 333e 75f7 5b3d
00000250: c2e4 b1be 093a 703e 060d a4bd b45e 863e
00000260: d8b5 d73d 3f67 77be cfc7 483e 921f 1bbe
00000270: 94dd 8cbe 0069 d4bb 6dcf 423e 0303 8a3e
00000280: 1591 423e 0c97 f83e 055e 8f3d be09 b23d
00000290: b058 fbbd 4887 2bbd 13f1 d8bc 1fcb 483d
000002a0: 22ec ec3d 424e f93d f3b3 343d d42a c5bc
000002b0: 1461 b8bd 7e0e 0f3e 7433 5c3e b848 1dbe
000002c0: 758e ddbd 0bf3 3d3e 239b 75bd c023 95bd
000002d0: c80b 46be eb76 46be b1a5 6cbe f194 16be
000002e0: 201a 683e 80ec 6abd cbb8 0bbd f527 333e
000002f0: b653 993d b114 903e 1427 0abb b10a 103e
00000300: 704c 283c 9cbd 233c 4459 5bbd dce1 ab3e
00000310: 11fb 023e 8be4 e93d 10d2 a63d c9db f0bd
00000320: f85f f93c e105 14be de78 8a3e 6f28 0ebe
00000330: 6108 a63d b418 fa3d c290 04be e9a9 75be
00000340: 3a91 b2bb 01ec b23b 3c92 623d 34eb c0be
00000350: f122 01be d71c 913d cab7 223e 4045 a1bd
00000360: dcf9 08be 7566 43bc 0979 a93d c057 a73c
00000370: 7ab0 6bbe b21a 153e d578 9d3d 5265 3e3e
00000380: 58fe adbd 9e31 303e fa52 33be 31ba bbbd
00000390: 44bb 31bd 732d b03e 16e8 5ebd e1b5 193e
000003a0: 4396 323e 1975 863c f14f d33d ff5a a2bd
000003b0: 2b7e dc3e 49ee 4bbe 5659 86be f145 a13d
000003c0: 6029 a03d 42e5 f7bc 167b 04bd fa04 57bd
000003d0: b30f 593e 62f9 18bc 4303 e73d 5ac1 d53d
000003e0: ddc2 093e f78e a93d 15fe 003e cfd4 38be
000003f0: f0b2 e8bd 9ff2 28bc a43e 6cbd 8069 113c

RepVgg_ir2.rbr_reparam.bias f4 [32]
0.05756125 0.18935454 -1.6562188 -0.3250124 -0.14616248 -0.21285456 -1.4288263 -1.0873021
-0.15860626 0.73504734 1.2936561 -0.43557376 -1.1279317 -0.13096416 -1.4009211 -1.2043215
-0.25333476 -0.427976 1.0082457 0.6659527 -1.198031 0.39890146 -1.1381297 -0.38753897
0.56641096 -0.7456138 1.1299663 0.23380649 -0.8917052 -0.46614343 0.7350956 -1.022046
00000000: 58c5 6b3d 28e6 413e fafe d3bf 0668 a6be
00000010: 9eab 15be 8cf6 59be c8e3 b6bf b72c 8bbf
00000020: ae69 22be 102c 3c3f 8696 a53f 8603 dfbe
00000030: 1160 90bf 781b 06be 6251 b3bf 3527 9abf
00000040: 18b5 81be ac1f dbbe 320e 813f e07b 2a3f
00000050: 1459 99bf d03c cc3e 3cae 91bf 826b c6be
00000060: 4f00 113f 8ce0 3ebf bca2 903f f86a 6f3e
00000070: cb46 64bf 5aaa eebe 3a2f 3c3f 67d2 82bf

cbam.ca.se.0.weight f4 [16, 64, 1, 1]
0.14194483 0.03783113 -0.16131972 -0.07007197 -0.14089432 -0.09295896 0.10826432 0.123516515
-0.066697605 0.12713155 0.16193533 -0.07427817 0.0491819 -0.061673306 0.122891545 -0.11124727
-0.09460862 0.11695381 -0.010183018 -0.03636723 -0.01878096 -0.036332715 0.048487682 -0.12248303
-0.12855572 -0.047038104 -0.005520032 0.10234801 0.04653192 -0.01399129 0.14624204 0.079200104
-0.1205577 0.050756674 -0.03164014 0.062134776 0.08121373 -0.13044466 -0.073540986 0.030602919
-0.04918185 -0.13372375 -0.045185816 0.070856154 0.033851955 0.13905974 0.078037396 -0.23989435
0.0010651264 -0.088950224 0.07474301 0.09100658 0.10946951 0.10431879 0.1338262 0.0020891065
-0.14594893 0.09444717 -0.10171854 -0.17274252 0.17828202 0.02401548 0.08832421 -0.0055617825
0.009517882 0.023139179 -0.047848955 0.04455565 0.103285566 0.1280756 0.004846269 -0.088760085
0.10994142 0.022463433 0.0014897716 -0.03230058 -0.07238842 0.12789541 0.05804596 0.04533408
0.009369934 0.10741232 0.071643546 0.03355067 0.06587177 -0.06282273 0.059087668 -0.012187094
0.110707775 -0.022073515 0.001443806 0.028091568 -0.06792663 0.09801513 -0.099371985 -0.10094168
0.022159718 -0.11921122 0.05678393 -0.105383016 -0.08258889 0.03388693 0.03718838 0.036428344
-0.00964637 0.15754789 0.020732813 -0.14014837 -0.011270523 0.08619589 0.09549797 0.25724584
-0.03823579 0.036398754 0.031243604 -0.13153411 -0.088443495 0.0046688784 0.122726865 0.113290444
0.13382891 0.0910995 -0.063960165 0.005751825 -0.054539934 0.03166666 0.02444354 -0.025650078
0.18281433 -0.048316233 -0.0909715 -0.03328223 0.07557121 -0.081026904 -0.09243945 0.06595267
-0.15649422 0.058760464 0.163194 -0.04459767 -0.018497853 -0.17487642 0.049678758 -0.025332987
0.05613855 0.13790914 0.17174576 -0.119155996 0.103404604 -0.006002248 -0.06892983 -0.108384416
-0.027421173 0.027959533 0.15447438 0.19925365 -0.08046096 0.06012296 0.08537733 0.061320383
-0.044786617 0.13347714 -0.085657515 0.020748835 -0.08608687 -0.051197473 0.072569616 0.011447064
0.08861466 -0.17037156 0.062341284 -0.006403085 -0.03427811 -0.048111636 0.12943791 -0.03138478
0.03992105 0.014944196 -0.11367473 0.1063902 -0.031895015 0.049822368 0.17144863 -0.1586672
-0.021159641 0.05435622 0.0019615705 -0.09123937 0.10240489 -0.05455378 -0.018105106 0.08187457
0.14411303 -0.019632056 0.008788954 -0.09183676 0.07789497 -0.16282856 0.16836846 -0.035358846
0.2075222 0.077901214 -0.10624056 -0.13456175 0.0030716562 0.05230665 0.08495081 -0.055681657
0.12972432 0.047505524 0.17165956 -0.017379442 -0.13205656 0.0021199707 -0.083634995 -0.026560085
0.01907419 0.15616396 -0.000647851 -0.12646341 -0.0019521466 0.06183374 -0.10281442 -0.087358944
0.08533033 -0.223044 0.09063201 0.07231933 0.05858627 0.08878508 -0.20118922 -0.00026614894
-0.040248726 -0.08832621 0.035759557 0.034997817 -0.17269896 -0.09661225 -0.23875318 -0.09771223
0.03460338 0.007858071 0.1579659 -0.086297154 -0.06789307 -0.09827944 -0.14128757 0.035593413
0.049958397 0.069002405 0.032728363 -0.02187359 -0.027966334 0.03755432 0.028482338 0.030498052
00000000: fc59 113e d1f4 1a3d ff30 25be e581 8fbd
00000010: 9a46 10be 4461 bebd afb9 dd3d 3af6 fc3d
00000020: c198 88bd c62e 023e 60d2 253e 271f 98bd
00000030: f672 493d 269d 7cbd 90ae fb3d 9cd5 e3bd
00000040: 2ac2 c1bd 7b85 ef3d acd6 26bc cef5 14bd
00000050: 87da 99bc 9dd1 14bd 059b 463d 62d8 fabd
00000060: 1ca4 03be 07ab 40bd 62e1 b4bb d59b d13d
00000070: 4198 3e3d b93b 65bc 79c0 153e aa33 a23d
00000080: f5e6 f6bd 3be6 4f3d 1799 01bd 0981 7e3d
00000090: 6253 a63d 4993 05be a89c 96bd f9b2 fa3c
000000a0: e872 49bd e1ee 08be c314 39bd 081d 913d
000000b0: 59a8 0a3d ad65 0e3e 12d2 9f3d dda6 75be
000000c0: b69b 8b3a 892b b6bd dd12 993d a861 ba3d
000000d0: 8d31 e03d 17a5 d53d bc09 093e 64e9 083b
000000e0: a373 15be 856d c13d cf51 d0bd 6ae3 30be
000000f0: 908f 363e 1dbc c43c 53e3 b43d 9d3f b6bb
00000100: e4f0 1b3c 608e bd3c 44fd 43bd fc7f 363d
00000110: 6287 d33d 4026 033e 73cd 9e3b d9c7 b5bd
00000120: f828 e13d 3c05 b83c 7144 c33a 9d4d 04bd
00000130: 6140 94bd 04f7 023e 9ac1 6d3d 3ab0 393d
00000140: 5a84 193c fefa db3d dab9 923d 6d6c 093d
00000150: c7e7 863d 34a9 80bd e905 723d 61ac 47bc
00000160: c2ba e23d 84d3 b4bc 173e bd3a 4a20 e63c
00000170: 1e1d 8bbd 28bc c83d 8a83 cbbd 83ba cebd
00000180: 4c88 b53c 0325 f4bd 4496 683d 0dd3 d7bd
00000190: 5d24 a9bd 06cd 0a3d d852 183d e335 153d
000001a0: cf0b 1ebc 3c54 213e dcd7 a93c 0e83 0fbe
000001b0: 00a8 38bc 7987 b03d 7194 c33d bab5 833e
000001c0: 229d 1cbd dc16 153d 96f2 ff3c e1b0 06be
000001d0: dd21 b5bd 64fd 983b 3958 fb3d d204 e83d
000001e0: 720a 093e 6092 ba3d 8cfd 82bd ce79 bc3b
000001f0: 4465 5fbd e6b4 013d d23d c83c 1d20 d2bc
00000200: ae33 3b3e 3ee7 45bd 444f babd f352 08bd
00000210: 14c5 9a3d 6ff1 a5bd e550 bdbd 3212 873d
00000220: 0540 20be d0ae 703d 541c 273e 0cac 36bd
00000230: cf88 97bc ce12 33be f47b 4b3d 2087 cfbc
00000240: 89f1 653d 0e38 0d3e 1fde 2f3e 0f08 f4bd
00000250: cbc5 d33d 81ae c4bb 152b 8dbd a6f8 ddbd
00000260: 5ea2 e0bc 640b e53c 882e 1e3e 2609 4c3e
00000270: b7c8 a4bd 7e43 763d 4fda ae3d 152b 7b3d
00000280: 2c72 37bd 3bae 083e 356d afbd 76f9 a93c
00000290: 504e b0bd 71b4 51bd 619f 943d 778c 3b3c
000002a0: 9a7b b53d e275 2ebe 9359 7f3d f8d0 d1bb
000002b0: 3467 0cbd b510 45bd 5f8b 043e 548d 00bd
000002c0: 4184 233d 80d8 743c 4cce e8bd 1be3 d93d
000002d0: 59a4 02bd 8a12 4c3d 3b90 2f3e a879 22be
000002e0: fc56 adbc a1a4 5e3d b18d 003b b5db babd
000002f0: a8b9 d13d c973 5fbd 2951 94bc dbad a73d
00000300: 5e92 133e 68d3 a0bc 8bff 0f3c e914 bcbd
00000310: 6687 9f3d 88bc 26be c868 2c3e 70d4 10bd
00000320: b380 543e ac8a 9f3d a794 d9bd 8eca 09be
00000330: d74d 493b 7f3f 563d b1fa ad3d 7312 64bd
00000340: 74d6 043e 2795 423d 86c7 2f3e 555f 8ebc
00000350: d639 07be 35ef 0a3b d348 abbd 8994 d9bc
00000360: 7a41 9c3c 72e9 1f3e 8bd4 29ba a07f 01be
00000370: 2cdf ffba 6045 7d3d 5e90 d2bd 3fe9 b2bd
00000380: abc1 ae3d a565 64be 469d b93d 281c 943d
00000390: 28f8 6f3d f4d4 b53d 8c04 4ebe e889 8bb9
000003a0: d9db 24bd 5fe4 b4bd 9d78 123d df59 0f3d
000003b0: ffd7 30be a5dc c5bd b77b 74be 5a1d c8bd
000003c0: 46bc 0d3d 23bf 003c d0c1 213e 90bc b0bd
000003d0: 860b 8bbd bb46 c9bd b0ad 10be 66ca 113d
000003e0: 2da1 4c3d 2251 8d3d 2d0e 063d 3e30 b3bc
000003f0: a719 e5bc 8fd2 193d cb53 e93c 0dd7 f93c

cbam.ca.se.2.weight f4 [64, 16, 1, 1]
-0.1302526 -0.14091957 0.41119918 -0.197563 0.23242362 0.44284803 0.04273856 0.7570702
-0.084801786 0.2374226 -0.5438087 -0.20007454 0.20690887 -0.11911549 -0.07894581 -0.17607851
0.057782713 0.020376483 -0.32017064 0.2856983 -0.03694759 -0.21316354 0.1807036 -0.23679265
0.08870218 -0.19389012 -0.1352 0.12893632 -0.20301811 0.12642051 0.16644621 -0.2518781
-0.10179512 -0.16565678 -0.40124097 0.10561236 -0.23488905 0.30101156 0.016716119 -0.11477543
-0.09429297 -0.14805062 -0.10839382 0.16295333 0.21513318 -0.042976063 0.22864774 0.013770131
0.0013533029 -0.26703665 -0.28267577 -0.030879106 -0.19788967 -0.029009301 -0.22560169 -0.25317943
-0.4447603 -0.38068533 -0.07712758 -0.3061128 -0.20563182 -0.17315231 -0.28327063 -0.19879402
0.15934941 -0.20601259 0.01404472 0.0075655826 0.19337699 -0.29878876 -0.32759073 0.0041368287
0.07042478 0.23861657 0.0065045026 -0.032241825 -0.23492935 0.04987627 0.0959703 -0.16449219
-0.08620133 0.24602802 -0.14359148 0.14906085 -0.023585692 -0.11454604 -0.38058683 -0.0029808262
0.17907126 0.24188857 -0.3582223 -0.21641716 -0.16895686 0.04485251 -0.12579833 0.12818591
0.17155376 -0.0638768 0.2630571 -0.4663052 0.19032778 -0.4321065 0.0556107 0.20738395
-0.1510108 0.16992915 -0.18593892 -0.22770983 -0.10417243 0.13771397 -0.05069867 -0.046134762
0.13781124 0.035567068 0.2581775 -0.27575022 0.110752404 -0.29865223 0.13870415 -0.32016262
0.18731056 0.19836544 0.038907044 -0.14184116 0.025226505 -0.32161605 -0.11312159 -0.06634929
-0.010177083 0.017451601 -0.2920494 -0.07909133 0.021332895 0.032827556 -0.71728104 0.2419017
-0.24514106 0.031170033 -0.5679669 -0.023308966 -0.037743405 0.09741764 0.12632225 0.13919646
-0.26156414 -0.17439482 -0.31103447 -0.05270764 -0.19943307 -0.24763766 -0.11203038 -0.06900346
-0.0049689505 -0.0018698719 -0.3385403 -0.062406704 -0.44095218 -0.45801187 -0.13763562 -0.25873098
-0.21870959 0.22828218 -0.18960996 0.014128279 -0.10165536 0.008276549 -0.2917941 0.3457666
0.2154698 -0.11766825 -0.8374467 0.109294906 0.17589474 0.12603359 0.09371496 -0.15906711
-0.20844069 -0.124650255 -0.30296105 -0.18201217 0.16233923 0.0040972233 -0.21592054 0.06711867
-0.15083349 -0.08178044 -0.27898115 -0.29272765 0.17359158 -0.053452935 -0.030541178 0.052311964
-0.23287731 -0.07706024 -0.5240734 0.036911227 -0.1997226 -0.2626714 -0.22596726 -0.054454952
-0.1276501 -0.0045410534 -0.09885593 0.28083938 -0.1357541 0.25255802 0.044068027 0.19019984
-0.1654788 -0.21589276 -0.17759551 -0.40409017 0.15828937 0.17061058 -0.10465162 0.22649744
0.17216957 0.058665026 0.014112985 -0.076329574 0.18318067 0.12545466 0.0262846 -0.31631634
-0.2052901 -0.40085503 -0.11087435 0.02159237 -0.41538432 0.09254526 0.09111845 -0.070567966
-0.057032146 -0.30867442 -0.22411972 -0.41485184 -0.44689593 -0.29547963 -0.11984294 -0.14829351
-0.10094733 0.07243355 0.07172014 -0.35087547 -0.079763606 -0.059028897 -0.15946263 0.30428222
0.21826905 0.16507864 -0.26740584 -0.23278429 -0.040827114 -0.0640048 0.1463905 -0.26296753
00000000: f060 05be 384d 10be b388 d23e f44d 4abe
00000010: 7500 6e3e fabc e23e a10e 2f3d 5acf 413f
00000020: 8fac adbd e91e 733e 0c37 0bbf 57e0 4cbe
00000030: ebdf 533e d2f2 f3bd 57ae a1bd ed4d 34be
00000040: 91ad 6c3d 95ec a63c 68ed a3be 0c47 923e
00000050: 5b56 17bd 8b47 5abe 5d0a 393e c679 72be
00000060: 7da9 b53d 228b 46be de71 0abe e207 043e
00000070: fbe3 4fbe 6174 013e e070 2a3e 2bf6 80be
00000080: f679 d0bd eea1 29be 756f cdbe 4b4b d83d
00000090: c186 70be 301e 9a3e 3ef0 883c 610f ebbd
000000a0: ac1c c1bd 959a 17be 94fd ddbd 3ddd 263e
000000b0: df4b 5c3e ab07 30bd a222 6a3e 1e9c 613c
000000c0: 4f61 b13a 07b9 88be e1ba 90be 2ef6 fcbc
000000d0: 97a3 4abe eaa4 edbc 2104 67be bca0 81be
000000e0: 9fb7 e3be 30e9 c2be 11f5 9dbd d1ba 9cbe
000000f0: 2691 52be d74e 31be d908 91be a990 4bbe
00000100: 7e2c 233e f7f4 52be d31b 663c b5e8 f73b
00000110: 9e04 463e d7fa 98be f9b9 a7be 3c8e 873b
00000120: de3a 903d e757 743e b923 d53b 0110 04bd
00000130: 5291 70be 0f4b 4c3d 148c c43d a470 28be
00000140: 538a b0bd c5ee 7b3e a509 13be 68a3 183e
00000150: c836 c1bc 1d97 eabd 47dc c2be f759 43bb
00000160: 755e 373e a3b1 773e ea68 b7be 769c 5dbe
00000170: 0703 2dbe 44b7 373d 47d1 00be 2b43 033e
00000180: caab 2f3e d7d1 82bd 6caf 863e 8ebf eebe
00000190: 49e5 423e 103d ddbe 0cc8 633d 755c 543e
000001a0: 93a2 1abe e801 2e3e c666 3ebe c42c 69be
000001b0: 5b58 d5bd e404 0d3e 69a9 4fbd cef7 3cbd
000001c0: 641e 0d3e c6ae 113d d72f 843e 222f 8dbe
000001d0: 28d2 e23d f2e8 98be 7608 0e3e 5bec a3be
000001e0: 57ce 3f3e 4f20 4b3e fe5c 1f3d cf3e 11be
000001f0: d1a7 ce3c dcaa a4be 4bac e7bd 23e2 87bd
00000200: c8bd 26bc a9f6 8e3c 8087 95be a3fa a1bd
00000210: 53c2 ae3c 3076 063d bb9f 37bf 14b5 773e
00000220: 4206 7bbe 4c58 ff3c 4766 11bf 72f2 bebc
00000230: d498 1abd e682 c73d 9f5a 013e 8489 0e3e
00000240: bceb 85be 8e94 32be e93f 9fbe f7e3 57bd
00000250: 2f38 4cbe ba94 7dbe 2f70 e5bd b051 8dbd
00000260: 94d2 a2bb 7d16 f5ba 2755 adbe 2c9e 7fbd
00000270: 7cc4 e1be 8880 eabe 5af0 0cbe 6378 84be
00000280: 68f5 5fbe cec2 693e 1d29 42be 4c7a 673c
00000290: af30 d0bd 5d9a 073c 0966 95be 5208 b13e
000002a0: 1ea4 5c3e 0dfc f0bd e862 56bf 02d6 df3d
000002b0: c01d 343e f30e 013e a1ed bf3d 7de2 22be
000002c0: 7a71 55be a248 ffbd b61d 9bbe 6661 3abe
000002d0: 413c 263e 0042 863b 461a 5dbe 8375 893d
000002e0: 1874 1abe 817c a7bd 9ed6 8ebe 66e0 95be
000002f0: fec1 313e 77f1 5abd 7e31 fabc 1245 563d
00000300: 6477 6ebe c2d1 9dbd ad29 06bf 3a30 173d
00000310: 1584 4cbe de7c 86be f663 67be 280c 5fbd
00000320: b5b6 02be 1ecd 94bb fa74 cabd 2eca 8f3e
00000330: 1f03 0bbe 494f 813e ad80 343d bfc3 423e
00000340: 4673 29be fe12 5dbe 99db 35be e8e4 cebe
00000350: 9c16 223e 8ab4 2e3e 9753 d6bd f2ee 673e
00000360: 384d 303e bd4a 703d 263a 673c ae52 9cbd
00000370: b793 3b3e 3077 003e cd52 d73c 37f4 a1be
00000380: 9137 52be df3c cdbe 1712 e3bd 7be2 b03c
00000390: 41ad d4be 5f88 bd3d 4f9c ba3d f085 90bd
000003a0: 8a9a 69bd 930a 9ebe a47f 65be 7667 d4be
000003b0: 8bcf e4be 1b49 97be 3770 f5bd 41da 17be
000003c0: 79bd cebd 0b58 943d 02e2 923d f3a5 b3be
000003d0: 1a5b a3bd 49c8 71bd 2c4a 23be e1ca 9b3e
000003e0: ec81 5f3e 600a 293e 6be9 88be 015f 6ebe
000003f0: 553a 27bd f314 83bd 64e7 153e aea3 86be

cbam.sa.conv.weight f4 [1, 2, 3, 3]
0.10995102 -0.11423598 0.11199337 -0.04526029 0.053140357 -0.15221044 0.23784097 -0.16299284
0.15430085 0.07172102 0.16851579 0.34209064 0.45838243 0.233886 0.061017215 0.20040561
0.40089586 0.1538442
00000000: 002e e13d 8ef4 e9bd c85c e53d db62 39bd
00000010: b4a9 593d 0edd 1bbe 958c 733e 98e7 26be
00000020: 0b01 1e3e 78e2 923d 678f 2c3e 8126 af3e
00000030: 1ab1 ea3e d07f 6f3e 30ed 793d 2137 4d3e
00000040: 3942 cd3e 5589 1d3e
