models/Epoch_0_iters_1000_alpha_10000_wir_6.0_wvi_3.0.model (torch, 277666 bytes, 76 tensors)

conv_vi.conv2d.weight f4 [16, 1, 3, 3]
00000000: a8fb acbd 2e89 2a3e 2b90 9e3c 3669 c93d
00000010: b7df a63e da68 c2bd 911d 05bf 5a79 96be
00000020: 1ed3 b3be 6c69 3d3d 4e45 9cbe 5b8b 0abe
00000030: 08f9 b93d a368 e9bc 8a8e 673e 5023 893e
00000040: 231d 903e 7bb3 f73c 2893 d33d f7e9 b73d
00000050: 93f3 62be 6980 fb3c 9739 2a3e edb0 ef3c
00000060: 83f5 fabb 94c5 03be a525 4a3d f0a9 a4be
00000070: 90e9 bfbc 05cc 523e 5138 3b3e 3184 1b3e
00000080: 3378 05bd e55d 223e bdfa 43be 2f74 de3c
00000090: d95f ffbd 050f 1abe 58d3 4d3d 0aac cbbc
000000a0: 1ef1 a03e 4cac 353d 447f 1fbc 0025 5a3e
000000b0: df4d 813e 3379 e1bd d1cf ca3d 23c2 a33d
000000c0: 2157 a03e 63a3 113e 7a92 e7bd 624a ffbd
000000d0: 8507 abbd 5ddf 99be 11e4 f83d 2f49 1bbe
000000e0: d031 383d b9ec 5f3d d203 1abd 9e36 6fbe
000000f0: ecc3 343e 0bf6 23be 7492 9f3e 298c 883e
00000100: f4d2 4ebe 5119 a0be 5337 f73c 2d82 94be
00000110: 4ace b83d 8b6e 243e 4b2d 8cbd f60a 9d3e
00000120: f695 17be 0459 f1bc 1474 c83e d777 0bbd
00000130: e0d0 503e 6a82 51be f7b8 38be bfb3 99be
00000140: 8c46 e33c cbde 043d 795d 32be 5c05 543e
00000150: a011 96be 337d 5e3e 3d07 8e3e ab69 b73d
00000160: 791a 173e bdfb 493e 16b1 90be c05c 933d
00000170: 894b 91be 80d4 75be 41b7 793e 12b0 8f3e
00000180: dfa8 033e 2e7a 3c3e b8b9 963e ee6a e53d
00000190: 8e45 d2bc 9214 463e ff68 2a3d 9770 9abe
000001a0: 62e1 a83e 969a 02be 26dc 80be 3b46 f5bd
000001b0: 5a6d 75bd d6f6 35bd edc1 6c3e 530a 5f3d
000001c0: 9bba 8c3d 7bac d43c 56ca 45be bfa7 93bb
000001d0: 34f0 69be 3cae f83c 2e1a 903e 2f3e a03e
000001e0: 1fec 593e c21d 353d 903d 24be 3eac f63d
000001f0: 740d 7abd 5efd d4bd c316 73be a600 f33c
00000200: 2968 9f3e 408f c9bd b893 f83d 6979 1c3d
00000210: a1e8 4ebe 09e5 8e3e 1b7e ee3d 5463 0bbc
00000220: 8d43 d7bd 0fca b73e d4b3 adbe 1d3f f3bd
00000230: 9c0b 493e e211 31be d292 cdbd 2a7f 62bd
-0.08446437 0.16653892 0.019355854 0.098345205 0.32592556 -0.09492655 -0.5199824 -0.2938946
-0.35122007 0.046243116 -0.30521625 -0.13529722 0.09080702 -0.028492277 0.22612968 0.26784754
0.2814723 0.03023695 0.10330802 0.08980172 -0.22163229 0.03070088 0.16623531 0.02925917
-0.007658662 -0.12868339 0.049352307 -0.32160902 -0.023426801 0.2058564 0.18283202 0.15187146
-0.032585334 0.1585613 -0.19138618 0.02715501 -0.12469453 -0.15044792 0.05025038 -0.024862308
0.31433958 0.04435377 -0.009734932 0.21303177 0.25254723 -0.11009445 0.09902919 0.07996013
0.31316474 0.14222483 -0.11307235 -0.12465359 -0.083510436 -0.30053225 0.12152875 -0.15164636
0.04496938 0.054669116 -0.0376013 -0.23360679 0.17652863 -0.16011827 0.31166422 0.26669434
-0.2019766 -0.31269315 0.030177748 -0.29005566 0.090237215 0.16057794 -0.068445764 0.30672425
-0.148033 -0.029461391 0.3915106 -0.034049835 0.2039218 -0.20459905 -0.18039308 -0.30019948
0.0277436 0.032439034 -0.1741847 0.2070517 -0.29310322 0.21727447 0.27739897 0.089557014
0.14756192 0.19724937 -0.28260106 0.07195425 -0.2837794 -0.24006844 0.24386312 0.28064018
0.12857388 0.18405983 0.29438567 0.11202036 -0.025667932 0.19343784 0.04160404 -0.30164024
0.32984453 -0.12754282 -0.2516796 -0.11976286 -0.05991874 -0.044424854 0.23120852 0.054453205
0.0687153 0.025961151 -0.19315466 -0.004506081 -0.22845536 0.030356519 0.28144974 0.31297442
0.2128148 0.044217832 -0.16039109 0.12044571 -0.061047986 -0.103998885 -0.23739152 0.029663395
0.31134155 -0.09841776 0.1213755 0.038201723 -0.20205928 0.27909115 0.116451465 -0.008507568
-0.10510931 0.35896346 -0.3392626 -0.11877272 0.19633335 -0.17291978 -0.100377694 -0.055297054

conv_vi.conv2d.bias f4 [16]
00000000: c5fd 653e 88d6 743e f352 1d3d d397 cf3d
00000010: 8aa0 763d 155c ebbd a801 bf3e 9bb2 fdbe
00000020: 40eb 9d3d df8b dfbe 4828 463d 8134 c9be
00000030: 4983 b3bb 2cd6 4c3e 86f9 c03e 7157 233e
0.22460087 0.23909962 0.038409185 0.1013638 0.060211696 -0.11492173 0.3730595 -0.49550328
0.07710886 -0.436614 0.04837826 -0.3929787 -0.005478297 0.20003575 0.3769037 0.15951325

RepVgg_vi1.rbr_dense.conv.weight f4 [32, 16, 3, 3]
00000000: 57ff cd3d 7560 d83d 8ffa e13c cfa3 b0bd
00000010: a161 b3bd f8ec 35be fd29 443d e816 0f3e
00000020: 6d87 163e 0d60 c03d fc1a 793c 8987 a9bd
00000030: bb06 603c 0661 84bb 2695 92bd 27b3 7dbb
00000040: dbe2 183d 2994 84bd 2532 c53d cc98 79bd
00000050: 5ac5 28bd 3ed5 b03d 43bb 62bb d829 4dbd
00000060: d284 103d d9d1 88bd bc29 e73c e219 b2bd
00000070: 42f9 64bd 47b1 cabd bcf4 383d ff98 fc3c
00000080: 9fb3 1cbd 6c2d 983d 7d52 b938 8052 a73b
00000090: ac71 4f3d 0e83 8a3d e8b8 b13b d863 85bd
000000a0: 88f7 31bd c7fc 56bc d0bf 3dbd 5718 1cbd
000000b0: ce50 adbd 6233 203e efbb 303e 05fd ecb9
000000c0: 4fb1 ed3d 260b 96bc 3e10 47be 5bf6 67bd
000000d0: b9e9 b0bd 5ab9 fbbd 8f33 933a 99b2 cf3c
000000e0: 8a80 2fbc 9d84 8bbd 5039 48bc cc71 883d
000000f0: 5075 973b ff51 45bc 8893 c5bc e578 183e
00000100: 2f4d c5ba 07ac 09bd c20e 51bc 9082 3cbd
00000110: 4f87 debb eab8 10bd 10f5 70bd 5b33 84bd
00000120: 3402 b73d 4e66 0e3d 8346 b93d 6c99 9cbb
00000130: f781 05bd 0561 50be 548b 813d dfcd 0c3d
00000140: 715f 78be 8c26 5f3d 9e09 07bd 3dd1 cf3b
00000150: 59ae 1bbd 58ce 7c3c 3344 8f3d d0fa 383a
00000160: f93a 9a3d de33 ddbb b963 53bd 0414 953c
00000170: c5c3 21bd 125a 973d c013 e43d c861 85bc
00000180: 53d1 cabb 85d9 ddbc 346e 803c 3be0 81bc
00000190: 579d 663d 1be2 c73d 5409 2d3d fe94 2a3d
000001a0: 1168 05bc 25e8 193c e7bc 8fbd 591d 7b3c
000001b0: 6ad3 f83d b6a5 213e 2657 c93d d849 1e3c
000001c0: 2b6a 49be 219c 75be 39b8 093e 7acf b73d
000001d0: 46d9 bebc e901 503d c201 ae3d b281 69bc
000001e0: 1876 3abd 37c0 efbc 9fc5 3c3d 12a9 3e3d
000001f0: 5be2 773d 0704 c0bd f170 543d 7e74 6dbc
00000200: 8542 cebc 09de cb3d 7304 023c d2de ef3c
00000210: 3f77 153c 44da 8c3d d2e4 113d f05d 28be
00000220: 8981 2f3d 2476 203e 0d1d cabd 249c e9bd
00000230: 78ba e13c b7a0 a53d c652 b83d 03d5 d0bd
00000240: 13d3 c6bc 8292 9b3c ff42 b23d 91e1 873e
00000250: 0e7b a63d bab6 273e 9862 373e 57c4 123e
00000260: 35e0 003e e397 403d d826 7bbd 0087 24be
00000270: c9dd 823d fc5c 79bc f75a afbd 52fb 2dbb
00000280: b94b 3b3d e2ba b13c 6431 c93d 68b5 003d
00000290: cdc3 793a 15ca 7bbd 760b 2bbd 05ba 9dbd
000002a0: 95d3 55bd f763 643d 538f 5bbd de05 5e3d
000002b0: 05ae 0e3d a5f8 083d 9bd9 023d 15d7 c6bb
000002c0: 4024 c6bd 9d23 a3bd cdba 9d3b 5bc5 aebc
000002d0: b126 56bc d474 8dbd c0a1 cebd af5a 453d
000002e0: b746 083b 33e6 7f3c cd6b 0a3d d8fa 8abc
000002f0: bc63 b13a 98e9 433d ac37 0d3e 7d9d b23d
00000300: 1f0b eb3c 3c81 2cbc 129b 18bc 148d 0dbc
00000310: 06f8 bb3d e501 9c3d 2915 74bd db53 103d
00000320: 5785 c63c 889a b13d 3161 963d 9019 b6bd
00000330: 659a 0f3c 15e5 d83d 2df2 00bd b2e9 1bbd
00000340: 1c9e 6fbd 54a0 b13d 21c1 1b3d 0c38 4c3d
00000350: 8d03 d33d 6a56 863c 9cb0 1a3c e12b c7bb
00000360: 6362 a53b 19e4 a93d 4564 e3bc 695e bdbd
00000370: e3ac adbd c395 0bbe f6af b3bd eb03 cabd
00000380: 81e8 b7bc d6ca d73c 18a4 a33d 955b 043c
00000390: 88d7 3a3d 1725 c53c 230c 23bc 007b 85bd
000003a0: 92e3 5fbd c7e8 433d 3528 97bd 7427 cf3c
000003b0: 43fd 00bd f2e7 bd3c 83fb 193d 87a2 64bd
000003c0: 8826 343d ffd2 4f3d b926 92bd acf0 9e3d
000003d0: f8b0 a63d a98e 103e 62d4 823d 51ca 873d
000003e0: d572 213d 8f13 06be 65b9 313d 4baf cb3c
000003f0: b13c 19bd 9e04 65bd ba79 6ebd e31a 953d
0.10058468 0.10565273 0.027585296 -0.08624994 -0.087588556 -0.17766178 0.047891606 0.13973582
0.14700098 0.0939332 0.0152041875 -0.082778044 0.01367348 -0.0040398864 -0.07157354 -0.003871152
0.03732572 -0.06473572 0.09628705 -0.060936734 -0.041203834 0.08634423 -0.003459648 -0.050088733
0.035282917 -0.0668065 0.028218143 -0.08696343 -0.055901773 -0.09897094 0.045155272 0.030834673
-0.038257238 0.074305385 8.836852e-05 0.0051062703 0.050645515 0.06763278 0.005423654 -0.06513184
-0.043448955 -0.01312179 -0.046325505 -0.03810915 -0.08462678 0.15644601 0.17259191 -0.00045201942
0.116060846 -0.018315863 -0.1943979 -0.056631427 -0.08638329 -0.122912124 0.0011230576 0.025353717
-0.010711798 -0.06812403 -0.012220696 0.0666233 0.004622139 -0.012043475 -0.0241182 0.14889868
-0.001505291 -0.033611324 -0.012759866 -0.04602295 -0.0067910324 -0.035332598 -0.05882746 -0.06455108
0.08935967 0.034765534 0.09046652 -0.0047790315 -0.032594647 -0.2034951 0.06325403 0.03437602
-0.24255158 0.05448012 -0.032968156 0.006342082 -0.038008068 0.015430056 0.0699543 0.0007056417
0.075307794 -0.006750568 -0.051608775 0.01819802 -0.03949334 0.073902264 0.111365795 -0.016281977
-0.006189504 -0.02708126 0.015677549 -0.015853992 0.056302395 0.09759923 0.042245224 0.041645996
-0.008142487 0.0093937265 -0.07018452 0.015326821 0.12149699 0.1578587 0.09831075 0.00966116
-0.19669406 -0.2398534 0.13449182 0.0897512 -0.023296963 0.05078307 0.08496429 -0.014252113
-0.04552278 -0.02926646 0.046086904 0.046547957 0.060518604 -0.09375768 0.05186552 -0.014493106
-0.025178203 0.09954459 0.007935631 0.029281054 0.009122669 0.06877568 0.03561861 -0.16442084
0.042848144 0.15670067 -0.09868822 -0.114067346 0.027554736 0.080872945 0.09000163 -0.10196879
-0.02427057 0.018990759 0.08704185 0.2653928 0.081289396 0.16378298 0.17908704 0.1433271
0.12585528 0.04701985 -0.06131634 -0.16067123 0.063899584 -0.015219923 -0.08562272 -0.0026547504
0.04572651 0.021695558 0.09823874 0.031423002 0.0009527773 -0.061472017 -0.041758977 -0.07701496
-0.052203733 0.055759396 -0.05360348 0.054204814 0.034833927 0.03344025 0.031945806 -0.0060681202
-0.09674883 -0.07965777 0.004813528 -0.02133434 -0.013070748 -0.06907049 -0.10089445 0.048182186
0.0020794102 0.015618849 0.033794213 -0.016965315 0.0013533751 0.047830194 0.13790768 0.08721445
0.028691826 -0.010528859 -0.009314315 -0.008639593 0.09178166 0.07617549 -0.059590492 0.03523622
0.024233503 0.086720526 0.073427565 -0.088915944 0.008764838 0.10590569 -0.031480957 -0.038064666
-0.058500394 0.08673158 0.03802598 0.049858138 0.10303412 0.016398627 0.009441521 -0.006078229
0.005047129 0.08295459 -0.027757773 -0.09246523 -0.08480241 -0.13631348 -0.08773796 -0.098640285
-0.022449734 0.026341837 0.07990283 0.0080784755 0.045615703 0.024065537 -0.009951624 -0.06517601
-0.054660387 0.047829416 -0.07380716 0.025287367 -0.03149153 0.02318189 0.037593376 -0.05581906
0.04398206 0.05073833 -0.07136292 0.07760748 0.08139223 0.1411692 0.06388165 0.06630386
0.039416153 -0.13093399 0.043389697 0.02486386 -0.037411395 -0.055912606 -0.058221556 0.07280519

RepVgg_vi1.rbr_dense.bn.weight f4 [32]
00000000: ded1 7b3f 600a 7d3f 97b7 7a3f ce9b 773f
00000010: 7c0a 8e3f 883a 833f d48b 7f3f b90e 8b3f
00000020: 8a36 8e3f 3d27 803f e1ce 853f 515b 6a3f
00000030: d553 723f 7cbd 7d3f 2581 833f c108 823f
00000040: f202 713f 8a41 803f 0af8 823f 10ed 873f
00000050: b7a2 823f ef3e 7a3f a61b 7b3f d1a3 903f
00000060: 5897 843f 0180 743f e1d0 753f 4d6f 743f
00000070: 0388 863f be22 8a3f 1389 7f3f ac97 783f
0.98367107 0.98843956 0.97936386 0.96722114 1.109695 1.0252237 0.99822736 1.0863868
1.1110394 1.0011975 1.045376 0.9154559 0.9465917 0.99117255 1.0273787 1.0158921
0.9414512 1.0020001 1.0231946 1.0619221 1.0205907 0.9775228 0.98089063 1.1299993
1.0358686 0.9550782 0.9602185 0.9548233 1.0510257 1.0791852 0.99818534 0.9710643

RepVgg_vi1.rbr_dense.bn.bias f4 [32]
00000000: 1c38 393d ee27 5dbe 3f51 1abd 6806 5dbd
00000010: 2d56 243d ea1c 1c3c 1a24 74bc bc88 e7bd
00000020: e347 813c 0b7c fb3d be60 793b 96d3 25be
00000030: 4481 a6be b558 973d bb13 63bd 0dc1 ef3d
00000040: 1298 593e 27c4 ddbc acbe cabd 7835 38bb
00000050: 82b6 6f3d fea9 a03d dd24 c93d 14f7 d5bc
00000060: 370c 7ebd a729 83bd 9b6e 89bd ead5 7fbd
00000070: 36af f4bd 0483 8cbd 710a 2f3c 5f91 9c3d
0.045219526 -0.21597263 -0.03767514 -0.053961188 0.040121246 0.009528378 -0.014901185 -0.11305377
0.015781349 0.12279519 0.0038052048 -0.16193995 -0.32520497 0.073899664 -0.05543874 0.117067434
0.21249416 -0.027071072 -0.09899649 -0.0028108042 0.058523662 0.078449234 0.09821484 -0.026118793
-0.062023368 -0.06404429 -0.067105494 -0.062459864 -0.11947481 -0.06860927 0.010683642 0.07644915

RepVgg_vi1.rbr_dense.bn.running_mean f4 [32]
00000000: fb74 8941 016b e1c1 e030 d2c1 3e73 9e41
00000010: cfb6 8341 fb22 81c1 4aac b841 5e13 5d41
00000020: d263 e9c0 1d7d 8f41 d210 4d41 8053 43c1
00000030: 53aa 98c1 3273 7741 c8b6 9cc1 229f 8fc1
00000040: 0872 32c1 bf5b 8ec1 5895 4941 6d74 aa41
00000050: 05c0 8741 4bcd 9dc1 1a06 b8c1 325e 87c1
00000060: 1f96 3c41 ee90 0142 2f26 ca41 beea d441
00000070: 66cd a1c1 c658 8841 5785 96c1 23c0 a240
17.18212 -28.177248 -26.273865 19.80627 16.464262 -16.14208 23.084126 13.817228
-7.293435 17.93609 12.8166065 -12.207886 -19.083166 15.465624 -19.589249 -17.952702
-11.15284 -17.794798 12.598961 21.306849 16.96876 -19.72524 -23.00298 -16.920994
11.786651 32.391533 25.268644 26.61462 -20.225292 17.043346 -18.815107 5.085954

RepVgg_vi1.rbr_dense.bn.running_var f4 [32]
00000000: aadc 0443 573e b743 4d64 9343 ffe6 3a43
00000010: 4425 0e43 52ec d142 1a8c 6443 bc02 d242
00000020: 6490 3042 c262 0143 03f1 a142 d2b3 b642
00000030: b927 3543 ac7d eb42 4948 1143 7a1b 3943
00000040: baac 5d42 fca6 0a43 fd03 b042 4157 3d43
00000050: b142 1b43 a3cf 2043 f42f 5543 c2c0 3443
00000060: 369b 9842 e33e ed43 4c29 8c43 5b9a d343
00000070: 12a7 3643 c549 0743 a527 1143 a715 8842
132.86197 366.48703 294.7836 186.90233 142.14557 104.96156 228.54727 105.00534
44.141006 129.38577 80.970726 91.35121 181.15517 117.74545 145.28236 185.10733
55.41868 138.65228 88.00779 189.34084 155.26051 160.81108 213.18732 180.75296
76.30315 474.4913 280.32263 423.2059 182.65262 135.28816 145.15486 68.04229

RepVgg_vi1.rbr_1x1.conv.weight f4 [32, 16, 1, 1]
00000000: 45bc a0be 2e4b 1d3e 22ba 663e 6822 65bb
00000010: 3c55 a4bb 9a89 febd ab6b 8dbc afe8 713e
00000020: db22 89be e9bb 523d 8732 5cbe d607 65be
00000030: 20a3 843c aa7b 8e3d 82c7 033e badf acbc
00000040: 2349 123e 6d53 243e e7a6 85be 0289 e3bd
00000050: 61d1 1ebe 6c2a 8bbd ce14 5c3d 13a9 873e
00000060: ff65 13be 7569 82be 82fc 423e b591 1abe
00000070: 0996 0e3e a50c f13d ab73 39be 7c5e 08be
00000080: 92f2 d6bd d735 33be c1a4 2cbe e0a5 61bd
00000090: fd4a d63d 0aee a03d 60a9 2e3e 23b2 393e
000000a0: de14 403e c4a8 14bd a76d 553e 6ba8 ed3d
000000b0: 102d 603e 00e3 79be 88a9 27be 5ad9 1e3e
000000c0: 6906 093e 7391 65be f9a5 e43d 38fb 18be
000000d0: 226f 173e e18d c9bd 4061 e23d dc8a 54be
000000e0: f54b 29be 3f42 3a3d 4d5d 23bd 9ee0 f13c
000000f0: 35bc fe3c 1914 6c3e b1c8 1f3e 0705 fcbd
00000100: 798f 7a3b 5ec7 e1bc bfdd d43c db10 053d
00000110: a135 a53c 5d2c 573d 4756 87bd c761 0f3d
00000120: b797 643d 7fe0 92be 33c2 13be 28c7 a03d
00000130: 87fa 403e 6eee acbd fac1 a4bc f453 88be
00000140: 7762 aa3c 30b3 673e 9a56 b8bd e15c 1b3d
00000150: a813 8fbd 266b 013e c79d 123e 4dbc 953d
00000160: c760 3c3e f06c a43d 81a3 083d 73bb 093e
00000170: a8cb e83d f027 143d 080c c03d 4852 04bd
00000180: e957 423d 9490 03be 4468 0a3e b71b bc3d
00000190: 5892 33bc 0d98 4ebe ef39 1d3e 160a 0d3d
000001a0: 8be3 abbc 8bf0 d23d 8794 0cbe facc 5dbd
000001b0: 0165 d7bd 7c10 2e3e 5e1c 67bd 5e98 09be
000001c0: 26fa ee3c 7d42 d6bc d18f 0f3c c1c3 a53c
000001d0: 0dde 4abd 4cf4 8b3d 354f 033e 10b6 17bd
000001e0: 00b9 fe3d 1072 103d f056 6bbd 6d16 2cbe
000001f0: 8705 82bd 0845 33be ed84 25be 9ad4 96bb
00000200: 5a3e d73c 050b 58be f544 8e3e 9b1a 7b3d
00000210: 233a 153e 75b9 b2bd e39b 1e3d c5a5 2d3e
00000220: 8aff 103e cb25 993d e983 babc 4c0e 603e
00000230: a5d2 27be a185 b9bd fb35 5a3e 9473 7fbe
00000240: eb3b db3d b9b6 47be 635b 45be 54a1 123e
00000250: fb9b 803e 58f8 003e f9d0 b4be 6718 c0bc
00000260: e83d de3d f776 153e 78e2 f9bd be5e 553e
00000270: b60d 1abc 5177 0abe 8bdc 18be 7561 b43c
00000280: d295 f03d 60ad 523e 7548 123e 024a b93d
00000290: bc11 4cbd 9319 db3c a227 043d 8434 fd3d
000002a0: 5c7d f8bc 09b6 04bd 626d 66bc 62cc 4cbd
000002b0: 80f0 873e 1eee e9bd b2ca 1bbe e047 a63d
000002c0: 528e d4ba 3515 913e b840 453e 7422 f1bd
000002d0: cad0 b3ba 2000 2d3e b1e1 bebc 6938 20be
000002e0: cba0 f4bd 5490 36be be88 873e 6a74 b03d
000002f0: 86f7 303d 47d3 e73d 9abe 30bd 4c4a 6c3d
00000300: ae31 2ebd 7a81 1fbe fc86 3abe 8f11 033e
00000310: dc57 b2bd 6124 0fbe 21e3 cdbc 1b43 02be
00000320: 0c12 fbbd 15ba a1bd eda5 b4bd 0663 923d
00000330: 58e8 84bd 298f c9bb dcec 033e 408f 9e3e
00000340: ac8b f6ba c2e3 22bd 268a b2bd 3988 263e
00000350: 4c86 2f3e 1581 89bd e639 213e 346d 6ebe
00000360: ff0e 09be be33 583e f076 6a3d 4237 f13c
00000370: 4b28 5a3e 9608 693e 0cfd cabc 42a4 003e
00000380: c854 febd 4b5a 25be 24c6 3dbe aac7 29be
00000390: 0005 82be 5b2f 1b3e 46c3 493d 1e85 b1bd
000003a0: 830f f03c 0c4f 73be 4ab9 5d3e 8c6f ddbd
000003b0: b4b7 12b8 cd8c c2bb 7a4e c93d 4310 8e3c
000003c0: 7779 82bd a0a0 0c3d 4b9b dd3d 7dce 003e
000003d0: ecd7 67be 954d 983d 20fd a23d 0554 f6bd
000003e0: 1f3e e53d 3444 543e 5b68 7cbd 830b 3fbd
000003f0: 1e04 f6bd 634f 40be 443e 5fbd 5ad4 bbbd
-0.31393638 0.1536071 0.22531942 -0.0034963135 -0.0050150435 -0.12428589 -0.017263254 0.23623918
-0.26784405 0.051448736 -0.2150365 -0.2236627 0.016191065 0.06957181 0.12869075 -0.021102775
0.14285712 0.1604745 -0.261039 -0.111101165 -0.15509559 -0.06795201 0.05373078 0.2649618
-0.14394377 -0.25471082 0.19041637 -0.15094645 0.13924421 0.1176999 -0.1811053 -0.13317293
-0.10495485 -0.17501007 -0.16859724 -0.05508983 0.10463522 0.07857902 0.17056799 0.1813436
0.1875796 -0.03629376 0.2084261 0.11604389 0.2189219 -0.24403 -0.16373265 0.155126
0.13381352 -0.22418766 0.11164469 -0.14939582 0.14788488 -0.098415144 0.11053705 -0.20756096
-0.16532882 0.045473333 -0.0398839 0.029526051 0.031095603 0.23054542 0.15603901 -0.123056464
0.003823249 -0.027560886 0.025984643 0.032486778 0.020167174 0.052532542 -0.06608253 0.035005357
0.05580875 -0.28686902 -0.1442955 0.07850486 0.18845569 -0.08443914 -0.020112026 -0.2662655
0.020798905 0.22626948 -0.09000893 0.037930373 -0.06986171 0.1263853 0.14318 0.07311306
0.18396293 0.08028591 0.033359054 0.13450412 0.11366969 0.0361709 0.09377295 -0.032305032
0.04744712 -0.12848121 0.13516337 0.09184974 -0.010960184 -0.2017519 0.15354131 0.034433447
-0.020982524 0.10299786 -0.13728534 -0.05415056 -0.10517312 0.16998476 -0.056423537 -0.1343703
0.029172014 -0.026154751 0.008762316 0.020234944 -0.04952817 0.06833705 0.12823184 -0.037038863
0.1243763 0.03526503 -0.057455957 -0.1680543 -0.063487105 -0.17506802 -0.16163988 -0.004602981
0.026274849 -0.21097954 0.27786985 0.06130467 0.14572959 -0.08726779 0.038722884 0.16957767
0.1415998 0.074779116 -0.022767978 0.21880454 -0.16388948 -0.09058691 0.21309654 -0.24946433
0.10704788 -0.19503297 -0.19273143 0.14319354 0.25119004 0.12594736 -0.35315683 -0.023449136
0.108516514 0.14596163 -0.122013986 0.20836923 -0.009402683 -0.13522078 -0.1492788 0.022019127
0.11747326 0.2057395 0.14285453 0.09047319 -0.0498216 0.026745593 0.03226436 0.12363532
-0.030333214 -0.032400165 -0.014064165 -0.049999602 0.26550674 -0.114223704 -0.15214041 0.08119178
-0.0016216731 0.28336492 0.1926297 -0.117741495 -0.001371884 0.16894579 -0.023300977 -0.15646519
-0.11944731 -0.17828494 0.26471514 0.08615954 0.043204807 0.11319595 -0.04315052 0.057688043
-0.042527847 -0.15576735 -0.18215555 0.12799667 -0.08708164 -0.13978721 -0.025132718 -0.12720911
-0.122593015 -0.078968205 -0.0882071 0.071477935 -0.064896286 -0.006151099 0.12883323 0.30968666
-0.0018809936 -0.039767988 -0.08717756 0.16262902 0.17141074 -0.067140736 0.15744743 -0.23283845
-0.13384627 0.21113488 0.057242334 0.029445294 0.21304433 0.22757182 -0.024778865 0.1256266
-0.124185145 -0.16147725 -0.18532616 -0.16580072 -0.2539444 0.15154783 0.049258493 -0.08667968
0.029304272 -0.23760623 0.21652713 -0.108122915 -3.49802e-05 -0.005937195 0.09829421 0.017341739
-0.06370824 0.03433287 0.108206354 0.12578769 -0.22640961 0.074366726 0.07958436 -0.12027744
0.11193489 0.20729142 -0.06162296 -0.046641838 -0.12012504 -0.18780284 -0.05450274 -0.09171362

RepVgg_vi1.rbr_1x1.bn.weight f4 [32]
00000000: 1aa7 6d3f 2f44 673f 6243 773f 0aba 673f
00000010: 103a 663f e4b1 803f 40ae 7b3f cc5d 6d3f
00000020: fdb9 6f3f 27f1 803f c3b2 833f 0cce 8d3f
00000030: 01b2 723f f976 743f 4207 793f e51c 7e3f
00000040: 8c55 683f 6d80 7f3f fefd 763f afb5 753f
00000050: ca8a 7d3f c590 853f a74c 713f e255 723f
00000060: 0901 603f 0507 743f b56b 8b3f b4fb 753f
00000070: 2ed6 753f 8e71 6c3f afdc 723f f3a8 883f
0.928331 0.90338415 0.96587193 0.9051825 0.89932346 1.0054288 0.9831276 0.9272125
0.9364317 1.0073594 1.0288929 1.1078506 0.9480286 0.9549404 0.972767 0.9926284
0.90755534 0.9980534 0.9648131 0.9598035 0.990399 1.0434805 0.9425759 0.94662297
0.8750158 0.9532321 1.0892245 0.96087193 0.9602994 0.9236077 0.94867986 1.0676559

RepVgg_vi1.rbr_1x1.bn.bias f4 [32]
00000000: 1c38 393d ee27 5dbe 3f51 1abd 6806 5dbd
00000010: 2d56 243d ea1c 1c3c 1a24 74bc bc88 e7bd
00000020: e347 813c 0b7c fb3d be60 793b 96d3 25be
00000030: 4481 a6be b558 973d bb13 63bd 0dc1 ef3d
00000040: 1298 593e 27c4 ddbc acbe cabd 7835 38bb
00000050: 82b6 6f3d fea9 a03d dd24 c93d 14f7 d5bc
00000060: 370c 7ebd a729 83bd 9b6e 89bd ead5 7fbd
00000070: 36af f4bd 0483 8cbd 710a 2f3c 5f91 9c3d
0.045219526 -0.21597263 -0.03767514 -0.053961188 0.040121246 0.009528378 -0.014901185 -0.11305377
0.015781349 0.12279519 0.0038052048 -0.16193995 -0.32520497 0.073899664 -0.05543874 0.117067434
0.21249416 -0.027071072 -0.09899649 -0.0028108042 0.058523662 0.078449234 0.09821484 -0.026118793
-0.062023368 -0.06404429 -0.067105494 -0.062459864 -0.11947481 -0.06860927 0.010683642 0.07644915

RepVgg_vi1.rbr_1x1.bn.running_mean f4 [32]
00000000: 65df 6f41 ff40 6cc1 1aa8 a9c1 aba6 b341
00000010: b6c7 0cc2 3aee b841 27d9 2341 5c29 abc1
00000020: 6d27 1b41 ab9a 1ac1 937f b9c0 d2d8 9841
00000030: 8c9d 98c1 daaa 3942 b078 06c2 a442 29c1
00000040: 4f43 adc1 a260 13c2 4eb9 3741 aceb 39c1
00000050: 5c58 d8c1 d3ba 4b41 4f89 31c2 f154 8741
00000060: cf84 3a40 c6a9 3e41 30fe 37c1 72a8 a740
00000070: 7660 debf 701c 71c1 568d 31c1 fa5e aac1
14.99204 -14.765868 -21.20708 22.45638 -35.19503 23.116322 10.240516 -21.395195
9.697125 -9.662761 -5.796823 19.10587 -19.076927 46.416847 -33.61786 -10.57877
-21.657866 -36.844368 11.48274 -11.620037 -27.043144 12.733111 -44.38409 16.916475
2.914356 11.916449 -11.4995575 5.239312 -1.7373188 -15.069443 -11.097006 -21.296375

RepVgg_vi1.rbr_1x1.bn.running_var f4 [32]
00000000: 1d47 b542 2324 d642 ee30 3743 2209 4b43
00000010: 7a56 f243 48aa 4643 89bb 3942 0b49 2e43
00000020: e14f 3242 af2c 2e42 9593 cb41 6771 1443
00000030: 5dc9 1143 8952 4d44 9e15 d743 d320 2642
00000040: 122a 3043 4a70 fb43 ef71 5142 2cc2 5742
00000050: 91a0 9043 f00d 8c42 55bc 4e44 99bc f042
00000060: ac99 9741 7fe2 9742 9875 8842 ce30 9741
00000070: c794 5941 170f b242 beb3 be42 defb 2b43
90.63889 107.07058 183.19113 203.03568 484.6756 198.66516 46.43314 174.28532
44.578007 43.543636 25.447062 148.44298 145.78658 821.2896 430.16888 41.532055
176.16434 502.87726 52.361263 53.93962 289.25443 70.02722 826.9427 120.368355
18.950035 75.942375 68.229675 18.89883 13.598823 89.02947 95.35106 171.98386

RepVgg_vi2.rbr_identity.weight f4 [32]
00000000: 1a6f 723f 2370 803f c104 643f 30f9 7b3f
00000010: eff0 783f ac57 713f 8668 583f 8ff5 733f
00000020: 4653 673f 292c 553f 2ec5 6b3f d31d 473f
00000030: 6bac 7d3f fcfb 7f3f 5202 7a3f dada 7f3f
00000040: 265c 763f 6997 633f f80c 7e3f 62c9 6f3f
00000050: 0ccd 773f d8fd 7c3f 2e29 793f 2789 723f
00000060: af8a 783f 3ea2 713f 634f 723f bb3f 833f
00000070: 9af1 803f aa72 623f e006 833f 320c 753f
0.9470078 1.0034221 0.89069754 0.98427105 0.97242635 0.942744 0.8453449 0.9529657
0.9036144 0.8327051 0.9209775 0.77779883 0.99091214 0.9999387 0.9765979 0.99943316
0.9623436 0.8890291 0.9923854 0.9366666 0.9679725 0.98824835 0.9732846 0.9474053
0.97086614 0.94388187 0.94652385 1.0253824 1.0073731 0.88456213 1.0236473 0.95721734

RepVgg_vi2.rbr_identity.bias f4 [32]
00000000: 8135 1e3e fab9 87bd a667 3a3e 0181 013e
00000010: 4f1c a83d e172 083e 3140 c53d 9859 99be
00000020: d6b8 213e 9326 1b3e ae1e 4b3d 7ae9 2f3e
00000030: e6e9 0cbe f654 9fbd b1c8 93bd 2c96 50be
00000040: 9bcd 6dbd 8a26 173e c827 e63b 67f8 d53b
00000050: 5695 233d 035e 7f3c 5654 a4bc 4f92 b93d
00000060: 2b80 563e 5afc 163d 83dd af3c c82b 873d
00000070: ff8b cebd 7bb5 7cbe 0351 9cb8 17a2 a8be
0.15450098 -0.06627269 0.18203601 0.12646867 0.082085244 0.13325073 0.09631384 -0.29951167
0.15793166 0.15151434 0.049589805 0.17178908 -0.137611 -0.07779877 -0.07216013 -0.20369786
-0.05805741 0.14760795 0.0070237853 0.006529856 0.03993734 0.015586379 -0.020059746 0.09061109
0.2094733 0.036861755 0.02146793 0.066001475 -0.10085296 -0.24678604 -7.453749e-05 -0.32936165

RepVgg_vi2.rbr_identity.running_mean f4 [32]
00000000: 2431 4b3f 8878 043f 33de 3c3f 9f97 2f3f
00000010: 06f3 403e 1cc4 fd3d a6ee 3f3f 5862 de3d
00000020: 72e1 373e 3d0a 9f3e 9e15 923e 2c4f 273e
00000030: 91c5 d73e f434 563f 63a3 3d3f 97b0 6d3f
00000040: e33f 7a3f f426 473f ef72 2e3f fb3e 1a3e
00000050: 2bd5 7a3e 8871 883e afa2 603f 647a 343e
00000060: d8b4 fc3e 5f34 323f 82cd 133e 6619 253f
00000070: a56e ec3e b8ac 073e d49a 373f d485 e23e
0.7937186 0.51746416 0.7377655 0.6859073 0.18842706 0.123909205 0.74973524 0.10858601
0.17957094 0.310625 0.28532118 0.16338795 0.4214292 0.8367455 0.74077433 0.9284758
0.97753733 0.7779381 0.68144125 0.15063088 0.2449538 0.26649117 0.87748235 0.17624813
0.49356723 0.6961116 0.14433864 0.6449188 0.46178165 0.1324948 0.71720624 0.44242728

RepVgg_vi2.rbr_identity.running_var f4 [32]
00000000: 5298 c23f 08da 0b3f 6b1b 4f3f b937 ac3f
00000010: 2810 203e 6bd7 263e 3960 bc3f dc50 283e
00000020: 7f7c 8c3e efa3 6c3e ce03 f83e aeaa 983e
00000030: 4dcd d23e 770c d93f 54e6 5d3f e728 813f
00000040: 3381 813f 7a0a 653f 69fc b13f 8887 193e
00000050: c420 343e 213c 1d3e f897 763f 64fe 973e
00000060: 8632 473f 8547 b93f 7604 a23e a34a 983f
00000070: e33c 113f b05b 4b3e 8043 3d3f 4d3d 993e
1.5202734 0.54629564 0.8090121 1.3454505 0.15631163 0.16293113 1.4716865 0.16437095
0.27438733 0.2310941 0.48440403 0.29817718 0.41172257 1.6956929 0.8667958 1.0090607
1.0117553 0.8946911 1.3905154 0.14993107 0.17590624 0.15354969 0.96325636 0.29686272
0.7781147 1.4474951 0.31644028 1.1897777 0.5673353 0.19859195 0.7393112 0.2992958

RepVgg_vi2.rbr_dense.conv.weight f4 [32, 32, 3, 3]
00000000: 7edc a0bd 32e9 16bd 608e f73b 4a6d afbc
00000010: be1b c5bc b48f c93a f941 cfbc 755c c63b
00000020: 94c6 523d e51e 4b3d 5dae bc3c 558a 523d
00000030: 36d3 c0bd ff37 17bc 1221 03bd c8be 4fbd
00000040: 85d2 1dba f0d6 1ebc f0e6 913c 8ded c8bc
00000050: 65d0 c03c 1a8e a8bd c11d afbd af91 a1bd
00000060: d97e 9bbd 9f42 40bd 512d 78bd dead 08bd
00000070: 06e9 d4bc a648 3a3d cc64 72bd 6f98 e9bc
00000080: 779c a0bb 644e 18bb 851d 1bbd 05dd 953c
00000090: b457 993c bcff a9bc 0076 163d 169a 0a3d
000000a0: 9f60 903c 7c1b 31bd 392f c2ba 00dc 85bd
000000b0: fd6e 6ebd 822f 98bd 30f1 0ebd 6bad 6f3c
000000c0: cea4 f8bd 0b6f 443b 5f0e 313d 8727 11be
000000d0: 3d2f 92bd f8ca aebd 682b f63b ed00 5ebc
000000e0: 3b13 193d 347e 83bd bde6 253d 8130 47bd
000000f0: 4a96 4a3d 4f68 883c f3a9 08bd af49 babd
00000100: fee8 0abc b735 263a 9c35 c2bd c7db 04bd
00000110: 6d75 86bd fe37 3cbd dfa5 5abd 8dd9 e8bd
00000120: 24cf c33d 9987 53bd b162 b3bc 878a 73bd
00000130: 8a03 16bd cbc7 e6bb 4a51 40bd 22ec 88bd
00000140: 4c5f 73bd b763 10bd 5e1e 8f3d 1871 f0bc
00000150: 4809 c53d beb7 e53d d70f 6e3d 6cbe 2bbd
00000160: dc0d 8e3d 5f74 48bd d654 ca3c 3337 623d
00000170: 3029 9d3d 7e38 113d 851c b2bc f286 47bb
00000180: b84a 05bd dd81 cb3c ad51 393d 03e2 bbbc
00000190: 1b1d 023d b132 ec3d 3cac 26bc ff97 1ebc
000001a0: ae6d 1ebb 5e2e b9bc 327e 59bd 7911 8c3c
000001b0: eb18 96bd d610 a5bd a93b c2bc 1cae 0bbd
000001c0: f695 81bd 2bd3 bfbd 4699 e0bc 4c37 84bd
000001d0: 066e 9dbd 05dc 7a3d 971c d9bb 400b d5bb
000001e0: 5faa e53c 08f7 a9bc 0c21 303d 808a d53c
000001f0: 0fbb 923b d2c8 483c a8b3 80bd cd78 83bd
00000200: 3551 5abd e251 c4bc 4f72 efbb 91a6 0ebd
00000210: 918f aabd 7149 6f3d b266 e83b c937 c7bd
00000220: c612 2bbe 140b 87bd c15a 9fbd c351 a4bd
00000230: 92a3 09bd 1daa 153d 8d63 c3bc 2efe e4bc
00000240: 03a8 bdbc 10ef 0b3c c312 c1bd b337 7cbd
00000250: d840 e43b 856f 52bd aeca c5bd efe4 f1bd
00000260: 8630 bdbd 7789 09bd b66d 02bd f26d a7b9
00000270: eba0 49bc 17be a1bc e8d3 50bd a842 9cbd
00000280: 1a00 2bbc b9cf 233d e67d 9e3c b9d7 a0bc
00000290: a786 6f3d 3951 3b3d 69a4 37bd e2bc a6bc
000002a0: fd3c 4a3c 0e2a ff3c f64a a7bc d2e5 a63c
000002b0: 61a5 63bc c476 d9bc 097b 993c 9e53 83bc
000002c0: 58eb a6bc 974a d8bc 2bff 8d3c 96c5 82bc
000002d0: bfe1 a03d fa05 0a3d 9178 923d ff75 2fbd
000002e0: bcf1 253d 7fe5 ad3d f6ea 4e3c 8647 febc
000002f0: 8e29 9f39 af3f c63c 317a 463d fc1a 45bc
00000300: d5ac 8fbd d78c 333b 16d6 01bd 4dc7 ebbc
00000310: 3136 46bd 4aaf 48bc a7dc 943b 6433 aebd
00000320: 892e 0fbb a9cd b7bd 6524 de3b 6be3 4f3d
00000330: 3c37 793c 8285 73bc 4861 893a 54b6 3dbd
00000340: f6b2 40bd a964 70bb d5a9 a6bd 62f5 eb39
00000350: deb5 89bb 0741 b8bd 486e f9bc b4e6 ef3c
00000360: cbec cb3c bc96 4d3c 5be6 943c 8715 05bd
00000370: 4823 b6bd 352f dcbc d46c 0fbd 18a1 ce3c
00000380: b43b 2bbd 550e 8f3c f42e 2e3d 6c91 b2bc
00000390: 0cc6 6c3d e597 433d 68e0 073c bdc4 78bc
000003a0: 747d fc3c 0a66 6d3c 180e fa3c e20b ccbb
000003b0: c817 16bb 6a32 ed3c 52e7 113a ce44 053d
000003c0: 8f94 d33d 7c8d 603d c5d8 073e b52a 0c3d
000003d0: f147 7c3b b308 833d 23ad 4ebd 19df d5bc
000003e0: d7c2 45bd 5dd4 b23b 2387 37bd a20f c9bb
000003f0: e8c9 11bd 8ad6 783d 23ab febb ab36 e1bd
-0.078545555 -0.036843486 0.007554814 -0.021414418 -0.02406108 0.001537791 -0.025300013 0.006053502
0.05145891 0.04959001 0.023032362 0.051401455 -0.09415285 -0.009229659 -0.03201396 -0.050719053
-0.00060204446 -0.0096948 0.017810315 -0.024527336 0.02353687 -0.08230229 -0.08550597 -0.07889115
-0.07592554 -0.046938535 -0.060590092 -0.033368938 -0.02599002 0.04547944 -0.05917816 -0.028515069
-0.0049014646 -0.0023240084 -0.03786995 0.018293867 0.018718578 -0.020751826 0.036733627 0.033838354
0.017624198 -0.0432391 -0.0014815099 -0.06536102 -0.058211315 -0.074309364 -0.034897983 0.014628748
-0.12140809 0.0029973413 0.043226596 -0.14175235 -0.07137916 -0.08534807 0.0075124986 -0.013550025
0.037371855 -0.06420556 0.040503252 -0.04863024 0.049459733 0.0166513 -0.0333652 -0.09096085
-0.008478401 0.00063404016 -0.094828814 -0.03243616 -0.06565366 -0.045951836 -0.053380843 -0.113696195
0.09560993 -0.051642988 -0.021897646 -0.05945828 -0.03662447 -0.00704286 -0.046952523 -0.06685664
-0.059417054 -0.035251345 0.06988214 -0.029350802 0.09620911 0.11216687 0.058120575 -0.041929647
0.06936237 -0.048939105 0.024698656 0.055228423 0.076738715 0.035454266 -0.021742115 -0.0030445424
-0.03254196 0.024842197 0.045243908 -0.02293492 0.03176604 0.11533106 -0.0101729 -0.009679793
-0.002417426 -0.022605117 -0.053098865 0.017098175 -0.073289715 -0.08059852 -0.023710089 -0.03410159
-0.06327431 -0.09366449 -0.027416836 -0.064558595 -0.07687001 0.061244983 -0.0066257226 -0.0065015852
0.02803534 -0.020747676 0.043000266 0.026067019 0.0044778655 0.012254911 -0.06284267 -0.06419525
-0.0533001 -0.023964826 -0.007307328 -0.03482682 -0.08328164 0.05841965 0.0070923204 -0.09727437
-0.1670638 -0.0659391 -0.07780982 -0.08023407 -0.03360326 0.036539186 -0.02385118 -0.027953234
-0.023151403 0.008540884 -0.09427407 -0.061576556 0.006965738 -0.051375885 -0.09657799 -0.11811244
-0.09237771 -0.033578362 -0.03184291 -0.00031934638 -0.012306432 -0.019743962 -0.05098334 -0.07629901
-0.010437036 0.03999302 0.019347142 -0.019634115 0.058478024 0.045731757 -0.044834528 -0.020353738
0.012343642 0.031147983 -0.020421486 0.020373259 -0.01389441 -0.02654589 0.018735426 -0.016031083
-0.020375893 -0.026402755 0.017333588 -0.015963357 0.07855558 0.033697106 0.071519025 -0.04283714
0.04051374 0.084910385 0.012629261 -0.031039964 0.00030357804 0.024200289 0.048456375 -0.012030359
-0.07015387 0.002739718 -0.03169831 -0.028781557 -0.048391525 -0.012248823 0.0045429054 -0.08505896
-0.0021847805 -0.089747734 0.006779241 0.050753992 0.015210923 -0.014863374 0.0010481263 -0.04631646
-0.04704567 -0.0036681092 -0.08137862 0.00045005517 -0.0042025885 -0.08996778 -0.030448094 0.029284813
0.024893185 0.012548145 0.018176248 -0.032491233 -0.08893448 -0.026877979 -0.035015896 0.0252233
-0.041804984 0.017462889 0.042525247 -0.021797858 0.05780606 0.04775228 0.008293249 -0.015183625
0.03082154 0.01448966 0.030524299 -0.0062270025 -0.0022902358 0.028954703 0.00055657804 0.03253632
0.1033107 0.05482243 0.13266285 0.034220416 0.003849503 0.063981436 -0.050458085 -0.026107358
-0.048281517 0.0054574446 -0.04480661 -0.006135897 -0.035592943 0.060751475 -0.007771866 -0.10996755

RepVgg_vi2.rbr_dense.bn.weight f4 [32]
00000000: ee3f 873f 5d7f 853f a2b3 8c3f 7810 8b3f
00000010: d0e0 903f 7a56 853f b587 913f 34a5 9c3f
00000020: 42d0 983f efda 8b3f 6c77 8f3f ab61 903f
00000030: 0b00 8a3f ba8e 913f bc83 853f 3d3b 883f
00000040: 7828 923f 48fc 8d3f 8e69 773f 310c 8c3f
00000050: 2ecb 803f 68e8 903f 9419 823f f71c 893f
00000060: d2c0 813f 0d92 813f 56ea 913f fa37 8d3f
00000070: 364e 933f c368 8e3f 64df 883f b233 933f
1.0566385 1.0429493 1.099232 1.0864401 1.1318607 1.0417016 1.136954 1.2237916
1.1938555 1.0926188 1.120832 1.1279806 1.0781263 1.1371682 1.0430827 1.0643078
1.14186 1.1092615 0.9664544 1.094122 1.0062006 1.1320925 1.0164056 1.0711964
1.0136969 1.0122696 1.1399639 1.1032708 1.1508243 1.1125721 1.0693173 1.1500151

RepVgg_vi2.rbr_dense.bn.bias f4 [32]
00000000: 8135 1e3e fab9 87bd a667 3a3e 0181 013e
00000010: 4f1c a83d e172 083e 3140 c53d 9859 99be
00000020: d6b8 213e 9326 1b3e ae1e 4b3d 7ae9 2f3e
00000030: e6e9 0cbe f654 9fbd b1c8 93bd 2c96 50be
00000040: 9bcd 6dbd 8a26 173e c827 e63b 67f8 d53b
00000050: 5695 233d 035e 7f3c 5654 a4bc 4f92 b93d
00000060: 2b80 563e 5afc 163d 83dd af3c c82b 873d
00000070: ff8b cebd 7bb5 7cbe 0351 9cb8 17a2 a8be
0.15450098 -0.06627269 0.18203601 0.12646867 0.082085244 0.13325073 0.09631384 -0.29951167
0.15793166 0.15151434 0.049589805 0.17178908 -0.137611 -0.07779877 -0.07216013 -0.20369786
-0.05805741 0.14760795 0.0070237853 0.006529856 0.03993734 0.015586379 -0.020059746 0.09061109
0.2094733 0.036861755 0.02146793 0.066001475 -0.10085296 -0.24678604 -7.453749e-05 -0.32936165

RepVgg_vi2.rbr_dense.bn.running_mean f4 [32]
00000000: b1f3 05c0 c08a 9abe 68c7 37be e5f4 20bd
00000010: 3533 083f cfbe a8be 73a4 7fbe 0ba4 5abe
00000020: 40d3 dabe 66d7 fdbf 85ca 073e 1d2e acbf
00000030: 2f30 b23e 7f59 af3f ea91 cc3e d8a3 2b40
00000040: 2685 af3f ae19 f7be d0b4 d5bf deb3 593e
00000050: 7062 853e 6cb4 60be 2905 463e e6af c1be
00000060: 843f a1bf ec56 fabe 38ab c73d 4126 d43e
00000070: 71f4 543e d48b 563f 5791 b03e 00ab 72be
-2.0929987 -0.30183983 -0.17947161 -0.03929605 0.53203136 -0.32958075 -0.24965076 -0.2135164
-0.42739296 -1.9831359 0.13260849 -1.3451573 0.34802386 1.3699187 0.39955074 2.6818752
1.3712509 -0.4826178 -1.6695805 0.2126002 0.26051664 -0.21943825 0.19337906 -0.37829512
-1.2597508 -0.4889444 0.09749454 0.41435435 0.20796372 0.8380711 0.34485886 -0.23698044

RepVgg_vi2.rbr_dense.bn.running_var f4 [32]
00000000: 928f b640 d257 c43f 8149 293f 13c8 df3f
00000010: 88bb 893e 5c9a e23d 2299 3e40 da95 103d
00000020: 2024 d43e 70a0 fb3f 1279 753e 2b73 a23f
00000030: a54f f03e d8aa 103f fb8c 603e ab4d 4440
00000040: 3b02 283f 6e7d 803e 3b4e 0640 5f52 023e
00000050: b77d 5e3e 278e 773e 33de 3f3f a70d 163f
00000060: c1bf 9a3f 0dbd 8e3f ed79 3b3e 3ad8 7b3e
00000070: 2658 a93d 346b a33e 53ae 013e 08ce 983d
5.7050257 1.5339301 0.66127783 1.7482933 0.26900887 0.11064598 2.9780965 0.03529916
0.4143381 1.9658337 0.23971966 1.2691396 0.46935764 0.56510687 0.2192878 3.0672405
0.65628403 0.25095695 2.0985248 0.12726735 0.21727644 0.2417532 0.74948424 0.5861458
1.2089769 1.1151444 0.1830823 0.24594203 0.08268766 0.31917727 0.12664156 0.07461172

RepVgg_vi2.rbr_1x1.conv.weight f4 [32, 32, 1, 1]
00000000: 0d0d e23d 60ef 5fbe 5f6d 50be ceb6 293d
00000010: 2b64 1dbe c990 df3d 75a4 b73b 34b7 1d3d
00000020: afc8 473d 1063 a1bd c698 923d d8bd 4a3d
00000030: df7e 92be 3069 c2bd 92a4 53bd 7ffe b8bd
00000040: c632 b63d 89b3 1fbd 1d43 ffbd ddd9 1c3e
00000050: 4777 28be ca3c c03d 0765 59be 7be3 d7bd
00000060: 15a2 b73d 7eb4 91bd ed2c 68bd 8b07 8f3d
00000070: af35 3cbe 2537 123e 7c85 17be 1293 1cbe
00000080: eca2 b2bd c52e f0bd 4c51 963d ee0a b3bd
00000090: 2390 7abd 8d2a 91bc f71f 543d 0fbd 323d
000000a0: f4b5 c3bd eb5d 5b3e 8952 4a3d 8478 f93c
000000b0: c5a0 f93d dcf1 a83c a426 123d 386f 213e
000000c0: c084 bc3c e5b6 13bd 4426 0e3e 3a56 1dbd
000000d0: 3c97 173e 51dc 0e3e 4070 1c3e ad2c fa3d
000000e0: 9a5e f6bb 567c 143e 6afb 82bd ebe7 973d
000000f0: 8dd7 8cbd 43e2 a8bd 1257 1d3e 79aa bdbd
00000100: 08d1 99bd 3310 54bd a97d 9abd a467 e83d
00000110: 84c4 33bd def0 8ebd c436 033d c155 1d3e
00000120: 64dc 7fbd 1c8b 023d 0d00 14be ca77 c63d
00000130: 37a2 0b3b 0616 ab3d 50d4 da3c d694 82bd
00000140: fb0a 27be ebb9 27be 7c89 103e f11e b1bd
00000150: 218c dabd 0b03 243e 4bb3 b63d ae04 0b3e
00000160: e605 3bbe 8a4c d93d 1b6b 03be 3983 44bd
00000170: 9124 aebd da04 ebbd 2dee 89bd d196 5c3d
00000180: 1e8d eabd 345d 86bd 47fa 513d fc59 15be
00000190: 3c59 813d 36a4 ecbc a72c 5ebe 0915 7b3d
000001a0: 65a7 743a d001 f5bc e5c1 46bd 3e8f a4bc
000001b0: 86ea c7bd cdce 98bd cfc3 1e3c 23ba b7bd
000001c0: 3db0 4fbc e8f8 2a3c 68b1 95bd ce2e 803c
000001d0: b061 83bd c983 c43d 80e7 9fbd b734 e33d
000001e0: c61c 38be 829f 4dbd a435 ee3d abff 9f3d
000001f0: 09bb 933d 37f0 14be 3db4 53bd b6c3 9a3d
00000200: 2c46 94bd a935 0fbe d4e3 31be 80c6 c6bc
00000210: d333 52bd 06eb 26bd d024 d03c 8f11 9bbc
00000220: 158e d53d cb75 bebd be48 19be 9f68 163d
00000230: 1173 c03d 040e acbd 9c67 08bd 7675 74bc
00000240: b828 0ebe edac 3abc 48ba 52be 81ad 7a3d
00000250: 954c 35be b7ea cf3d 6145 c03d d331 193e
00000260: d4ad f83d efe3 2bbe 5b14 19be 3a57 0cbe
00000270: 4b04 8fbd ce2e 31be 8eeb c03d 0c8b 493d
00000280: 4e6f d83d ce6c 053e 27d4 56be 64a2 283e
00000290: db10 40bd 370e c63d 8e98 d6bd 1ec4 d5bd
000002a0: c28b bb3d fb5b b03d 8a9e e3bd cfca 243b
000002b0: bd0d cbbd a660 9cbd 2bde 0fbc ec8a c0bd
000002c0: 1a0e 90bd 6e4f 2abe 5cf7 80bc 8506 92bd
000002d0: a672 bb3c e7e8 463e 4d72 a03d 8e1a aabd
000002e0: a0c7 aabc a809 5c3e c1a1 20be 146f 173e
000002f0: b520 f9bd bc51 9e3d a504 e3bd bd94 69bc
00000300: 1f6d f1bd 36c3 783d 6ba8 e33d d1c8 82bd
00000310: dae5 923d d018 333d 72e2 bc3a 669f f73d
00000320: eafc 4e3d 37bc 2cbe aa0c 82bd ebd3 e53d
00000330: 8fc3 8c3b 9fc7 4fbe 976f be3a 07db 063e
00000340: 7717 b13d 3ad5 a0bd 19e1 6abd fb44 bc3d
00000350: 2e10 e33d 4f3d 393d 457a ee3d 61f5 213e
00000360: 14a2 d43d becd c7bd d75d 15bc 0d79 32be
00000370: 38ec 053d 2a89 39bd 5934 ad3c e27d f83c
00000380: c6e1 bfbd c87a fd3d bf41 f8bb 24f8 05be
00000390: 28d3 77bd 577a 7fbc f859 5b3d ccb7 46bd
000003a0: 9fcf 313d 6f51 4d3d 6859 49be 7083 9ebd
000003b0: f796 423e 8177 45bd 744d febd ee65 943d
000003c0: 1798 333e 65db 09be 8655 88bc d05e 193e
000003d0: 17e9 253e 1cba 1b3e 2049 1fbd 7d93 00bd
000003e0: 3a77 da3d f8d8 053d fabb 60be 2f6b d0bd
000003f0: 55ac e23d c559 8ebd babf 1ebe 7a85 923d
0.110376455 -0.21868658 -0.20354222 0.0414341 -0.15370242 0.109162875 0.0056043216 0.038504794
0.04877537 -0.07880223 0.071580455 0.049497455 -0.2861242 -0.09492719 -0.05167062 -0.09032916
0.08896403 -0.038989577 -0.12463973 0.15317483 -0.1645175 0.093865946 -0.21229945 -0.10541435
0.089664616 -0.07114504 -0.05668347 0.069838606 -0.18379854 0.14278848 -0.14797014 -0.15290478
-0.08722481 -0.117276706 0.07339725 -0.08742319 -0.061172616 -0.017720485 0.051788297 0.04363733
-0.09556189 0.21422546 0.049395118 0.030452974 0.121888675 0.02062314 0.03568138 0.15765083
0.023012519 -0.036063094 0.13881785 -0.03841231 0.14803785 0.13951232 0.15277195 0.122155525
-0.0075186016 0.14500555 -0.0639561 0.07417282 -0.068770505 -0.08246281 0.15365246 -0.09261031
-0.07510573 -0.05177326 -0.07543499 0.11347893 -0.043888584 -0.069795355 0.03203465 0.15364744
-0.06246604 0.031870946 -0.14453144 0.09690817 0.0021306404 0.0835381 0.026712567 -0.063760445
-0.16312782 -0.16379516 0.14114946 -0.0864848 -0.10671259 0.16016786 0.08920916 0.13576004
-0.18263969 0.10610302 -0.12833826 -0.047976706 -0.08503068 -0.11475535 -0.067348816 0.053854767
-0.11452697 -0.06560746 0.051264074 -0.14585108 0.06315848 -0.028886896 -0.21696721 0.061299358
0.0009332805 -0.02990809 -0.048524756 -0.020087834 -0.09761529 -0.07461319 0.009690239 -0.0897105
-0.012676296 0.01043532 -0.07309228 0.015647318 -0.06415117 0.095954485 -0.07807827 0.11094039
-0.17979726 -0.050200947 0.11631325 0.07812437 0.072134085 -0.1454476 -0.05168556 0.0755686
-0.07239947 -0.13985313 -0.17372066 -0.024264574 -0.051318955 -0.04075148 0.025408179 -0.018929271
0.104274906 -0.09299811 -0.14969155 0.03672087 0.09396947 -0.08401111 -0.033301935 -0.014920583
-0.1388272 -0.011393768 -0.20578873 0.061200622 -0.17704995 0.1015219 0.09388233 0.14960413
0.1214253 -0.16786169 -0.14949171 -0.1370515 -0.06983241 -0.17303011 0.094199285 0.04920487
0.10568105 0.13029787 -0.20979367 0.16468197 -0.046891075 0.0967068 -0.10478316 -0.10437797
0.09157516 0.08611294 -0.11114223 0.0025145297 -0.0991473 -0.07635622 -0.008780996 -0.09401497
-0.0703394 -0.16631863 -0.01574295 -0.0713015 0.022881817 0.19424783 0.07834301 -0.08305846
-0.020847142 0.21488059 -0.15686704 0.14788467 -0.121644415 0.07730433 -0.1108487 -0.014256653
-0.11788391 0.060733043 0.111161076 -0.06385959 0.07172747 0.043724835 0.0014410748 0.1209095
0.050534166 -0.16868673 -0.06350072 0.11222061 0.0042957733 -0.20290993 0.0014529106 0.1316949
0.08647054 -0.0785317 -0.057343576 0.091928445 0.110870704 0.045224484 0.11644415 0.15816261
0.103824764 -0.09756039 -0.009116611 -0.1742899 0.03269598 -0.045296825 0.021143125 0.030333463
-0.09369235 0.12376934 -0.007576197 -0.1308294 -0.06050411 -0.015593133 0.053552598 -0.048515126
0.043410894 0.05012649 -0.19663012 -0.077399135 0.19002901 -0.04820967 -0.12417117 0.07246004
0.17538486 -0.13462599 -0.016642343 0.14977574 0.16202198 0.15207714 -0.038888097 -0.031390656
0.10667272 0.03267762 -0.21946707 -0.10176694 0.11068026 -0.06950716 -0.15502825 0.07154365

RepVgg_vi2.rbr_1x1.bn.weight f4 [32]
00000000: 2292 863f df8a 833f 8ebe 853f f4fc 793f
00000010: 4dab 603f 3197 863f e8d3 8c3f 2a9e 6e3f
00000020: 0e95 873f 6580 853f 715e 673f f0a1 833f
00000030: f419 7e3f 72a1 863f 2862 823f a7c1 803f
00000040: fcf0 833f 9131 863f db2a 803f 7b78 733f
00000050: c46c 823f f07b 683f 24a2 7c3f 252f 883f
00000060: ca0b 7f3f c1b8 7a3f baec 663f 6a10 7c3f
00000070: 3099 6d3f ddff 833f b1e7 883f 900c 723f
1.0513346 1.0276755 1.0448778 0.976516 0.87761384 1.051489 1.1002169 0.9321009
1.0592363 1.0429808 0.9037848 1.0283794 0.9925835 1.0518019 1.0186205 1.0059098
1.0307918 1.0483876 1.0013078 0.95105714 1.0189443 0.90814114 0.98684907 1.0639387
0.99627364 0.9793816 0.90204966 0.98462546 0.9281187 1.0312458 1.0695707 0.9455042

RepVgg_vi2.rbr_1x1.bn.bias f4 [32]
00000000: 8135 1e3e fab9 87bd a667 3a3e 0181 013e
00000010: 4f1c a83d e172 083e 3140 c53d 9859 99be
00000020: d6b8 213e 9326 1b3e ae1e 4b3d 7ae9 2f3e
00000030: e6e9 0cbe f654 9fbd b1c8 93bd 2c96 50be
00000040: 9bcd 6dbd 8a26 173e c827 e63b 67f8 d53b
00000050: 5695 233d 035e 7f3c 5654 a4bc 4f92 b93d
00000060: 2b80 563e 5afc 163d 83dd af3c c82b 873d
00000070: ff8b cebd 7bb5 7cbe 0351 9cb8 17a2 a8be
0.15450098 -0.06627269 0.18203601 0.12646867 0.082085244 0.13325073 0.09631384 -0.29951167
0.15793166 0.15151434 0.049589805 0.17178908 -0.137611 -0.07779877 -0.07216013 -0.20369786
-0.05805741 0.14760795 0.0070237853 0.006529856 0.03993734 0.015586379 -0.020059746 0.09061109
0.2094733 0.036861755 0.02146793 0.066001475 -0.10085296 -0.24678604 -7.453749e-05 -0.32936165

RepVgg_vi2.rbr_1x1.bn.running_mean f4 [32]
00000000: ddb4 65bf a0e0 2d3f bdb5 87be bb4d 2dbf
00000010: 277d 34bf 8ae4 43be 3eaa 4cbb d5fe 63bd
00000020: 10a3 1fbf c669 36bf 462e 483e 6529 acbe
00000030: fa6d 053f 7725 f8bd 3d88 73be a752 e53e
00000040: a18d a53d e5d6 ebbe 15fd 803e 7218 bcbe
00000050: 006d 5abd 022d c33e 5aaa ac3d 986c 30bf
00000060: ef7f 67bf 19c7 b5be 76dc 83be d310 e8be
00000070: c917 113e 271d 393f 9d5e e33d c956 023f
-0.897291 0.67920876 -0.26505843 -0.6769673 -0.7050347 -0.1913015 -0.0031229402 -0.05566295
-0.6235819 -0.7125515 0.19548902 -0.33625332 0.52120936 -0.12116521 -0.2378244 0.4478962
0.08083654 -0.4606239 0.25193086 -0.367374 -0.053326607 0.38120276 0.084309295 -0.689157
-0.90429586 -0.35503462 -0.25754136 -0.45325336 0.1416923 0.7231011 0.111020304 0.50913674

RepVgg_vi2.rbr_1x1.bn.running_var f4 [32]
00000000: 18b8 993f 611c 4b3e 8978 dc3e 84d1 0d3f
00000010: e592 d13e d19e 513f b46d 913f 60fe 7b3e
00000020: e88b 693e 0713 c03e ae79 033e ff21 4e3e
00000030: 2c75 9d3e 1bad 8c3f aca3 4e3f d7c7 573e
00000040: 5212 bd3e 15c3 093f f7df 853f a212 8c3e
00000050: 499e 483f f326 423e f004 653f 10f9 5c3f
00000060: 26ce d53e 0293 273f 3646 be3e e731 013e
00000070: 2e0b 203f a19d 713e bf98 e93e 9305 4d3e
1.2009306 0.19835044 0.4306071 0.5539782 0.40932384 0.8188296 1.1361604 0.24608755
0.22807276 0.37514517 0.12839386 0.20130156 0.30753458 1.0990328 0.80718493 0.21072327
0.3692804 0.53813297 1.0458974 0.27357966 0.78366524 0.1896017 0.8946066 0.8631754
0.4175884 0.6545869 0.37162942 0.12616692 0.6251706 0.23595287 0.4562435 0.20021658

conv_ir.conv2d.weight f4 [16, 1, 3, 3]
00000000: dbc6 7e3e a00a be3d ee81 803d b6cb b13d
00000010: bcbc 5e3d 20b6 49be 0f40 dabd 1fa1 193c
00000020: 66e6 393e b467 63be 6354 33be 7a7c 073e
00000030: f304 04be b881 883e b54d e13d e8ae 3f3e
00000040: 7406 1ebe 1a69 ca3d b1ed 0bbe fd21 453e
00000050: e8e2 6b3e 897f c43d 9a3f 12be 19b6 32be
00000060: b54f b4bd bfb0 c53d 5f0f 433d cb11 4e3e
00000070: 1c61 163c 9409 16be 4ac2 8abe 745f 1bbe
00000080: 57b2 6f3e 1dd1 04be 5e3a 00be f020 aa3e
00000090: 3c59 15bc c0ec 133d e963 cf3d 2e28 063d
000000a0: fa12 7abe 814f 96bd 3a53 f53d 80bc eb3c
000000b0: 95db 9f3e b66c 7a3b bfc6 b73c d4c9 2ebe
000000c0: 2232 12be 0b74 863e 10cb 8e3d fe47 f0be
000000d0: 2a3f e7be 8f8c f1be 067f 003e 758c 2fbe
000000e0: 5c4a 8cbe 8feb b53e 563a 213c cad2 9f3e
000000f0: 4b73 21be 2e67 ecbc 40b6 a6be 75a3 90be
00000100: 66f1 65be a41b 873d 246e 9bbe 0cfa 88bc
00000110: 6357 383e dc40 2fbd 806c 063e 62b7 373c
00000120: b5ce 24be aba6 a0be cbe2 0a3d 7f30 f33d
00000130: 30e0 a3bd 3957 38be f761 5c3e 53e4 183e
00000140: d546 1d3b a0b3 0c3e 14cd a53e 070b 04be
00000150: e1ed 28be 9763 07be 79ef d2be 7a63 d63d
00000160: f55d 513e 9d6b b9be 9fe5 ac3e dc3f d5bd
00000170: bd66 a5be cec0 2cbe 9256 e3bd b743 27be
00000180: d3bd cf3e e68b 3bbe 1baa 30be c08f 10bd
00000190: 0895 59bd 3c45 60bd f71d 0c3e 289a abbd
000001a0: 5e94 81be fbb5 1c3e 2859 0f3e 8504 2f3e
000001b0: de55 833e 1f02 a6be a209 50be 0614 363e
000001c0: 579b 9d3e e1fe f5bd d5a9 94be 059a 893e
000001d0: ee00 68be 938c 10bd c648 6cbe 3083 543e
000001e0: bc9e a43c fe91 a63d c03c 30be 6d2d d23d
000001f0: 6bab 8b3e 08ba 173e c7bc 83be baa9 083e
00000200: 1f98 3b3d 74d6 883e 1f0f 853e df86 763e
00000210: 9ffa 11bd 8864 683e 7c95 77bd f1eb cebd
00000220: da93 57be 4eb0 303e 74fb d23d 47ba 103b
00000230: 03e0 613e 6e39 9f3e d486 01be 37f0 33be
0.24880545 0.0927937 0.06274782 0.08681433 0.05437921 -0.19698381 -0.106567495 0.009376793
0.18154296 -0.22207528 -0.1751266 0.13231078 -0.12892513 0.26661468 0.110011496 0.18719065
-0.15432149 0.09883328 -0.13664891 0.19251247 0.23035777 0.09594638 -0.14282075 -0.17452277
-0.088042654 0.09652852 0.04762208 0.20123975 0.009178426 -0.14652091 -0.27101356 -0.15173131
0.23407875 -0.12970395 -0.12522265 0.33228254 -0.009115513 0.036114454 0.10126478 0.032753162
-0.24421301 -0.07339383 0.11978765 0.028776407 0.31222215 0.003821177 0.022433637 -0.17069179
-0.14276937 0.2626041 0.06972325 -0.46929926 -0.45165378 -0.4717755 0.12548456 -0.17143424
-0.27400482 0.3553128 0.0098405685 0.31215507 -0.15766637 -0.028857794 -0.3256092 -0.28249708
-0.22455367 0.06597069 -0.30357468 -0.016720794 0.18002085 -0.042786464 0.13127327 0.011213155
-0.16094477 -0.31377158 0.033907693 0.11874484 -0.08001745 -0.18002023 0.21521746 0.14930849
0.0023998518 0.13740396 0.32383025 -0.12894832 -0.16496994 -0.13221584 -0.41198328 0.104681924
0.20445998 -0.36214915 0.33768937 -0.10412571 -0.32304946 -0.16870424 -0.11100496 -0.16334425
0.40574512 -0.18315086 -0.1725239 -0.03529334 -0.053120643 -0.054753527 0.13683306 -0.08379012
-0.25308508 0.15303795 0.13998854 0.17091568 0.2565145 -0.32423493 -0.20316175 0.17781076
0.30782577 -0.12011505 -0.29035822 0.2687532 -0.22656605 -0.035290312 -0.23074636 0.20753169
0.020095222 0.081333145 -0.17210674 0.102625705 0.2727922 0.14817059 -0.25729963 0.13345996
0.04579937 0.26726115 0.259881 0.24074887 -0.0356394 0.226946 -0.060445294 -0.10103596
-0.21052495 0.17254755 0.10301867 0.0022083686 0.2205811 0.31098503 -0.12649089 -0.17572103

conv_ir.conv2d.bias f4 [16]
00000000: 7a33 6c3e 8920 1a3f ce66 833e a176 f03e
00000010: 132f 003e 3bc4 ef3e 228a bdba 36af 113f
00000020: b130 3e3e f29f 0e3f d931 42be 966f 2d3f
00000030: 591d ac3d ed8b 94bd cf43 13be 03a9 8d3a
0.23066512 0.60205895 0.2566437 0.46965507 0.12517957 0.468294 -0.0014460722 0.56907976
0.18573262 0.5571281 -0.18964328 0.6774839 0.08404035 -0.07253251 -0.14381336 0.0010807816
