models/Final_epoch_1_alpha_10000_wir_6.0_wvi_3.0.model (torch, 277122 bytes, 76 tensors)

conv_vi.conv2d.weight f4 [16, 1, 3, 3]
00000000: c93c aebd 466a 283e 8f2a 933c ace2 c73d
00000010: fd08 a63e d2e6 c3bd e35e 06bf 1fec 98be
00000020: ea42 b4be 1414 433d bafe 9bbe 6d60 0abe
00000030: b866 bb3d 6af4 e3bc bed7 683e 8840 893e
00000040: 3a7e 903e bb60 fd3c e9e1 d43d e3d9 b83d
00000050: c660 62be a7c5 fb3c cf2c 2a3e b328 f33c
00000060: b45a e2bb bb61 03be fd5a 4b3d 18c3 a4be
00000070: aa0d c0bc 310e 533e 9419 3b3e b244 1b3e
00000080: 9a6d 05bd 672b 223e 484e 44be 41ab db3c
00000090: 0358 fcbd a475 19be 07fb 503d a2ef cebc
000000a0: df0e a13e 8dd5 353d c60c 17bc 43de 593e
000000b0: 3a94 813e 6c01 e2bd 9aa0 c73d 5efd a23d
000000c0: 6591 a03e cee0 103e 44a3 e6bd 2e1b ffbd
000000d0: ebe3 abbd 3bf7 99be 6410 fc3d c4de 1abe
000000e0: 0a40 393d 1e80 603d ae98 1bbd 288c 6ebe
000000f0: 8e4f 343e 039f 24be 13b3 9f3e c30a 893e
00000100: 4293 4dbe 7e5f 9fbe 37bc 003d cbb6 93be
00000110: a575 bb3d ee1e 263e 0e93 88bd 95b7 9d3e
00000120: 5f8d 18be 74b2 e4bc 1ce2 c83e 6ce3 0cbd
00000130: 87bc 523e a223 51be 1e2d 37be a8fe 98be
00000140: 7296 f83c 1824 063d c8ba 32be add4 533e
00000150: 1d01 96be 24cb 5e3e 84d4 8d3e ebb3 b83d
00000160: 078b 173e 1ca2 4a3e 7a47 90be 80a3 943d
00000170: 0802 91be 47ab 75be 92cb 793e 9c0d 903e
00000180: 836d 043e 033a 3c3e 0df7 963e 4142 e53d
00000190: 367a cbbc 25c3 473e 68c2 263d 951c 9abe
000001a0: 34c7 a93e 7dbd 01be 0944 7ebe 0266 edbd
000001b0: c0b3 6ebd f702 31bd a5b5 6c3e 3bc2 643d
000001c0: a646 8f3d 1b2d d03c c2ea 43be f542 3abb
000001d0: 51fa 69be aeb6 e53c 2e42 8f3e 80f1 9f3e
000001e0: 574d 583e 0c71 2f3d 5a73 25be 9ca1 f23d
000001f0: 9163 80bd b249 d7bd 94ac 73be e7e4 f73c
00000200: f23f 9f3e 52e1 c9bd d6d8 f93d 183b 1b3d
00000210: 5177 4fbe 9df2 8e3e 666e ee3d 854d 14bc
00000220: 361a d6bd ebe9 b73e 6e05 aebe d630 f3bd
00000230: 211e 483e d2ff 30be 1774 cdbd 1cad 61bd
-0.085076876 0.1644679 0.01796463 0.09760031 0.32428733 -0.0956551 -0.52488536 -0.29867646
-0.352073 0.04762657 -0.30467778 -0.13513346 0.091504514 -0.027826507 0.22738549 0.26807046
0.28221303 0.030929914 0.103946514 0.090259336 -0.22107229 0.030733896 0.16618656 0.029682493
-0.0069077853 -0.1283025 0.04964732 -0.32180095 -0.023444016 0.20610882 0.18271476 0.15162924
-0.032575227 0.15836869 -0.19170487 0.026815059 -0.123214744 -0.14986283 0.05102065 -0.02526075
0.31456658 0.04439311 -0.009219354 0.21276192 0.253084 -0.110354275 0.09747429 0.07958482
0.31360927 0.14148256 -0.11261609 -0.12456356 -0.08393081 -0.30071434 0.12307814 -0.15124041
0.045227088 0.054809682 -0.037987404 -0.23295653 0.17608473 -0.16076283 0.3119131 0.26766023
-0.20075706 -0.31127542 0.031429496 -0.28850397 0.09153298 0.16222736 -0.066686735 0.30804124
-0.14897679 -0.027917124 0.39235008 -0.034396574 0.2057973 -0.20423749 -0.17888305 -0.29881787
0.030345175 0.032749265 -0.17454064 0.20686598 -0.29297724 0.2175718 0.277012 0.09018692
0.14799128 0.19788402 -0.28179532 0.07257748 -0.28321862 -0.23991118 0.24394062 0.28135383
0.129324 0.18381505 0.2948536 0.111942776 -0.024838548 0.19508035 0.040712744 -0.3009993
0.33159792 -0.1266994 -0.24830641 -0.11591722 -0.05827689 -0.043215718 0.23116167 0.055849295
0.06995897 0.025412133 -0.19132522 -0.0028421257 -0.22849394 0.02804121 0.2798018 0.31238937
0.21123253 0.04283242 -0.16157284 0.11847231 -0.06268991 -0.10512103 -0.23796302 0.030260516
0.31103474 -0.098574296 0.12199561 0.037898153 -0.2026036 0.27919474 0.116421506 -0.009051685
-0.10454218 0.35920653 -0.33988518 -0.11874549 0.19542743 -0.17285088 -0.10031908 -0.05509673

conv_vi.conv2d.bias f4 [16]
00000000: 25c3 643e dcb4 763e 8ec7 193d e762 d33d
00000010: 5085 873d dd5d ebbd ea50 bf3e 71a1 fbbe
00000020: 120f 9d3d 80d9 debe eab5 453d 27af c8be
00000030: 7dd7 a3bb 5c9c 4c3e 981d c23e c36c 223e
0.22340067 0.2409243 0.037543826 0.103215985 0.06617224 -0.114925124 0.3736642 -0.49146608
0.0766889 -0.43525314 0.04826919 -0.3919613 -0.0050000534 0.19981521 0.37913203 0.15861802

RepVgg_vi1.rbr_dense.conv.weight f4 [32, 16, 3, 3]
00000000: 0def c93d 2f33 d83d fc78 de3c 01f0 b4bd
00000010: 6cdc babd f5c8 37be f4b0 4b3d bdae 133e
00000020: b872 193e a60e c13d 4e86 7e3c bbe1 a8bd
00000030: 7363 5f3c 5725 77bb b3e7 90bd 8f0a 8cbb
00000040: 730d 193d 860f 82bd 1848 c63d ffd1 7abd
00000050: 1290 27bd f5ee b23d d2dd f3ba 73e6 48bd
00000060: fedd 133d 9dbc 86bd 1a9d ea3c 17ee adbd
00000070: bd48 5ebd 3845 c9bd 7fa5 3c3d cb8b fe3c
00000080: be7d 18bd db23 983d 81fb 5439 3fb1 c13b
00000090: cf63 523d 44f0 8b3d 36d2 c73b 2ca7 84bd
000000a0: 20c8 2fbd 3c99 45bc ae71 3dbd 51d0 1abd
000000b0: a6ee aabd 27f6 203e 902a 2f3e 4dad 9dba
000000c0: 853a eb3d 7a78 9fbc abd0 46be 3706 66bd
000000d0: 7fd5 aabd 901f f9bd ba74 0939 4a18 d53c
000000e0: 7602 16bc 7a94 8ebd 0a7e 3ebc c4ec 8b3d
000000f0: 514e 723b 9505 3ebc 4042 b9bc 5936 163e
00000100: bad5 3abb fcd4 06bd a2ac 8bbc 5515 3abd
00000110: 42e0 e1bb 1f59 18bd fb4d 6abd 3526 84bd
00000120: d930 b33d f657 173d 9c7d b73d 6d4d e1bb
00000130: 2340 f5bc bd78 56be c136 833d 8909 163d
00000140: 5b3c 78be 8f9e 623d 6c77 03bd 11cb ec3b
00000150: bef4 19bd d2a5 843c 95b6 913d 53d8 8d3a
00000160: f759 9b3d 104b aebb 0fde 4fbd c64f 943c
00000170: 68f4 1fbd c7c9 973d f4db e33d 4276 79bc
00000180: 939e d0bb e352 dfbc 77f3 8b3c 127e 80bc
00000190: 4a42 773d bd37 c53d aee4 2c3d a497 263d
000001a0: e714 43bc f1e7 603c 87c3 8cbd ccd7 843c
000001b0: 5ffc f83d 9d8b 213e 7e94 c73d 7f19 033c
000001c0: c959 4abe 5c73 79be 23dd 0b3e 3fa0 ba3d
000001d0: a8a8 acbc 1236 533d d4f5 b03d 04be 56bc
000001e0: 1d68 35bd 19f4 e9bc f3ed 3f3d c103 423d
000001f0: dc17 7a3d f68d bebd 8527 583d 96e9 5fbc
00000200: 3c48 c8bc f317 cd3d 5d7e 073c f3c4 f83c
00000210: 8d40 1b3c 12cd 8d3d 7533 183d f7ac 29be
00000220: c349 4d3d bac5 203e 16a4 cbbd 14dd e1bd
00000230: d5c4 cc3c 79eb a53d 27e9 b83d fc3a d5bd
00000240: 3210 b1bc e3bf ab3c 9438 b53d e0a5 873e
00000250: 06f8 a43d c69b 253e 3c7b 383e 13db 133e
00000260: 055a 023e 7763 493d 14e7 70bd f94b 24be
00000270: 4043 863d b2c4 6ebc d129 b0bd 03ec 38ba
00000280: a628 3f3d 18a5 b03c f15e cd3d d634 083d
00000290: b4f7 7a3a efc4 7abd 26c4 23bd afe2 9abd
000002a0: 3c38 57bd 5f87 653d ae66 5fbd 5178 673d
000002b0: 49d2 163d 3383 113d bfc8 0a3d b728 80bb
000002c0: f31a c7bd b3b1 9cbd dc91 ed3b 12f8 b3bc
000002d0: 6abb 32bc 7515 88bd 210d cfbd 8f34 4a3d
000002e0: 0732 583b f87f 763c 9a47 103d e32a 84bc
000002f0: 2529 623a 4e06 453d ae5f 0d3e e3f1 b13d
00000300: 227f e03c 5613 3ebc 8101 37bc 7338 d5bb
00000310: 9cb5 bd3d 71dc 9a3d 1149 6ebd b641 0e3d
00000320: 53c0 ce3c aa6e b43d 0a20 963d d995 b4bd
00000330: 64d5 2d3c b949 db3d 2b29 ffbc 58f8 1cbd
00000340: fa7c 77bd f445 b03d 5221 1a3d 9073 413d
00000350: bc1e d33d b524 893c 7be2 113c ed6c a0bb
00000360: 1579 ae3b 737d a83d ac0c ecbc 2e7d bfbd
00000370: a01c b1bd 265d 0ebe c186 afbd 7b69 d0bd
00000380: b49d c7bc 25d3 e63c 488c a73d 6708 eb3b
00000390: e0cf 423d 2d1e d23c 7fc8 2abc 1692 82bd
000003a0: df31 5cbd b8b1 423d 7455 91bd 51cf e63c
000003b0: 6f2f ffbc d37e c53c 3d49 1d3d 73ee 69bd
000003c0: c96c 383d 5211 523d 7c95 93bd 7045 9f3d
000003d0: c0b9 a53d b140 0f3e 6b8c 813d 7cf7 803d
000003e0: 275d 183d 6101 06be 9c9b 1f3d bb08 b53c
000003f0: b063 18bd 1bd7 64bd 26b6 71bd c157 933d
0.098600484 0.105566375 0.0271573 -0.088348396 -0.091240734 -0.17947753 0.049729303 0.14422126
0.14985168 0.09426622 0.01553495 -0.0824618 0.01363455 -0.0037711465 -0.07075443 -0.0042737196
0.03736634 -0.06350617 0.096817195 -0.061235424 -0.04090888 0.08736984 -0.0018605536 -0.0490479
0.03610038 -0.06578944 0.028639365 -0.08492678 -0.054268587 -0.098276556 0.046056267 0.031072518
-0.037229292 0.07428714 0.00020311588 0.005911022 0.051364716 0.068329364 0.006098057 -0.06477198
-0.042915463 -0.01206046 -0.04625099 -0.037796322 -0.083463 0.157189 0.1710608 -0.0012029797
0.11485771 -0.019466627 -0.19415538 -0.05615827 -0.083415024 -0.12164223 0.00013108822 0.026012558
-0.00915586 -0.069619134 -0.01162673 0.06832269 0.003697295 -0.011598011 -0.022614598 0.1466917
-0.0028508739 -0.03291796 -0.017050091 -0.0454305 -0.0068931887 -0.037194367 -0.057203274 -0.064526
0.08749551 0.03694912 0.08959505 -0.006875685 -0.02993781 -0.20944495 0.06406928 0.036630187
-0.24241774 0.055326995 -0.03209631 0.007226356 -0.03758692 0.01619235 0.07114903 0.0010821916
0.07585519 -0.0053190067 -0.05074888 0.018104445 -0.039051443 0.07411533 0.11125937 -0.015225949
-0.00636656 -0.027261203 0.017083867 -0.015685115 0.060365953 0.09629772 0.042210273 0.04067196
-0.011906839 0.013727174 -0.068732314 0.016216181 0.12157511 0.15775914 0.097451195 0.008001684
-0.19760813 -0.24360412 0.13658576 0.09112596 -0.021076515 0.051565237 0.08640638 -0.013106827
-0.044288743 -0.028558778 0.046857785 0.04736686 0.06105791 -0.09304421 0.052772064 -0.013666531
-0.024448507 0.100143336 0.008269873 0.03036735 0.009475839 0.0692388 0.03715845 -0.16569887
0.050119173 0.15700427 -0.09943406 -0.110284954 0.0249962 0.081015535 0.09028845 -0.10411641
-0.021614168 0.020965522 0.08848682 0.2649374 0.08055119 0.16172704 0.1801576 0.14439039
0.12729652 0.049167123 -0.058814123 -0.16044606 0.06555796 -0.014573263 -0.08601726 -0.00070542115
0.046669625 0.021563098 0.10027874 0.033253513 0.0009573654 -0.061222967 -0.039981984 -0.07562768
-0.052543864 0.056037303 -0.054541282 0.056511227 0.036821637 0.035525512 0.033882853 -0.0039111036
-0.09721937 -0.07651081 0.007250054 -0.021968875 -0.010908941 -0.066447176 -0.10109926 0.04936653
0.0032988803 0.015045159 0.035224535 -0.016133731 0.0008627347 0.048101716 0.1380603 0.08688714
0.027404372 -0.01160129 -0.011169792 -0.0065069734 0.09263155 0.07561577 -0.05817515 0.034730636
0.025238192 0.0881017 0.0733033 -0.08817644 0.010609958 0.10707421 -0.03114756 -0.038322777
-0.06042192 0.086070925 0.037629433 0.04722935 0.103085965 0.016741136 0.008904095 -0.0048957975
0.0053244927 0.082270525 -0.028814636 -0.09350048 -0.08648038 -0.13902721 -0.08570624 -0.10176369
-0.02436719 0.028176853 0.081810534 0.0071726325 0.047561526 0.025649155 -0.010423779 -0.0637552
-0.0537585 0.047532767 -0.07096377 0.028175028 -0.031150548 0.024108326 0.038399924 -0.05711217
0.04502562 0.05128605 -0.07206246 0.07776916 0.080920696 0.13989522 0.06325611 0.06297204
0.037198212 -0.13086464 0.03896676 0.02209889 -0.037204444 -0.055869203 -0.0590116 0.07194472

RepVgg_vi1.rbr_dense.bn.weight f4 [32]
00000000: 9169 7b3f db76 7d3f b7f4 7a3f acbe 773f
00000010: 0703 8e3f 5d0b 833f 7857 7f3f a0d1 8a3f
00000020: 45c6 8d3f eb29 803f 6810 863f b78d 6a3f
00000030: b264 723f c5c1 7d3f 3f78 833f c82d 823f
00000040: 28dd 703f c74b 803f daf1 823f 71f7 873f
00000050: 77a0 823f 27f3 793f 823a 7b3f d3d2 903f
00000060: eea8 843f 866d 743f e5fa 753f d146 743f
00000070: b063 863f 2042 8a3f 70a7 7f3f cc99 783f
0.98207957 0.99009484 0.98029655 0.9677532 1.1094674 1.0237843 0.9974284 1.0845222
1.1076132 1.0012792 1.0473757 0.9162249 0.946849 0.99123794 1.0271071 1.0170221
0.9408746 1.0023125 1.0230057 1.0622388 1.020522 0.97636646 0.9813615 1.1314338
1.0364053 0.9547962 0.9608596 0.9542056 1.0499172 1.080143 0.99864864 0.97109675

RepVgg_vi1.rbr_dense.bn.bias f4 [32]
00000000: 87cf 373d 3248 5cbe 82d5 17bd 73cc 63bd
00000010: d2c7 233d 746b 413c 6181 80bc c1da ecbd
00000020: 0b56 653c 7431 fe3d c53f fd3b 1ff4 25be
00000030: 26ad a6be 828c 983d 2896 62bd 3ed5 ef3d
00000040: 6906 593e ed51 dcbc c783 c9bd 68b7 b3ba
00000050: 7818 713d 352c a23d 7fe1 c83d 4044 c6bc
00000060: 3582 81bd 8ca4 84bd fbac 89bd a4a0 7fbd
00000070: b16a f1bd a04d 89bd 13ce 3f3c bef8 953d
0.044875648 -0.21511915 -0.03706885 -0.0556149 0.039985485 0.011805404 -0.015686693 -0.115651615
0.013997565 0.12411776 0.007728549 -0.16206406 -0.32553977 0.07448675 -0.05531898 0.117105946
0.21193852 -0.026894534 -0.09839588 -0.0013711276 0.058861226 0.07918588 0.09808635 -0.024202466
-0.06323663 -0.06476697 -0.067224465 -0.06240906 -0.11787928 -0.06704259 0.011706847 0.073228344

RepVgg_vi1.rbr_dense.bn.running_mean f4 [32]
00000000: 85ad 9441 a43a c8c1 3aa3 d9c1 720b 8941
00000010: a625 8041 e137 98c1 32c7 bc41 db2e 6641
00000020: dd7a cfc0 289e 9341 4b6d 5641 39b5 41c1
00000030: 042d 80c1 2ee1 7f41 19b1 8fc1 04ef 9bc1
00000040: 4515 25c1 a204 9ac1 4f94 4441 961f a641
00000050: ec8f 8441 10a6 9ac1 eded c2c1 befc 78c1
00000060: 1df2 3041 7dfc fb41 f326 e641 1704 dd41
00000070: f6b0 b4c1 82b4 7941 1eb7 8fc1 ca31 a940
18.584726 -25.028633 -27.2047 17.130589 16.018383 -19.027285 23.597263 14.386439
-6.483748 18.452225 13.401683 -12.106744 -16.02198 15.9924755 -17.961473 -19.491707
-10.317693 -19.252262 12.286208 20.765423 16.570274 -19.331085 -24.366175 -15.561705
11.05911 31.498285 28.769018 27.626997 -22.586407 15.606569 -17.964413 5.287328

RepVgg_vi1.rbr_dense.bn.running_var f4 [32]
00000000: e920 1443 1b36 9343 f4f4 9943 0ed3 1243
00000010: 2898 0743 76ac 0a43 bdde 6843 7b14 dd42
00000020: aef8 1742 6152 0643 ee16 ac42 f876 b442
00000030: 78af 0643 32ee f342 3bfc f542 4a80 4d43
00000040: c792 4342 87ac 1b43 8f58 a742 fb41 3043
00000050: 7ec6 1243 5472 1843 1987 6843 3648 2043
00000060: f30f 8942 9fd2 dd43 119b ac43 fc0b db43
00000070: 524b 5643 8927 ea42 6f3e 0443 d026 8842
148.12856 294.4227 307.9137 146.82443 135.59436 138.67368 232.87007 110.54
37.99285 134.3218 86.044785 90.23236 134.68542 121.965225 122.99264 205.50113
48.893337 155.67393 83.672966 176.25774 146.77536 152.4466 232.52773 160.28207
68.53115 443.64548 345.21146 438.09363 214.29422 117.07722 132.24388 68.075806

RepVgg_vi1.rbr_1x1.conv.weight f4 [32, 16, 1, 1]
00000000: c265 a2be 6dc0 1b3e acb1 663e fbeb b4bb
00000010: b53e ddbb f299 00be 9795 92bc b1b5 723e
00000020: 2782 87be bd92 4b3d 0ee5 5dbe a313 66be
00000030: 0126 803c 130f 8a3d 83f2 013e 23fe 8dbc
00000040: 73b9 113e 6452 233e d3e3 85be 73fd e3bd
00000050: 2408 20be 97e9 8cbd 8c0c 583d bd6d 863e
00000060: beb1 14be 07f1 82be 16e5 413e e58b 1dbe
00000070: f549 0d3e 64e9 f03d f464 3abe c97a 0bbe
00000080: a7e8 d3bd 7e4d 34be a521 2bbe 184d 63bd
00000090: 4c08 d53d fa1a a73d a0ed 2c3e 80e9 373e
000000a0: e5ae 403e 19ab 18bd d901 553e a309 ee3d
000000b0: 11fc 613e 6638 7abe 1fe4 27be 8b62 1e3e
000000c0: 548b 093e cc0c 65be a8e1 e33d 1679 17be
000000d0: 61b0 173e bc5d c1bd 53ae e03d d04e 53be
000000e0: 9a91 29be 026a 3a3d c2cc 25bd e2db 043d
000000f0: a403 013d 590f 6d3e 61d1 203e 70ca fdbd
00000100: c7ba 843b 12cf d8bc 44f7 c83c cca5 123d
00000110: 0cd7 a53c 327d 543d 9b64 85bd 3348 0a3d
00000120: d123 663d 85b2 92be ab30 14be cdcf a13d
00000130: 3108 413e 2ded acbd 7d2e b9bc a7da 87be
00000140: 0e5d a23c 6bf6 663e 845d bbbd cc2a 2a3d
00000150: 360d 91bd 3480 023e 0382 123e f5bc 993d
00000160: 8d1e 403e fc97 9f3d 8458 053d 155b 083e
00000170: 679d ec3d 8d33 083d a07f bb3d 280d f9bc
00000180: f397 4d3d 1524 06be 554e 063e fab7 b93d
00000190: e1a0 52bc 816a 4fbe f1be 1a3e 4d5e fd3c
000001a0: 22e9 aabc a1bd cf3d 2686 0ebe 2c54 49bd
000001b0: a074 d5bd 1d2f 2c3e ca1e 6bbd afb2 05be
000001c0: 4d5d e23c e78e cebc 382e 123c 9403 a33c
000001d0: a800 53bd 4794 883d 4c1c 073e 7bdb 0bbd
000001e0: 53e8 fa3d 1c36 083d 86a4 7abd a194 2abe
000001f0: 5d2b 85bd 5885 30be ddf7 25be 1fe9 babb
00000200: eaab c43c 0490 59be 78b5 8d3e 0bfa 733d
00000210: 9427 143e 36c8 b9bd 26dc 1a3d b7e7 2d3e
00000220: b79e 113e 94f5 953d ef73 bebc 9e1a 5d3e
00000230: b1be 29be b18e bcbd 50b8 583e acfc 7fbe
00000240: 66a6 d93d 0f53 48be 6e8f 47be f13d 123e
00000250: e13e 803e 64e3 003e de4d b5be 1cda c5bc
00000260: 8d19 e33d 5fc6 143e b64c fbbd 7bea 523e
00000270: 4abb 15bc d21a 0bbe 5c0d 19be 0026 af3c
00000280: a891 f23d 5f24 543e 9f0b 143e 8ec4 b83d
00000290: 7da4 44bd 2be3 c83c c67a 013d 0a56 fc3d
000002a0: dfd5 15bd a9aa fdbc c140 3cbc e318 46bd
000002b0: a143 873e 4c16 e9bd 2472 1abe 7768 a73d
000002c0: 72f8 8dbb 18ed 913e ff3b 463e 9f4c efbd
000002d0: c633 9838 3fbd 2b3e df91 afbc 97b3 21be
000002e0: 0a60 f4bd 9aed 33be e9b0 863e 9f36 a63d
000002f0: 484b 2c3d 8547 f03d 27e9 2cbd 3f9d 753d
00000300: c9a3 31bd b818 1dbe 4448 38be 0b54 063e
00000310: 2d3c b2bd c5b2 0ebe 8b76 c1bc 308d 03be
00000320: 3c4d f8bd 25aa 9ebd 26d3 b9bd 88bb 973d
00000330: 25af 82bd de7f 87b7 8518 053e 21b5 9e3e
00000340: 5605 9abb 85da 26bd ef79 b1bd a434 243e
00000350: 8876 2f3e 2855 8abd 971d 203e fae4 6ebe
00000360: 5836 0bbe 231d 583e 3e51 693d 7f9b fd3c
00000370: 77a2 573e 5eb4 693e 43db cdbc ad3f 023e
00000380: afd8 00be 9458 21be bae6 3dbe 8b91 27be
00000390: a00d 81be dd21 1d3e 7b9a 553d 1091 afbd
000003a0: 0ff6 e03c 34fa 73be add4 5f3e 29f5 e4bd
000003b0: 4ce4 7dbb 375f a7bb 2dd6 c83d 461a 603c
000003c0: 3cc9 84bd 0086 153d b458 de3d 6970 023e
000003d0: 16ae 66be 1703 953d 2638 a73d ebb9 f2bd
000003e0: 8d18 e53d 9417 543e 2827 7bbd dd33 3ebd
000003f0: 6504 f8bd 2890 41be 44df 5fbd 4863 b5bd
-0.3171826 0.15210123 0.22528714 -0.005521295 -0.00675186 -0.12558725 -0.017893596 0.23702122
-0.26466486 0.049700487 -0.21669409 -0.22468428 0.015643122 0.067411564 0.12690167 -0.017333096
0.142309 0.15949398 -0.2615038 -0.11132326 -0.15628105 -0.06880491 0.05274634 0.262556
-0.14520928 -0.25574514 0.18935046 -0.15385397 0.13797744 0.11763266 -0.18202573 -0.13621058
-0.10347109 -0.17607686 -0.16712053 -0.055493444 0.10401973 0.08159442 0.16887522 0.17960167
0.18816717 -0.037272546 0.20801486 0.11622932 0.22068812 -0.24435577 -0.16395615 0.15467279
0.13432056 -0.22368163 0.11127025 -0.14792284 0.14813377 -0.094417065 0.1097075 -0.20635533
-0.16559449 0.045511253 -0.040478475 0.03243626 0.031497613 0.23150386 0.15704872 -0.123921275
0.004050586 -0.026465926 0.024531968 0.035802647 0.020244144 0.051877208 -0.065133296 0.03376026
0.0561865 -0.28651825 -0.1447169 0.07900963 0.18850781 -0.08443675 -0.022605175 -0.26534006
0.019819763 0.22554938 -0.09148696 0.04154472 -0.07082598 0.12744218 0.14307408 0.07506744
0.18761654 0.077926606 0.03255512 0.13315995 0.115534596 0.033252288 0.09155202 -0.030401781
0.05019374 -0.13099702 0.13115819 0.09068294 -0.012855739 -0.20255472 0.15111901 0.030928755
-0.02086312 0.10143591 -0.13918361 -0.04915254 -0.10422635 0.16814847 -0.05740241 -0.13056444
0.02763238 -0.025214626 0.008922152 0.019899167 -0.051514298 0.06668907 0.13194388 -0.03414486
0.122513436 0.033254728 -0.061192058 -0.1665826 -0.065024115 -0.17238367 -0.16207834 -0.0057040597
0.024007756 -0.21246344 0.27677512 0.05956463 0.14468223 -0.0907139 0.037807606 0.16982923
0.14220701 0.07322231 -0.02324864 0.21592185 -0.16576649 -0.09206904 0.2116406 -0.2499873
0.10627441 -0.19562934 -0.19488308 0.14281441 0.25047973 0.12586743 -0.3541097 -0.024151854
0.11088858 0.14528798 -0.12270491 0.2059726 -0.0091388915 -0.1358445 -0.14946502 0.021380424
0.11844188 0.20717 0.14457558 0.09021865 -0.04800843 0.024522385 0.031611226 0.12321098
-0.036580916 -0.030965166 -0.011490048 -0.048363578 0.26418784 -0.11381206 -0.15082604 0.08174222
-0.0043325955 0.285012 0.19358824 -0.11684536 7.257568e-05 0.1677141 -0.021431861 -0.15791164
-0.119323805 -0.17571107 0.26306847 0.08115887 0.04206398 0.11732391 -0.04221454 0.059964415
-0.04336909 -0.1534146 -0.17996317 0.13117997 -0.08702884 -0.13935383 -0.023616096 -0.12846828
-0.12124106 -0.07747296 -0.090734765 0.074088156 -0.063810624 -1.6152797e-05 0.12997635 0.30997565
-0.004700343 -0.04073574 -0.08665835 0.16035706 0.1713506 -0.067545235 0.15636288 -0.23329535
-0.13594949 0.21104865 0.056962244 0.030957935 0.21058069 0.22822711 -0.025128966 0.12719603
-0.12582658 -0.15756446 -0.18545046 -0.16364114 -0.25205708 0.15344949 0.052149277 -0.0857259
0.02746108 -0.23825914 0.21858473 -0.11179573 -0.0038740812 -0.005107786 0.09806476 0.013678139
-0.06483695 0.036504745 0.108567625 0.12738194 -0.22527346 0.0727598 0.08165006 -0.11851867
0.11186323 0.2071212 -0.06131664 -0.04643618 -0.12110213 -0.18902647 -0.054656282 -0.08856827

RepVgg_vi1.rbr_1x1.bn.weight f4 [32]
00000000: 9081 6d3f d04e 673f 4a87 773f f551 673f
00000010: 9c34 663f a2df 803f 1aba 7b3f c4ab 6d3f
00000020: 8162 703f 77e5 803f c799 833f ac9e 8d3f
00000030: d8b9 723f c465 743f 64c8 783f 4074 7e3f
00000040: 4a1f 683f 9a8e 7f3f 5c08 773f a997 753f
00000050: 64a6 7d3f 03b3 853f ef5e 713f c81c 723f
00000060: e202 603f d700 743f e649 8b3f d0ba 753f
00000070: 613b 763f ff21 6c3f c0b4 723f 38ac 883f
0.9277582 0.90354633 0.9669081 0.9035943 0.89924026 1.0068247 0.98330843 0.9284022
0.93900305 1.0070027 1.0281304 1.1064048 0.94814825 0.9546778 0.9718077 0.99396133
0.90672743 0.9982697 0.9649713 0.9593454 0.99082017 1.0445255 0.9428548 0.94575167
0.875044 0.9531378 1.0881927 0.9598818 0.96184355 0.92239374 0.9480705 1.0677557

RepVgg_vi1.rbr_1x1.bn.bias f4 [32]
00000000: 87cf 373d 3248 5cbe 82d5 17bd 73cc 63bd
00000010: d2c7 233d 746b 413c 6181 80bc c1da ecbd
00000020: 0b56 653c 7431 fe3d c53f fd3b 1ff4 25be
00000030: 26ad a6be 828c 983d 2896 62bd 3ed5 ef3d
00000040: 6906 593e ed51 dcbc c783 c9bd 68b7 b3ba
00000050: 7818 713d 352c a23d 7fe1 c83d 4044 c6bc
00000060: 3582 81bd 8ca4 84bd fbac 89bd a4a0 7fbd
00000070: b16a f1bd a04d 89bd 13ce 3f3c bef8 953d
0.044875648 -0.21511915 -0.03706885 -0.0556149 0.039985485 0.011805404 -0.015686693 -0.115651615
0.013997565 0.12411776 0.007728549 -0.16206406 -0.32553977 0.07448675 -0.05531898 0.117105946
0.21193852 -0.026894534 -0.09839588 -0.0013711276 0.058861226 0.07918588 0.09808635 -0.024202466
-0.06323663 -0.06476697 -0.067224465 -0.06240906 -0.11787928 -0.06704259 0.011706847 0.073228344

RepVgg_vi1.rbr_1x1.bn.running_mean f4 [32]
00000000: 94ed 6741 51a7 75c1 c023 a9c1 d270 b341
00000010: 7ab1 0dc2 0ffb b641 98dc 1541 5985 abc1
00000020: 4bcd 1541 98a9 1bc1 5870 a6c0 d16f 9f41
00000030: 2eb4 96c1 bb0d 3a42 c8eb 06c2 124f 26c1
00000040: 9c1b aec1 3a53 16c2 5a31 3941 fe72 33c1
00000050: 216c dac1 681c 4e41 e390 36c2 bd9f 8b41
00000060: 9da4 4e40 eceb 4641 112b 35c1 cdfa b440
00000070: 2d3f bfbf 3716 75c1 131b 3bc1 c774 abc1
14.495502 -15.353349 -21.142456 22.430088 -35.423317 22.872587 9.366356 -21.440111
9.36262 -9.728905 -5.201214 19.929598 -18.837978 46.51341 -33.730255 -10.394304
-21.763481 -37.581276 11.574549 -11.215574 -27.302797 12.881935 -45.64149 17.452997
3.2287972 12.432598 -11.323014 5.6556153 -1.4941155 -15.317924 -11.69411 -21.43202

RepVgg_vi1.rbr_1x1.bn.running_var f4 [32]
00000000: cb1d a742 1648 e142 026f 3343 eaaf 4743
00000010: e08b f143 c968 3f43 36b2 1e42 2c63 2c43
00000020: 0816 2542 aebc 2d42 269a b541 3d5d 1e43
00000030: f3c6 0c43 c3ec 4a44 45e0 d443 ff74 1d42
00000040: dbe7 2e43 3c75 0044 6bd7 4f42 a765 4642
00000050: 242f 9143 a0bf 8c42 cc16 5644 5d5a fa42
00000060: c7af 9941 1d89 9e42 d3e1 8242 7c5d a141
00000070: acdf 5441 268d b442 ec67 c742 0f15 2b43
83.55819 112.64079 179.43362 199.68716 483.09277 191.40932 39.674034 172.38739
41.271515 43.434258 22.700268 158.36421 140.77715 811.6994 425.7521 39.364254
174.90569 513.8318 51.96037 49.59927 290.3683 70.37427 856.3562 125.17649
19.210829 79.2678 65.44106 20.170647 13.304607 90.27568 99.70297 171.08226

RepVgg_vi2.rbr_identity.weight f4 [32]
00000000: d876 723f a579 803f ccf0 633f c3f2 7b3f
00000010: cf26 793f 018c 713f f4bd 583f 7b29 743f
00000020: 0bdd 673f ab1b 553f 9c60 6b3f e59e 473f
00000030: 149c 7d3f cf0a 803f b306 7a3f 95c8 7f3f
00000040: 4084 763f a7bf 633f 2105 7e3f 21ed 6f3f
00000050: 96e1 773f 0913 7d3f 123e 793f b85d 723f
00000060: 055d 783f 65a9 713f 47f7 713f 4b61 833f
00000070: 74e0 803f 6103 623f 9e09 833f 7e94 753f
0.9471259 1.0037123 0.890393 0.984173 0.9732484 0.94354254 0.84664845 0.95375794
0.9057166 0.8324534 0.9194429 0.7797683 0.9906628 1.0003299 0.9766647 0.9991544
0.9629555 0.88964313 0.99226576 0.93721205 0.9682859 0.9885717 0.97360337 0.94674253
0.97016937 0.943991 0.9451794 1.0264066 1.0068498 0.88286406 1.023731 0.95929706

RepVgg_vi2.rbr_identity.bias f4 [32]
00000000: dbce 1c3e 674a 89bd e7de 3a3e d632 013e
00000010: bdbc a93d 5304 083e 4f8b c43d 4662 9abe
00000020: 3b7b 213e 1e24 1b3e e58e 423d 7fb6 2e3e
00000030: 307a 0ebe 3a64 9fbd 5523 95bd 67bf 50be
00000040: c65a 6fbd bf41 143e ebd7 fd3b 4819 d13b
00000050: 48bd 293d 90b0 863c 5e2e 96bc 6fbf b93d
00000060: f0e4 563e 7fa6 203d 6f2f a93c c3e9 863d
00000070: 97b0 cbbd 7dd6 7dbe 5d12 09ba cd88 a8be
0.15313284 -0.06703644 0.18249093 0.12617049 0.08287952 0.132829 0.095968835 -0.30153102
0.15769665 0.15150496 0.047499556 0.17061804 -0.13913798 -0.077827886 -0.0728213 -0.20385514
-0.058436178 0.14478205 0.0077466867 0.0063811876 0.04144028 0.016441613 -0.018332656 0.09069716
0.2098577 0.039221283 0.0206525 0.06587555 -0.09945791 -0.24788852 -0.00052288716 -0.3291687

RepVgg_vi2.rbr_identity.running_mean f4 [32]
00000000: 41a8 4a3f 00cb 043f dd32 3c3f 0dc6 2b3f
00000010: 8db9 423e d29a e73d ec9f 3d3f 0d48 d63d
00000020: 1470 453e a404 9f3e 9e09 9e3e 3912 2a3e
00000030: e5e4 d53e fadc 553f cb58 3b3f a055 6d3f
00000040: b2a4 773f ec63 463f 784d 2d3f b173 1d3e
00000050: b748 7e3e 6cff 893e b85f 5f3f 9897 3f3e
00000060: 8e5e fe3e d94f 313f a70f 0d3e 3b61 263f
00000070: 1457 eb3e e979 0e3e e1b3 363f 9275 de3e
0.79162985 0.51872253 0.7351511 0.67099077 0.19016095 0.113088265 0.74072146 0.10462961
0.19281036 0.31058228 0.30866712 0.16608514 0.41776195 0.8354031 0.7318236 0.9270878
0.9673568 0.7749622 0.6769633 0.15376164 0.24832426 0.26952684 0.8725543 0.18710172
0.49681515 0.6926246 0.13775502 0.6499211 0.45964873 0.13913693 0.71368223 0.43449074

RepVgg_vi2.rbr_identity.running_var f4 [32]
00000000: 68ad c13f 8a7a 0f3f 7225 553f ab80 aa3f
00000010: 39f1 283e c815 083e cffd ba3f 4e59 1b3e
00000020: 4868 9a3e eb54 663e d3f4 053f 4486 9a3e
00000030: 88a3 d23e 903a d93f fc23 603f ad06 853f
00000040: 370b 813f 7f9c 6b3f c7a5 b23f 9ccf 153e
00000050: f6f5 323e c124 1a3e ffec 7c3f c901 a73e
00000060: 9e23 4a3f 3c8b b93f 2a4d 923e 0553 9b3f
00000070: 6097 0c3f eadc 573e a376 423f ef90 953e
1.5131044 0.56046355 0.8326026 1.3320516 0.16498269 0.13289559 1.4608706 0.15170786
0.30157685 0.22493331 0.523267 0.30180562 0.4114039 1.6970997 0.8755491 1.0392662
1.0081547 0.9203567 1.3956841 0.14629978 0.17476639 0.15053083 0.9879913 0.3261855
0.789606 1.4495616 0.28574497 1.213471 0.5491848 0.21080366 0.75962275 0.29212138

RepVgg_vi2.rbr_dense.conv.weight f4 [32, 32, 3, 3]
00000000: 54e8 9fbd d6fe 14bd 7ca6 0a3c e03f acbc
00000010: cd80 c2bc f8d4 0a3b c8d2 cdbc 4fc3 ca3b
00000020: 56db 543d f1b9 4f3d 3b9f bd3c da58 513d
00000030: 747f bfbd 5b3f 06bc 374b 01bd 2fee 48bd
00000040: c7b5 7fb6 3d5f 19bc 1cae 8d3c 2119 d0bc
00000050: 6dad b63c b688 a8bd 314f b1bd eca8 a4bd
00000060: 3f82 9cbd 1a9d 45bd 0abf 80bd d9f2 06bd
00000070: 26f1 d0bc 564c 3b3d 2732 71bd 88ac e7bc
00000080: 2090 a0bb 0229 15bb 1d6f 1abd ef40 963c
00000090: 5b84 9d3c 6912 a7bc fe7e 1a3d e39c 0c3d
000000a0: 7046 953c 6163 2dbd 1ac5 c3ba 8173 85bd
000000b0: e3df 6abd 4892 98bd 9c09 14bd 4f64 573c
000000c0: 45b1 fabd 49cd 8a3a 5b80 2f3d 8826 13be
000000d0: 51e6 94bd 71aa abbd eb23 f53b c714 56bc
000000e0: de26 1c3d 61e7 82bd de6c 283d 236a 45bd
000000f0: b4c8 4c3d b5d9 8c3c 41e7 06bd 17ae b9bd
00000100: a686 0ebc 2453 eb3a adba c2bd a706 06bd
00000110: 2363 83bd d2c7 34bd b111 52bd 9d2c e1bd
00000120: c053 c23d bd00 54bd c244 aebc 3cdf 75bd
00000130: a694 12bd 1e93 ddbb e413 3bbd 3ed2 85bd
00000140: 224a 78bd 429f 0fbd 65eb 903d 8cbf f6bc
00000150: 06fc c43d 7750 e83d db76 733d a261 2abd
00000160: 2d9e 903d 0361 40bd 418a c93c a015 613d
00000170: 8b13 9d3d 73e2 103d e660 b1bc d1b3 16bb
00000180: 4c05 05bd 3193 cb3c d374 3a3d 6388 c4bc
00000190: 99d7 f73c 4fc9 e93d cd0d 3fbc 0bcd 37bc
000001a0: d9e8 28bb f42b bbbc e781 5bbd ce2c 913c
000001b0: 71f9 92bd 8439 a0bd 811c b3bc 153d 05bd
000001c0: da1a 7abd 2bf1 bdbd a5fa d2bc 5e6f 81bd
000001d0: 87d9 9abd 3ba6 7c3d 6226 bfbb fdab c2bb
000001e0: f78f e83c 3fd1 a2bc 0200 333d 8154 d83c
000001f0: 5f7b b03b 7ae0 553c 8cfd 82bd bc52 86bd
00000200: a142 62bd 6905 c2bc 0510 0bbc 9356 16bd
00000210: 5f2a a9bd 605a 6a3d c05f c63b f34e c8bd
00000220: 976a 2bbe d651 87bd 4691 a0bd 707e a3bd
00000230: b75f 0abd c459 133d 7034 c4bc 17c2 efbc
00000240: e55f b7bc 6d3e 183c 3c0e c0bd 1824 7cbd
00000250: 9d43 d43b 6f3b 55bd 4b59 c7bd 05c2 f4bd
00000260: 9be6 bfbd 59ce 0fbd 60c2 06bd a776 abba
00000270: c21a 74bc d5e0 b0bc 47a8 54bd 7ff4 9fbd
00000280: 693e 40bc 0108 1d3d 5273 a23c 0928 9abc
00000290: 343d 723d f31a 3d3d 8084 34bd 9033 a1bc
000002a0: 1c31 4e3c 2890 023d 9844 a1bc c3fb a53c
000002b0: ce24 5dbc 562c cbbc ed34 953c 35fe 7cbc
000002c0: e353 94bc f294 d3bc 07a4 9b3c 643d 5abc
000002d0: 34da a03d de73 0a3d 4a3f 943d 1954 2dbd
000002e0: 572c 293d 6df7 af3d 6c65 4d3c 7e7c f7bc
000002f0: 3eaa f03a 69b3 c43c 5ea9 443d aa9c 47bc
00000300: 5ca6 8fbd af0e 333b 5e84 00bd f5bf e7bc
00000310: c088 42bd 9fcf 34bc 0f84 853b d498 afbd
00000320: 6bea 84bb d177 b9bd ee35 aa3b 8246 4a3d
00000330: e259 623c f69e 86bc 03e8 fc39 f395 44bd
00000340: 8067 46bd f8b2 86bb 5a2c aabd 8f9a 97ba
00000350: 6c22 94bb a3d4 b9bd e103 03bd 1843 ee3c
00000360: 95d7 d13c 6fb5 563c 2a69 9d3c b7d3 01bd
00000370: c965 b5bd 941c d5bc 4a3a 0dbd 03c8 d53c
00000380: f381 25bd 977f 933c a1a4 2f3d 3825 afbc
00000390: 0f01 6f3d 4374 453d 9b0c 133c 9a07 6bbc
000003a0: 7b9c 013d 3340 813c 9d17 ff3c 95d7 bdbb
000003b0: 36c9 14bb 37b9 f43c 1817 ba39 0b0e 013d
000003c0: 24e5 d43d a604 5f3d 98b0 063e 1959 0d3d
000003d0: be46 843b d90d 843d 3f2f 4dbd 5a3d d4bc
000003e0: d0ed 42bd 20f2 b73b 6b7f 36bd 343a aabb
000003f0: 76c5 11bd 62cf 773d 4bad 11bc 6e8e e1bd
-0.07807985 -0.036375843 0.0084625445 -0.021026552 -0.023743058 0.0021184068 -0.025124922 0.0061878334
0.051966988 0.050714437 0.023147216 0.051110126 -0.09350482 -0.008193816 -0.03156587 -0.049055275
-3.810377e-06 -0.0093610855 0.017294936 -0.025402607 0.022299493 -0.082292005 -0.08657683 -0.08040032
-0.0764203 -0.048245527 -0.06286438 -0.03294644 -0.025505614 0.045727096 -0.05888572 -0.028280511
-0.0048999935 -0.0022760038 -0.037703622 0.01834151 0.019228151 -0.02039452 0.037718765 0.034329306
0.018222064 -0.042331103 -0.001493606 -0.06516171 -0.05734242 -0.07449776 -0.036141977 0.013146474
-0.12240843 0.0010589744 0.04284702 -0.14370167 -0.07270492 -0.083821185 0.0074810884 -0.013066477
0.038123004 -0.06391788 0.04111945 -0.048196923 0.049996093 0.017193655 -0.032935385 -0.09066408
-0.008699095 0.0017953855 -0.09508262 -0.032721188 -0.06415393 -0.044135876 -0.051286403 -0.109948374
0.0948863 -0.051758517 -0.02127302 -0.060027346 -0.035786293 -0.0067619225 -0.045673266 -0.06534241
-0.060617574 -0.03506399 0.07076148 -0.030120634 0.09618382 0.113434725 0.05943952 -0.041597016
0.0706142 -0.046967518 0.024602057 0.054952264 0.07669743 0.03537221 -0.02165265 -0.0022995363
-0.032475755 0.02485046 0.04552157 -0.023990816 0.030254172 0.1141535 -0.011661005 -0.01121832
-0.0025773554 -0.022848107 -0.05359068 0.01772156 -0.071764834 -0.0782347 -0.021864178 -0.032528955
-0.061060764 -0.09274515 -0.025754282 -0.0632007 -0.07561021 0.061681967 -0.005833433 -0.0059409128
0.02838896 -0.019875167 0.04370118 0.026407482 0.0053858007 0.013054008 -0.063960165 -0.06558749
-0.055239324 -0.02368422 -0.008487706 -0.036703657 -0.08260035 0.057215095 0.0060538948 -0.09780683
-0.1673988 -0.06607406 -0.07840209 -0.079831004 -0.033782687 0.03597428 -0.023950785 -0.029267354
-0.022384593 0.009292227 -0.09377715 -0.06155786 0.0064777867 -0.052058633 -0.09733828 -0.11951069
-0.093701564 -0.035108898 -0.032900214 -0.0013081626 -0.014898958 -0.021591583 -0.051918294 -0.07810306
-0.01173363 0.03833771 0.01983038 -0.018817918 0.0591404 0.04616828 -0.044071674 -0.019677907
0.012584951 0.03187576 -0.019686028 0.02026165 -0.013497544 -0.024801414 0.018213714 -0.015441467
-0.018106407 -0.025827859 0.018999113 -0.013320301 0.07854119 0.033801906 0.07238634 -0.04231653
0.04130205 0.085921146 0.012536388 -0.03021073 0.0018361283 0.02401133 0.048013084 -0.012183348
-0.070141524 0.0027321985 -0.031376235 -0.028289774 -0.047493696 -0.011035829 0.0040745805 -0.085740715
-0.004056265 -0.09056056 0.005194417 0.049383648 0.013815375 -0.01643322 0.00048238048 -0.047994565
-0.04843855 -0.00411069 -0.08309241 -0.0011566448 -0.004520705 -0.0907376 -0.03198612 0.029084727
0.025615493 0.013104781 0.019215185 -0.031696048 -0.088573046 -0.026014604 -0.034479417 0.02609635
-0.040407132 0.018005176 0.04288161 -0.021380052 0.05835062 0.04820658 0.008975173 -0.014345074
0.031643372 0.015777683 0.03113919 -0.0057935216 -0.002270294 0.029873474 0.0003549389 0.031507533
0.103952676 0.054447792 0.13153303 0.0345088 0.0040367534 0.06447954 -0.050093886 -0.025908161
-0.047590077 0.0056135803 -0.04455511 -0.0051949266 -0.035588704 0.06050051 -0.008891414 -0.110134944

RepVgg_vi2.rbr_dense.bn.weight f4 [32]
00000000: b538 873f 776c 853f 6b93 8c3f 5011 8b3f
00000010: 70e4 903f 8460 853f e87d 913f 637c 9c3f
00000020: fc9f 983f b5e7 8b3f 9c69 8f3f b26a 903f
00000030: 2231 8a3f aea6 913f c97e 853f 6439 883f
00000040: 9913 923f 8202 8e3f 30d6 773f 91da 8b3f
00000050: b6ac 803f a413 913f 1a34 823f 4f50 893f
00000060: c7c8 813f 0883 813f b3f4 913f 8632 8d3f
00000070: 5396 933f 9e5b 8e3f 63b6 883f d158 933f
1.0564181 1.0423726 1.0982488 1.0864658 1.1319714 1.0420079 1.1366549 1.222546
1.1923823 1.0930086 1.1204104 1.1282561 1.0796244 1.1378992 1.0429317 1.0642514
1.1412231 1.1094515 0.968112 1.0926076 1.0052707 1.1334119 1.017215 1.0727633
1.0139397 1.0118113 1.1402801 1.1031044 1.153025 1.1121709 1.068066 1.151148

RepVgg_vi2.rbr_dense.bn.bias f4 [32]
00000000: dbce 1c3e 674a 89bd e7de 3a3e d632 013e
00000010: bdbc a93d 5304 083e 4f8b c43d 4662 9abe
00000020: 3b7b 213e 1e24 1b3e e58e 423d 7fb6 2e3e
00000030: 307a 0ebe 3a64 9fbd 5523 95bd 67bf 50be
00000040: c65a 6fbd bf41 143e ebd7 fd3b 4819 d13b
00000050: 48bd 293d 90b0 863c 5e2e 96bc 6fbf b93d
00000060: f0e4 563e 7fa6 203d 6f2f a93c c3e9 863d
00000070: 97b0 cbbd 7dd6 7dbe 5d12 09ba cd88 a8be
0.15313284 -0.06703644 0.18249093 0.12617049 0.08287952 0.132829 0.095968835 -0.30153102
0.15769665 0.15150496 0.047499556 0.17061804 -0.13913798 -0.077827886 -0.0728213 -0.20385514
-0.058436178 0.14478205 0.0077466867 0.0063811876 0.04144028 0.016441613 -0.018332656 0.09069716
0.2098577 0.039221283 0.0206525 0.06587555 -0.09945791 -0.24788852 -0.00052288716 -0.3291687

RepVgg_vi2.rbr_dense.bn.running_mean f4 [32]
00000000: 3e04 06c0 9bc7 9fbe 622c 61be fbae 77bc
00000010: 3e90 073f 525c abbe 8674 6dbe f086 70be
00000020: 4313 d6be 3ac5 fcbf 73d8 e93d db73 acbf
00000030: 7994 a53e 96c4 a93f 4e5f db3e 0b15 2c40
00000040: 67c6 b43f 88e7 e8be a010 d5bf 69b7 6c3e
00000050: 70ab 923e a32a 72be a177 773e 684d dfbe
00000060: 7787 a3bf 5901 02bf dde5 a33d f330 df3e
00000070: 717b 593e b0f7 4f3f 63b0 b83e f305 3dbe
-2.094009 -0.31206974 -0.21989587 -0.015117402 0.5295447 -0.33468872 -0.23188981 -0.23488975
-0.4181157 -1.9747689 0.114182375 -1.3472856 0.32339838 1.3263118 0.4284615 2.6887844
1.4123048 -0.45489144 -1.6645699 0.2311684 0.2864642 -0.23649077 0.24166729 -0.43613744
-1.2775716 -0.50783306 0.08002827 0.43592033 0.21238495 0.81237316 0.36072072 -0.184593

RepVgg_vi2.rbr_dense.bn.running_var f4 [32]
00000000: af00 c740 8c02 d63f b654 473f d56f ed3f
00000010: 874f 933e c750 f53d 1531 3e40 afa1 183d
00000020: a817 e23e f91b fa3f c612 763e 4ef3 ae3f
00000030: a007 e33e c032 0e3f 18c5 873e fcb5 5340
00000040: 7429 353f f191 743e 0a70 0b40 21d4 f23d
00000050: ea38 553e 48f1 7e3e 7fb7 1e3f 3db1 1a3f
00000060: f32e 9a3f 37a5 963f f39c 313e 92f6 923e
00000070: 018d ae3d f6c6 9d3e 7045 093e be69 543d
6.2188334 1.6719527 0.77863634 1.8549753 0.28771612 0.11978298 2.9717457 0.03726357
0.44158673 1.9539787 0.24030599 1.3668001 0.44341755 0.5554619 0.26517558 3.3079824
0.7076638 0.23883797 2.1787133 0.11856867 0.20822492 0.24896729 0.6199874 0.60426694
1.2045578 1.176917 0.17345028 0.28703743 0.08522988 0.30815858 0.13405395 0.051858656

RepVgg_vi2.rbr_1x1.conv.weight f4 [32, 32, 1, 1]
00000000: 42bf e23d f6a4 5fbe c5df 51be e9f2 2a3d
00000010: f3a1 1cbe 4896 db3d 036e cc3b 3960 1c3d
00000020: e363 4b3d 769c 9ebd 51c3 923d f83e 443d
00000030: a449 91be 18a1 c0bd 08a5 59bd 44e0 babd
00000040: 252e b53d 72e9 27bd 35a9 fdbd 4380 1d3e
00000050: 3299 27be 8839 c03d 110a 5bbe a153 dbbd
00000060: b059 b83d 73be 90bd d0af 68bd 9970 8f3d
00000070: d558 3fbe dad9 113e 1da2 19be f250 1dbe
00000080: dda7 b1bd 1e06 efbd 424d 983d 5e62 b1bd
00000090: 2b21 7fbd dc45 a2bc 2927 543d dbdb 303d
000000a0: 19ad c4bd 8627 5b3e f3ad 483d 326d fd3c
000000b0: b627 fb3d a104 a73c b33d 163d e773 213e
000000c0: 6979 bc3c 4160 0fbd 456d 0e3e 9498 1cbd
000000d0: b2a7 163e a22e 103e 1db2 1c3e eede f93d
000000e0: bd74 fbbb fd9d 143e c4ba 83bd 234b 973d
000000f0: 2ca2 8dbd 05e9 a7bd 044d 1d3e 648c bcbd
00000100: e378 9abd 22ab 53bd 5b3a 9bbd 0709 e83d
00000110: 3467 34bd 4f3f 8dbd cd72 023d b311 1c3e
00000120: edba 7ebd d704 f63c 7a18 14be 5424 ca3d
00000130: bdca f23a b0a2 aa3d 6050 d93c 7117 83bd
00000140: f4fd 25be 35fc 27be 1224 103e a6d5 b2bd
00000150: f8cc dcbd ebac 243e 6dde b63d 0c79 0a3e
00000160: d879 3bbe 0e24 d83d 949f 04be 818b 45bd
00000170: 75e1 afbd 1bd6 ebbd 3653 8abd 94ec 583d
00000180: 4309 ebbd 702a 86bd f2a3 503d 55a7 15be
00000190: 838d 803d 029f e2bc cde6 5dbe 9f7d 803d
000001a0: e7b4 163b 4934 eebc e748 47bd 516a 9fbc
000001b0: affd c6bd cbbe 95bd 048e 1d3c 7fb0 b8bd
000001c0: d17e 4bbc ec6e 243c 313a 96bd 2bb6 7b3c
000001d0: f592 84bd c106 c43d 5f0d 9fbd c341 e13d
000001e0: 76dc 38be ee03 4dbd 945e ef3d 00fb a03d
000001f0: 7122 923d 6989 15be 5d34 54bd 7521 993d
00000200: 559e 93bd 705f 10be 9c1c 33be c031 c4bc
00000210: 29f0 4ebd 815c 26bd 396d c63c 77a4 9dbc
00000220: 680d d63d 4c82 babd 0939 18be ec83 163d
00000230: 3075 c03d 50dc aabd 303c 0ebd 3e73 83bc
00000240: e4a4 0ebe 0f4d 49bc 77e2 52be bedc 753d
00000250: 258c 34be 5d4f ce3d 1bec bf3d 4b11 193e
00000260: b6e3 f83d e47a 2bbe 2b59 1abe e5c6 0bbe
00000270: 49af 90bd cff9 2fbe 22f2 be3d 2c76 4c3d
00000280: 0b59 da3d b0d4 063e 32f5 56be bf9b 263e
00000290: 28f9 38bd 629c c73d 6316 d9bd 7943 d7bd
000002a0: 55ce bc3d 587a b13d ab93 e2bd 3f81 e93a
000002b0: 5d43 c9bd cc7c 9abd 8a19 d7bb 9bc6 bdbd
000002c0: aec5 8abd 90b0 29be c7ef 7cbc 2409 91bd
000002d0: e302 b13c 443c 483e 8859 a33d 9bd2 a6bd
000002e0: 33b5 a1bc 0261 5d3e ea75 20be d4f2 163e
000002f0: 58cf f8bd 83cc 9e3d be63 e1bd 96b1 58bc
00000300: acab f0bd 71dc 783d e91c e43d 042e 82bd
00000310: ebad 933d c7ba 2c3d 1a56 2f3b 32dc f63d
00000320: 98bb 543d 1640 2dbe 20b9 80bd af9d e53d
00000330: e4d9 843b 8a32 4fbe 288c d93a aebf 063e
00000340: c4bc b03d 57d4 a0bd 92f5 6abd 44dc b93d
00000350: 3317 e33d 7d95 343d 4e19 ee3d ec21 233e
00000360: f86a d33d 8f41 c7bd 2cc6 12bc 15ce 32be
00000370: ed2c 043d 5af1 39bd f76c af3c f65c fd3c
00000380: 5383 bcbd 79ea ff3d 1cc5 0fbc 9134 05be
00000390: 6b47 78bd e45a 5dbc 185b 683d caf4 43bd
000003a0: e57a 2c3d 9dc0 4a3d 305a 4bbe a376 97bd
000003b0: 93f4 423e f9d3 3dbd 7ba5 fdbd 7b49 933d
000003c0: 2f4c 333e 9179 0abe 1e47 75bc 7685 183e
000003d0: 625c 253e 8257 1c3e 0656 20bd bef8 f6bc
000003e0: c83f d73d 4b4f 033d a9c9 63be 680c d6bd
000003f0: 4d5b e63d fc6d 8dbd ebfd 1cbe 2b95 943d
0.11071636 -0.21840271 -0.20495518 0.041735563 -0.15296154 0.10722023 0.0062387004 0.038177703
0.049655806 -0.07744686 0.0716616 0.047911614 -0.28376496 -0.09405726 -0.0531359 -0.091248065
0.08846692 -0.040994115 -0.12385789 0.15380959 -0.16367033 0.09385973 -0.21390559 -0.1070931
0.090014815 -0.07067575 -0.056808293 0.07003898 -0.1868623 0.1424326 -0.15003248 -0.1536291
-0.086745955 -0.11671089 0.07436611 -0.0866134 -0.06228749 -0.019808702 0.05179516 0.04317842
-0.09603328 0.21401796 0.048994016 0.030935857 0.12263434 0.02038795 0.036679935 0.1576687
0.023007112 -0.035003904 0.1390887 -0.038231447 0.14712408 0.14080289 0.1530232 0.122007236
-0.0076738284 0.14513393 -0.06432107 0.07387378 -0.069156975 -0.08198742 0.1536141 -0.09206465
-0.075425886 -0.051676877 -0.0757949 0.11329847 -0.044043735 -0.06896841 0.031847764 0.15241127
-0.062189985 0.030031605 -0.14462462 0.0987021 0.0018523555 0.083318114 0.026527584 -0.064009555
-0.16210157 -0.16404803 0.1407626 -0.087321565 -0.10781282 0.16081588 0.08929143 0.13522738
-0.18308198 0.10553752 -0.12951499 -0.048228744 -0.085879244 -0.11515447 -0.067541525 0.052959993
-0.11476376 -0.06551063 0.0509376 -0.14614613 0.06276991 -0.027663711 -0.21670075 0.0627396
0.002299601 -0.029077666 -0.04865351 -0.019459875 -0.09716355 -0.073117815 0.009616379 -0.09018039
-0.012420372 0.010036211 -0.07335318 0.015363256 -0.06473342 0.09571601 -0.07766222 0.10998871
-0.18052849 -0.050052576 0.11687961 0.078603745 0.071354754 -0.14603199 -0.05180775 0.074770845
-0.07207934 -0.14098907 -0.17491382 -0.023949504 -0.050522003 -0.040615562 0.024222003 -0.019243462
0.10451776 -0.091068834 -0.14865507 0.036746904 0.09397352 -0.083428025 -0.034725368 -0.016046163
-0.13930088 -0.012286439 -0.20594202 0.06002497 -0.17631586 0.10073731 0.093712054 0.14948003
0.121528074 -0.16746098 -0.15073077 -0.13650091 -0.07064683 -0.17185138 0.09323527 0.049917385
0.10661515 0.13167071 -0.20991972 0.1627035 -0.04515949 0.097466245 -0.10599973 -0.10510916
0.09219042 0.08665913 -0.11063322 0.0017815008 -0.09827302 -0.07543334 -0.006564324 -0.092663966
-0.06775986 -0.1657126 -0.015438027 -0.070818216 0.021607822 0.1955424 0.07976061 -0.081456386
-0.019739723 0.21619037 -0.1566998 0.14741069 -0.12148923 0.07753851 -0.110053524 -0.013225934
-0.11751494 0.060757104 0.11138327 -0.06356433 0.072109066 0.042170312 0.0026754201 0.12053718
0.051936716 -0.16918978 -0.0628531 0.112117164 0.004054295 -0.20234123 0.0016597556 0.13159057
0.08629754 -0.078530006 -0.0573631 0.090752155 0.11088409 0.044087876 0.1162592 0.15930909
0.10323137 -0.09729301 -0.008958381 -0.17461427 0.032269407 -0.045396186 0.021414263 0.030928116
-0.092047356 0.12495894 -0.008775022 -0.13008334 -0.060614984 -0.01351044 0.0567275 -0.04784087
0.04210939 0.049500097 -0.19858623 -0.07395675 0.1903861 -0.04634473 -0.123850785 0.0719175
0.1750953 -0.13522936 -0.014970569 0.14894661 0.16148522 0.15267757 -0.03914454 -0.030147906
0.10510212 0.03205804 -0.22244896 -0.10451585 0.11247883 -0.069057435 -0.15331237 0.07255014

RepVgg_vi2.rbr_1x1.bn.weight f4 [32]
00000000: d683 863f fc89 833f 22b8 853f 6605 7a3f
00000010: 6898 603f 097c 863f 95d4 8c3f abbd 6e3f
00000020: cc80 873f 5886 853f 40e8 663f f79a 833f
00000030: 88db 7d3f f6a8 863f d737 823f 94b5 803f
00000040: 9ffc 833f b01f 863f f326 803f 5617 733f
00000050: dbac 823f 7f23 683f f59c 7c3f 7f23 883f
00000060: bf1e 7f3f d881 7a3f dcfa 663f fb19 7c3f
00000070: 1253 6d3f 65fc 833f 97f2 883f ad2d 713f
1.0508983 1.0276484 1.0446818 0.9766449 0.87732553 1.0506603 1.1002375 0.9325816
1.0586181 1.0431623 0.90198135 1.0281667 0.99163103 1.0520313 1.0173291 1.0055413
1.0311469 1.047842 1.0011886 0.9495748 1.0209001 0.9067916 0.98677 1.0635833
0.9965629 0.97854376 0.9022653 0.98477143 0.9270488 1.03114 1.0699033 0.9421032

RepVgg_vi2.rbr_1x1.bn.bias f4 [32]
00000000: dbce 1c3e 674a 89bd e7de 3a3e d632 013e
00000010: bdbc a93d 5304 083e 4f8b c43d 4662 9abe
00000020: 3b7b 213e 1e24 1b3e e58e 423d 7fb6 2e3e
00000030: 307a 0ebe 3a64 9fbd 5523 95bd 67bf 50be
00000040: c65a 6fbd bf41 143e ebd7 fd3b 4819 d13b
00000050: 48bd 293d 90b0 863c 5e2e 96bc 6fbf b93d
00000060: f0e4 563e 7fa6 203d 6f2f a93c c3e9 863d
00000070: 97b0 cbbd 7dd6 7dbe 5d12 09ba cd88 a8be
0.15313284 -0.06703644 0.18249093 0.12617049 0.08287952 0.132829 0.095968835 -0.30153102
0.15769665 0.15150496 0.047499556 0.17061804 -0.13913798 -0.077827886 -0.0728213 -0.20385514
-0.058436178 0.14478205 0.0077466867 0.0063811876 0.04144028 0.016441613 -0.018332656 0.09069716
0.2098577 0.039221283 0.0206525 0.06587555 -0.09945791 -0.24788852 -0.00052288716 -0.3291687

RepVgg_vi2.rbr_1x1.bn.running_mean f4 [32]
00000000: 3443 65bf 46b0 2e3f 657e 8bbe d257 2cbf
00000010: 66be 34bf 5984 39be 449e b3ba 2bb4 52bd
00000020: 33a0 1fbf 30f8 35bf 6aa9 433e 5718 b1be
00000030: 105b 063f b067 e9bd 2db3 71be 5dfb e03e
00000040: 43bc b73d 0f3a f0be 4b88 773e eec5 bdbe
00000050: 16e3 3dbd 76d5 c13e 0658 b33d a6a4 30bf
00000060: 4952 68bf 7584 b5be 129e 83be 8d00 eabe
00000070: 9861 0a3e 7899 363f 1d55 e83d 3245 033f
-0.8955567 0.6823772 -0.2724487 -0.67321503 -0.70603025 -0.18116893 -0.0013703783 -0.051441353
-0.6235382 -0.7108183 0.19107595 -0.34588882 0.524827 -0.1139673 -0.23603506 0.43941775
0.08971455 -0.46919295 0.24173085 -0.3706507 -0.046359144 0.3785817 0.087570235 -0.69001234
-0.9075056 -0.3545262 -0.25706536 -0.45703545 0.13513792 0.71327925 0.11344359 0.5127746

RepVgg_vi2.rbr_1x1.bn.running_var f4 [32]
00000000: 86dc a03f b59a 503e 65dd d93e f2a1 0c3f
00000010: 5a59 d13e 65dd 4c3f fb9e 913f 3bc9 7b3e
00000020: baf9 6e3e 2b16 c73e 4c5c 0e3e cc8a 543e
00000030: 3e4f 983e 233f 8d3f fd39 4e3f c6a2 5e3e
00000040: b6e5 c03e cbda 0f3f 1d0f 883f 20d2 913e
00000050: a262 483f cbcc 473e 86c6 693f ebb1 5c3f
00000060: 089a db3e b9a2 2a3f 34ea b53e fcaa fa3d
00000070: e721 293f a10c 743e f763 ea3e 5f01 573e
1.2567298 0.20371516 0.42551723 0.5493461 0.40888482 0.8002532 1.1376642 0.24588482
0.2333745 0.388841 0.13902396 0.20756072 0.29747957 1.1034893 0.80557233 0.2174178
0.37675256 0.56193227 1.0629612 0.28480625 0.782755 0.19511716 0.9131855 0.8620898
0.42890954 0.66654545 0.35530245 0.12239644 0.66067356 0.23832943 0.45779392 0.20996617

conv_ir.conv2d.weight f4 [16, 1, 3, 3]
00000000: 0695 7e3e 66ba be3d a6c4 7b3d 7022 b23d
00000010: 7818 5f3d 7917 4bbe 3965 dabd 4501 143c
00000020: 5a5c 383e 015f 64be ecc2 33be d1fb 053e
00000030: 6930 05be cf32 883e c1bc de3d 70d9 3e3e
00000040: e931 1ebe df76 c93d bde2 0abe 40bc 453e
00000050: 7c35 6b3e bfaa c53d 7635 12be fdf7 32be
00000060: 5e31 b2bd d52f c73d 5770 463d 9bd0 4d3e
00000070: ea42 113c cfb3 16be 7aec 8abe e28f 1bbe
00000080: fd75 6f3e c19e 05be ae6b 00be 151a aa3e
00000090: 7b35 1dbc 1fb7 123d f0b4 cb3d 982f ff3c
000000a0: 7458 7bbe ebb6 9cbd 3538 f33d e106 e93c
000000b0: 28f1 9e3e fe9f 593b 2454 b43c 4d5e 2fbe
000000c0: 1f24 12be 1b6c 863e 1bbd 8e3d 78e9 efbe
000000d0: bd07 e6be 128d f1be 0323 013e fe67 2ebe
000000e0: 8f7a 8bbe 7809 b63e 62c9 2f3c b072 a03e
000000f0: 6537 22be 9d91 f7bc bd78 a6be 3413 90be
00000100: b65b 65be 0bbb 883d 55d4 9bbe c81d 80bc
00000110: bb85 393e dbc1 34bd ec5c 063e f506 4a3c
00000120: 8766 26be 8d21 a1be 3c93 063d 59af f13d
00000130: 2a3b a3bd 5a9e 37be 6a1b 5d3e 4405 1a3e
00000140: cdb7 643b 18df 0e3e ea9f a63e 76f0 00be
00000150: 8c24 27be f3d8 06be 3236 d2be b1b2 da3d
00000160: 2c04 533e 37e7 b7be 062b ac3e efe3 d8bd
00000170: d428 a7be 7e1d 2dbe 3ce8 e4bd 962a 27be
00000180: c0a0 cf3e f0b6 3cbe ef5a 31be d8b9 13bd
00000190: 7244 5bbd 7201 61bd b386 0b3e e452 acbd
000001a0: 15ce 81be 8431 1c3e cebc 0e3e 417c 2e3e
000001b0: 0a56 833e 8dd7 a5be d2f9 50be 3ebd 353e
000001c0: 43ce 9d3e c7c1 f7bd f6b1 94be b31b 8a3e
000001d0: f0fb 66be 2f22 11bd 31f2 6bbe b710 523e
000001e0: 1fe0 a13c 84a8 a63d 064f 32be 2558 d23d
000001f0: 813c 8c3e 201d 173e 007a 83be bceb 083e
00000200: e941 393d 6175 893e 1c96 853e 90b8 763e
00000210: 8f00 0ebd 95aa 693e ccdf 72bd 2c02 cfbd
00000220: 04a3 57be 7895 303e 33c9 d23d 5c58 0e3b
00000230: f963 613e 3377 9f3e ac25 01be 8ad5 33be
0.24861535 0.093128964 0.061466835 0.08697975 0.054466695 -0.19833173 -0.10663838 0.009033506
0.1800398 -0.22301866 -0.17554826 0.13084342 -0.13006748 0.26601264 0.10875846 0.18637633
-0.15448727 0.09837126 -0.13563056 0.19310093 0.22969621 0.09651708 -0.14278206 -0.17477413
-0.08700822 0.0972592 0.04844698 0.20099108 0.008866051 -0.14717029 -0.27133542 -0.15191606
0.23384853 -0.13048841 -0.12541077 0.33223024 -0.00959527 0.03581917 0.099466205 0.031150624
-0.24545461 -0.07652076 0.11875955 0.028445663 0.31043363 0.0033206935 0.022012778 -0.17125817
-0.14271592 0.26254353 0.06969663 -0.4685781 -0.4492778 -0.4717794 0.12611012 -0.17031857
-0.27241942 0.355541 0.010729166 0.313375 -0.15841444 -0.030220801 -0.3251399 -0.2813965
-0.22398266 0.066763006 -0.30435434 -0.0156392 0.1811742 -0.044130187 0.13121384 0.01233076
-0.16250049 -0.3147091 0.032855257 0.11801023 -0.07970269 -0.179315 0.21592489 0.15041071
0.0034899593 0.13952291 0.3254388 -0.12591729 -0.16322535 -0.13168697 -0.41056973 0.10678614
0.2060706 -0.3591859 0.33626574 -0.1059035 -0.32648337 -0.16905782 -0.11177108 -0.16324839
0.4055233 -0.1842916 -0.17319845 -0.036065906 -0.05353207 -0.05493302 0.13625602 -0.08414248
-0.2535254 0.15253264 0.13939211 0.17039587 0.2565158 -0.32391015 -0.20407799 0.17747971
0.30821428 -0.12097507 -0.29042023 0.26974258 -0.22557044 -0.03543299 -0.23041607 0.20514189
0.01976019 0.081376106 -0.17412958 0.102707185 0.2738991 0.14757204 -0.25679016 0.13371176
0.045228872 0.26847365 0.26091087 0.24093843 -0.0346685 0.22818978 -0.05929546 -0.10107836
-0.2105828 0.17244518 0.10292282 0.0021720147 0.22010793 0.3114563 -0.12612027 -0.17561927

conv_ir.conv2d.bias f4 [16]
00000000: 72c2 6b3e fa05 1a3f ba09 843e f9e8 ef3e
00000010: 6620 053e 6263 ef3e 377f aeba daab 113f
00000020: 1a41 3e3e 4d95 0e3f 7935 40be 54d5 2d3f
00000030: 646b b03d 2e51 93bd 9730 13be 774c c239
0.23023394 0.6016537 0.2578867 0.46857432 0.1300064 0.4675551 -0.001331306 0.5690285
0.18579522 0.55696565 -0.18770398 0.6790364 0.08614233 -0.07193218 -0.14374004 0.00037059534
