models/Final_epoch_30_alpha_10000_wir_6.0_wvi_3.0.model (torch, 277218 bytes, 76 tensors)

conv_vi.conv2d.weight f4 [16, 1, 3, 3]
000000 9a 19 ae bd f7 f8 29 3e b1 78 9a 3c c7 ae c8 3d
       -0.08500977 0.16598879 0.018856378 0.09798961
000010 6d ab a6 3e cd 0f c3 bd 4e 66 05 bf 47 c7 96 be
       0.32552662 -0.09524498 -0.5210923 -0.29448912
000020 84 3d b4 be bd 88 3f 3d bb ec 9b be b9 d7 09 be
       -0.35203183 0.046761263 -0.3045405 -0.13461198
000030 72 1a bb 3d eb e2 e0 bc d0 93 68 3e 42 88 89 3e
       0.091359034 -0.027451953 0.22712636 0.2686177
000040 d1 b0 90 3e 60 f7 ff 3c 1f 9d d2 3d 49 94 b7 3d
       0.282599 0.031245887 0.10283875 0.0896383
000050 69 49 63 be cd 27 f9 3c 47 03 2a 3e 02 7d ed 3c
       -0.22195973 0.030414486 0.16602813 0.028990272
000060 34 4f 05 bc f6 1c 04 be 65 41 48 3d 99 86 a4 be
       -0.008136559 -0.12901673 0.04889049 -0.3213394
000070 33 c3 c0 bc 44 a6 52 3e 4f 60 3b 3e b7 87 1b 3e
       -0.023530578 0.20571238 0.18298458 0.1518849
000080 7c 25 05 bd 89 89 22 3e c2 90 43 be b4 6b e2 3c
       -0.03250645 0.15872778 -0.1909819 0.027639247
000090 2d 23 00 be 83 36 1a be 41 3e 4d 3d 3c b7 cc bc
       -0.12513418 -0.15059857 0.050108198 -0.024989717
0000a0 15 f7 a0 3e 19 94 35 3d 67 b2 20 bc 62 ef 59 3e
       0.3143851 0.04433069 -0.009808159 0.21282724
0000b0 4f 1e 81 3e 6a 91 e2 bd 04 a2 c9 3d 87 65 a2 3d
       0.25218436 -0.11062892 0.09845355 0.07929521
0000c0 94 17 a0 3e c5 2b 11 3e dc 1c e9 bd e5 4c 00 be
       0.3126799 0.14176853 -0.113824576 -0.12529333
0000d0 00 6a ac bd 3b 33 9a be 93 68 f9 3d 1a 1b 1b be
       -0.084186554 -0.3011721 0.12178149 -0.15147057
0000e0 92 41 39 3d de 9a 60 3d de 7c 1a bd dd 36 6f be
       0.04522855 0.054835193 -0.03771674 -0.23360772
0000f0 47 9b 34 3e 85 53 24 be 7f 60 9f 3e 7e 2a 89 3e
       0.17637359 -0.16047485 0.31128308 0.2679023
000100 c1 ab 4d be 76 84 9f be 83 88 00 3d 2f e9 93 be
       -0.2008505 -0.31155747 0.031380188 -0.28888842
000110 06 58 bb 3d c2 96 25 3e 98 a1 89 bd d4 ab 9d 3e
       0.091476485 0.16170791 -0.06720275 0.30795157
000120 21 50 18 be 3a ae f2 bc ec 5c c8 3e 8b f4 0c bd
       -0.14874317 -0.029624093 0.39133394 -0.0344129
000130 ca 82 50 3e 12 f9 51 be 5c aa 38 be d3 d9 99 be
       0.20362392 -0.20505169 -0.18033737 -0.30049
000140 b0 af df 3c 7b 4f 04 3d 3a 90 32 be cb f0 53 3e
       0.027305454 0.03230236 -0.1743783 0.20697324
000150 a9 25 96 be 4c 4d 5e 3e bc e0 8d 3e be 1a b7 3d
       -0.29325607 0.21709174 0.2771052 0.089406475
000160 57 d9 16 3e 1f bd 49 3e 87 b5 90 be e0 8d 93 3d
       0.14731346 0.1970105 -0.28263494 0.07204795
000170 3f 37 91 be a2 e9 75 be 22 fb 79 3e c3 d3 8f 3e
       -0.28362462 -0.24014905 0.24412206 0.2809125
000180 01 86 03 3e a6 6b 3c 3e ac ae 96 3e b7 9e e4 3d
       0.12844087 0.1840044 0.2943014 0.11163085
000190 c4 1c d2 bc 4a 1d 46 3e 6d da 27 3d e1 79 9a be
       -0.025648482 0.1934711 0.04097979 -0.3017111
0001a0 e7 ef a8 3e 46 25 03 be ed ff 80 be 16 8b f5 bd
       0.3299553 -0.12807187 -0.25195256 -0.11989419
0001b0 b7 53 7b bd 9f ad 38 bd c1 32 6c 3e bc 4a 5a 3d
       -0.061359134 -0.045087453 0.23066236 0.05329393
0001c0 0d 52 8b 3d 28 c2 d1 3c db 73 46 be 5b 26 a3 bb
       0.06802759 0.025605276 -0.19380133 -0.0049789376
0001d0 87 9d 6a be 34 5b f2 3c 95 d7 8f 3e 62 c1 9f 3e
       -0.22911654 0.029584505 0.28094164 0.31202227
0001e0 74 40 59 3e 66 58 32 3d 35 38 25 be 64 ca f4 3d
       0.21215993 0.043541335 -0.16134723 0.119526654
0001f0 07 0c 7e bd 05 d2 d6 bd b2 6c 73 be 99 75 f1 3c
       -0.06202319 -0.10489277 -0.23771933 0.02947502
000200 78 43 9f 3e 60 6f c9 bd ac 66 f8 3d 74 74 1b 3d
       0.31106162 -0.09835696 0.12128958 0.037952855
000210 8b 23 4f be 3c bd 8e 3e 16 0e ee 3d f8 83 21 bc
       -0.20228402 0.2787875 0.116237804 -0.009858124
000220 56 4c d8 bd 6c 7f b7 3e 97 26 ae be 17 5e f4 bd
       -0.10561435 0.35839403 -0.34013817 -0.11932009
000230 5b 17 48 3e 1a de 31 be 2c ac cf bd 71 de 67 bd
       0.1954016 -0.17369881 -0.10140261 -0.05660862

conv_vi.conv2d.bias f4 [16]
000000 83 b9 65 3e 08 8e 75 3e 3f 18 1e 3d 27 dc d0 3d
       0.22434048 0.23979962 0.03859734 0.10198241
000010 3b 33 76 3d 87 a4 ec bd c3 35 bf 3e 17 f4 fc be
       0.06010745 -0.115548186 0.37345704 -0.49404976
000020 36 15 9d 3d 8a a7 df be f5 7b 48 3d cd 45 c9 be
       0.07670061 -0.4368251 0.04894634 -0.39311066
000030 d7 02 bf bb d4 dd 4b 3e a6 0a c1 3e c9 10 22 3e
       -0.005829196 0.1990884 0.37703437 0.15826716

RepVgg_vi1.rbr_dense.conv.weight f4 [32, 16, 3, 3]
000000 5c 41 cf 3d 06 56 d9 3d ba 46 e2 3c 89 d0 b0 bd
       0.10119888 0.10612111 0.027621616 -0.08633525
000010 b6 a4 b4 bd 19 77 36 be 45 f7 47 3d 61 41 10 3e
       -0.088204786 -0.1781887 0.0488198 0.1408744
000020 04 eb 16 3e 91 47 c0 3d 13 ad 79 3c 16 30 a9 bd
       0.14738089 0.0938865 0.015239018 -0.08261125
000030 09 4b 62 3c c1 ab 81 bb ee 2b 92 bd e3 b1 73 bb
       0.013811835 -0.0039572422 -0.07137285 -0.0037184886
000040 02 5a 19 3d e0 f4 83 bd 23 50 c5 3d 4b 9a 7b bd
       0.037439354 -0.064431906 0.096344255 -0.061426442
000050 6d 7c 29 bd 8a 92 b0 3d a4 64 7c bb a9 75 4e bd
       -0.041378427 0.086217 -0.0038512135 -0.05040518
000060 9b 9b 0f 3d 75 5e 89 bd e3 c5 e5 3c e2 d4 b1 bd
       0.035060506 -0.067074694 0.028048461 -0.08683182
000070 1a 6b 65 bd f9 de c9 bd 9e 99 38 3d 84 a9 fc 3c
       -0.056010343 -0.09856982 0.045068376 0.03084255
000080 97 a9 1a bd 49 a4 98 3d 40 10 b9 39 72 7b b3 3b
       -0.03775939 0.0745321 0.00035298057 0.0054773623
000090 1a d6 4f 3d b3 cf 8a 3d e1 10 bc 3b 4f 4c 85 bd
       0.050741293 0.06777897 0.005739317 -0.06508695
0000a0 ba 46 31 bd 0a 4b 52 bc 75 1a 3d bd 1c 38 1b bd
       -0.04328034 -0.0128352735 -0.04616781 -0.037895307
0000b0 3a a4 ac bd f8 31 20 3e 31 b9 30 3e 15 65 2e ba
       -0.08429761 0.15644062 0.17258145 -0.00066526356
0000c0 b3 cd ed 3d de ca 97 bc 49 8a 47 be d5 4a 67 bd
       0.116115 -0.018529352 -0.19486345 -0.05646785
0000d0 be 8a b1 bd b6 06 fd bd c1 d5 d0 3a c5 3e d0 3c
       -0.08669041 -0.12354796 0.0015932844 0.025420556
0000e0 86 f4 2c bc e6 f6 8a bd c0 05 47 bc 37 bd 88 3d
       -0.010556346 -0.067853734 -0.012147367 0.06676715
0000f0 6d d5 9c 3b b6 50 46 bc 87 eb c3 bc 79 c9 18 3e
       0.0047861845 -0.012104204 -0.02391602 0.14920606
000100 f5 47 01 bb 70 d5 0c bd 8c 35 42 bc 05 15 3d bd
       -0.0019726728 -0.034383237 -0.011853587 -0.046162624
000110 d5 6e f8 bb 52 63 0f bd 74 36 72 bd 61 81 85 bd
       -0.0075815716 -0.03500683 -0.05913396 -0.06518818
000120 9e 21 b7 3d 14 d9 0e 3d 33 6c b9 3d 18 f1 ac bb
       0.08941959 0.03487499 0.090538405 -0.005277764
000130 44 2b 08 bd f6 f7 50 be 75 6e 81 3d 01 06 0d 3d
       -0.033244386 -0.2040709 0.06319896 0.034429554
000140 29 0f 78 be 82 9a 5f 3d 6f 16 06 bd d5 35 dd 3b
       -0.24224533 0.05459071 -0.032736238 0.006750802
000150 4a 74 1b bd f8 58 7f 3c 4a dc 8f 3d 8f a7 58 3a
       -0.0379527 0.015585177 0.07024439 0.0008264714
000160 2f 8c 9a 3d b6 0c d2 bb e7 2e 53 bd 35 7c 95 3c
       0.07546269 -0.0064102067 -0.0515584 0.018247703
000170 25 1e 20 bd be cc 97 3d 11 b3 e4 3d 3f 6b 82 bc
       -0.039091248 0.07412098 0.11166967 -0.01592028
000180 de e3 c3 bb 33 a7 da bc cb a0 83 3c 5e ad 89 bc
       -0.0059780916 -0.026691055 0.016067883 -0.0168063
000190 1c 3c 66 3d 82 9f c7 3d a0 9d 2a 3d 2e d9 27 3d
       0.05620967 0.097472206 0.04165423 0.040978603
0001a0 c0 21 0b bc 38 be 1a 3c d1 c7 90 bd 4b 8f 7d 3c
       -0.008491933 0.009444766 -0.07069362 0.015476058
0001b0 64 14 f8 3d 40 85 21 3e 8c 77 c9 3d 4d 42 16 3c
       0.12113264 0.15773487 0.09837255 0.009171081
0001c0 f4 94 49 be 7d 21 76 be 22 f0 09 3e 3c 2f b8 3d
       -0.19685727 -0.24036212 0.1347051 0.08993384
0001d0 11 c2 bc bc c2 a5 50 3d ce 41 ae 3d 6b 9c 65 bc
       -0.023041757 0.05093933 0.08508645 -0.014014344
0001e0 23 65 3b bd d3 a7 f1 bc e4 1e 3d 3d 82 30 3e 3d
       -0.04575075 -0.02949897 0.046172038 0.04643298
0001f0 57 69 77 3d 15 c2 bf bd b3 e1 54 3d ee 0b 66 bc
       0.060403194 -0.0936319 0.051973056 -0.01404093
000200 0a 0d ca bc 1b a6 cb 3d 64 d9 06 3c 91 48 f3 3c
       -0.02466442 0.099437915 0.008230541 0.029697688
000210 2d c2 17 3c fd 87 8d 3d c8 74 13 3d c1 3f 28 be
       0.009262604 0.06910703 0.036000043 -0.1643057
000220 91 20 2d 3d d1 c2 20 3e d4 a1 ca bd 73 c7 eb bd
       0.042267386 0.15699317 -0.098941475 -0.11512651
000230 1b c2 d9 3c e6 7d a4 3d e4 05 b6 3d 4d 36 d0 bd
       0.026581815 0.08031826 0.08887842 -0.10166607
000240 f4 9a c9 bc eb 73 9a 3c c0 d3 b1 3d 93 ff 87 3e
       -0.02461002 0.018854102 0.08682966 0.26562175
000250 c6 46 a7 3d 8e b8 27 3e 36 92 37 3e 2b c1 12 3e
       0.08167796 0.16378996 0.17926869 0.143315
000260 ff d2 00 3e c5 fd 43 3d 83 d2 76 bd a6 77 24 be
       0.12580489 0.047849435 -0.060259353 -0.16061267
000270 0d 0e 84 3d 85 38 6e bc 6d 53 af bd d6 06 0c bb
       0.064479925 -0.0145398425 -0.08560834 -0.002136638
000280 d1 b3 3d 3d 91 7b b2 3c 07 e1 c9 3d e8 f9 01 3d
       0.046314064 0.021787437 0.09857374 0.03173247
000290 ca 4d 36 3a f7 14 7a bd 06 53 27 bd b2 05 9d bd
       0.00069543405 -0.06105515 -0.04085066 -0.07667102
0002a0 42 1f 54 bd f6 75 66 3d f9 25 5b bd bd 92 5f 3d
       -0.051787622 0.05626484 -0.05350301 0.0545833
0002b0 2d 56 12 3d 6e 1e 07 3d 0b fb 06 3d 79 df a3 bb
       0.035726715 0.032988004 0.032954257 -0.0050010053
0002c0 91 10 c7 bd 8f 35 a1 bd 84 f6 af 3b 84 df b0 bc
       -0.09719957 -0.078715436 0.005369963 -0.021590956
0002d0 6d 08 46 bc 28 9b 8b bd 03 ac cf bd 3d b3 48 3d
       -0.01208697 -0.06816703 -0.101402305 0.04899906
0002e0 81 8a 35 3b f8 97 7b 3c 22 57 0d 3d 8e 48 86 bc
       0.0027700963 0.015356056 0.034506924 -0.016392019
0002f0 3f 19 a7 3a f4 a2 42 3d 73 01 0d 3e c0 29 b2 3d
       0.0012748613 0.047518685 0.13770084 0.086993694
000300 25 61 e9 3c f9 bb 26 bc de 3e 16 bc dd 7c 04 bc
       0.028488705 -0.010176652 -0.009170262 -0.00808641
000310 c5 2e bd 3d 52 1a 9c 3d 2d 41 73 bd 9d fd 13 3d
       0.09237436 0.07622208 -0.05938833 0.036130536
000320 4a 53 c8 3c 20 e3 b1 3d 85 7f 97 3d 69 f6 b5 bd
       0.024453778 0.08685899 0.07397369 -0.0888489
000330 5b 85 19 3c 45 41 da 3d 84 f0 ff bc c3 56 1c bd
       0.009370173 0.106569804 -0.031242616 -0.03816868
000340 1c 39 6e bd e1 3a b2 3d 8d b0 1a 3d 94 0c 4d 3d
       -0.058159932 0.087026365 0.03776603 0.050060824
000350 a9 79 d3 3d 38 7a 88 3c d8 46 23 3c b0 9c b5 bb
       0.10325939 0.016659841 0.009965621 -0.0055423602
000360 62 16 99 3b 59 c9 a9 3d 80 85 e8 bc 3f 90 bd bd
       0.0046718577 0.08290357 -0.02838397 -0.092560284
000370 1b f5 ad bd 59 47 0c be e5 2a b3 bd 30 ac ca bd
       -0.08494016 -0.13699092 -0.08748416 -0.098961234
000380 5e 7a be bc 32 d9 dd 3c f5 e4 a4 3d a7 b9 f2 3b
       -0.023251709 0.027081106 0.080514826 0.0074073854
000390 62 2a 3e 3d e1 67 ca 3c 4f 1e 2a bc cf 05 84 bd
       0.04642714 0.024707736 -0.010383203 -0.064464204
0003a0 4d 56 5d bd 7a 48 43 3d 4e 6e 94 bd f0 d7 d8 3c
       -0.05403738 0.04767654 -0.072476014 0.026470155
0003b0 63 59 02 bd 82 50 c4 3c 94 0f 1c 3d 11 43 65 bd
       -0.031823527 0.02396417 0.038100794 -0.055972163
0003c0 13 a8 36 3d ad a1 51 3d 6f 24 92 bd 2d f4 9e 3d
       0.04459388 0.051179577 -0.071358554 0.077614166
0003d0 9c ee a5 3d 19 e4 0f 3e bb 1b 83 3d a1 1b 87 3d
       0.08102152 0.14051856 0.064017735 0.06597067
0003e0 45 04 1f 3d 69 74 06 be a4 97 2f 3d 42 d6 c5 3c
       0.03882243 -0.13130344 0.042869225 0.024150018
0003f0 78 3d 1a bd df 97 65 bd 53 c5 70 bd 35 39 95 3d
       -0.037656277 -0.05605304 -0.058781933 0.07286302

RepVgg_vi1.rbr_dense.bn.weight f4 [32]
000000 56 c5 7b 3f e7 26 7d 3f 1c d0 7a 3f 23 b3 77 3f
       0.98347986 0.98887485 0.979738 0.96757716
000010 0e fd 8d 3f 54 3b 83 3f 26 88 7f 3f 4b 24 8b 3f
       1.1092851 1.025248 0.9981712 1.0870451
000020 f7 14 8e 3f b6 2d 80 3f 25 e5 85 3f 6d 43 6a 3f
       1.1100148 1.001395 1.0460554 0.91509134
000030 b1 54 72 3f 46 bf 7d 3f 28 7e 83 3f 91 12 82 3f
       0.9466048 0.99119985 1.0272875 1.0161916
000040 6f f0 70 3f 93 43 80 3f 80 f6 82 3f 2c f0 87 3f
       0.9411687 1.0020622 1.0231476 1.062017
000050 c0 a0 82 3f b4 21 7a 3f 8d 26 7b 3f 05 94 90 3f
       1.0205307 0.97707677 0.981057 1.1295172
000060 c6 9b 84 3f cc 77 74 3f a0 a7 75 3f a5 6f 74 3f
       1.0360038 0.95495296 0.959589 0.95482856
000070 1f 76 86 3f 02 28 8a 3f 97 85 7f 3f f3 80 78 3f
       1.0504798 1.079346 0.99813217 0.9707176

RepVgg_vi1.rbr_dense.bn.bias f4 [32]
000000 17 ab 38 3d 29 1d 5d be 24 8c 19 bd fd b2 5d bd
       0.04508504 -0.21593155 -0.037487164 -0.054125775
000010 71 dd 23 3d a5 a3 1e 3c 94 86 72 bc 1d 56 e8 bd
       0.040006105 0.009682571 -0.014802594 -0.1134455
000020 33 af 76 3c d1 cd fd 3d 12 60 97 3b 44 08 26 be
       0.015056419 0.12392772 0.004619607 -0.1621409
000030 78 a0 a6 be c7 d9 97 3d 49 ca 62 bd 2a 05 f1 3d
       -0.32544303 0.074145846 -0.055368695 0.11768563
000040 2b de 58 3e 51 c1 dc bc f9 f1 ca bd a3 83 2c bb
       0.211785 -0.02694765 -0.09909434 -0.0026323579
000050 92 30 70 3d 69 3b a2 3d a2 7f c9 3d 91 4e d9 bc
       0.05864007 0.07921488 0.09838797 -0.026526721
000060 df f8 7c bd 2b f9 82 bd 2d 99 8a bd c3 03 80 bd
       -0.06176078 -0.06395181 -0.06767497 -0.062507175
000070 d4 4d f5 bd ee 91 8c bd 63 11 2d 3c a8 57 9c 3d
       -0.11977735 -0.068637714 0.010563227 0.076339066

RepVgg_vi1.rbr_dense.bn.running_mean f4 [32]
000000 7c 87 89 41 cc b3 db c1 6b fb d6 c1 c6 eb 99 41
       17.191154 -27.462791 -26.872763 19.240124
000010 eb b3 83 41 5c 24 8d c1 3c 3a b6 41 2b 65 51 41
       16.46285 -17.642754 22.778435 13.087199
000020 62 b4 da c0 b1 41 9c 41 5a f9 63 41 a1 1f 55 c1
       -6.8345194 19.532076 14.248377 -13.320222
000030 4d 02 a1 c1 65 7c 7a 41 7c d2 a0 c1 db 64 8a c1
       -20.126123 15.65537 -20.102776 -17.299246
000040 a2 ad 44 c1 de ee 98 c1 80 25 4a 41 d4 f0 a0 41
       -12.292391 -19.116634 12.634155 20.117592
000050 79 08 86 41 95 ef 96 c1 2c ba cb c1 5b 8a 87 c1
       16.754137 -18.866983 -25.465904 -16.942556
000060 32 a3 4b 41 04 9f 01 42 25 4e e2 41 6a a1 d5 41
       12.727343 32.40529 28.288157 26.703815
000070 c9 6d d9 c1 dc ff 86 41 1e 4e a0 c1 00 84 aa 40
       -27.178606 16.874931 -20.038143 5.3286133

RepVgg_vi1.rbr_dense.bn.running_var f4 [32]
000000 cc f3 fa 42 91 90 a6 43 50 00 91 43 38 24 29 43
       125.476166 333.12943 290.00244 169.14148
000010 24 2c 08 43 0b 3a ea 42 38 51 54 43 37 d1 bd 42
       136.17242 117.113365 212.31726 94.90862
000020 b3 3c 1d 42 e7 83 0f 43 c6 11 b7 42 4d 65 c6 42
       39.309277 143.51524 91.53471 99.19785
000030 c2 e0 3a 43 82 9d e4 42 3d 27 10 43 01 14 29 43
       186.87796 114.30763 144.15327 169.07814
000040 5f 6a 79 42 fb 16 14 43 b1 55 a9 42 33 4b 20 43
       62.353878 148.08977 84.667366 160.29375
000050 32 9a 11 43 eb ba 0c 43 70 39 73 43 ef 52 2c 43
       145.60233 140.73015 243.22437 172.32396
000060 ac f7 9d 42 0b e2 e0 43 16 d2 a1 43 d7 ed c9 43
       78.983734 449.76596 323.6413 403.85812
000070 a5 d6 8f 43 4c f5 ff 42 f5 69 19 43 e3 e5 87 42
       287.6769 127.979095 153.4139 67.949

RepVgg_vi1.rbr_1x1.conv.weight f4 [32, 16, 1, 1]
000000 7e 3a a1 be 6d a2 1d 3e a6 48 66 3e be 84 5b bb
       -0.31489938 0.15393992 0.2248865 -0.0033495869
000010 cf d4 95 bb ca 2b ff bd 30 55 8b bc a9 cd 71 3e
       -0.004572488 -0.12459524 -0.017008394 0.2361361
000020 45 9f 89 be 03 8d 54 3d d0 b4 5b be 27 e4 65 be
       -0.26879326 0.05189229 -0.21455693 -0.22450314
000030 36 39 81 3c bb bd 8d 3d 35 4b 04 3e 90 96 b6 bc
       0.01577435 0.06920954 0.12919314 -0.02228859
000040 f2 b8 12 3e 45 89 24 3e 8d 80 85 be 89 89 e2 bd
       0.14328364 0.16067989 -0.2607464 -0.11061389
000050 f5 a3 1e be e5 62 8a bd 3a 27 5d 3d 23 c2 87 3e
       -0.15492232 -0.06757144 0.053992487 0.26515302
000060 01 7b 13 be 70 52 82 be c4 1a 43 3e a6 cd 1a be
       -0.14402391 -0.2545352 0.19053179 -0.15117511
000070 b6 8b 0e 3e c1 54 f1 3d 27 71 39 be 64 4f 08 be
       0.13920483 0.11783744 -0.1810957 -0.13311535
000080 b6 9e d6 bd a0 e7 33 be df 45 2e be 73 73 62 bd
       -0.104794905 -0.17568827 -0.17018841 -0.055285882
000090 53 8d d4 3d 93 67 a1 3d 90 07 2e 3e 65 26 39 3e
       0.10378518 0.07881083 0.16995072 0.18081053
0000a0 f8 3a 40 3e 0c ca 17 bd c1 90 54 3e 2d c8 ed 3d
       0.18772495 -0.03705792 0.20758344 0.11610446
0000b0 ce 47 60 3e 97 9e 7a be 7c 5e 28 be 43 c5 1e 3e
       0.21902391 -0.2447456 -0.16442293 0.15504937
0000c0 19 53 09 3e 27 aa 65 be e2 dc e5 3d f2 e8 18 be
       0.13410605 -0.22428189 0.11223771 -0.14932612
0000d0 b3 2b 17 3e 2d 1a c9 bd d6 bc e2 3d fd 30 54 be
       0.14762764 -0.09819446 0.11071174 -0.20721813
0000e0 c8 5c 29 be 47 ae 38 3d 84 9a 24 bd 43 e9 eb 3c
       -0.165393 0.04508808 -0.04018642 0.028797751
0000f0 5c 64 fe 3c f4 75 6c 3e 9e 35 1f 3e 1d 33 fc bd
       0.031053714 0.2309187 0.15547797 -0.123144366
000100 2c 1b 83 3b ab 0a e4 bc 88 6b d6 3c 65 f2 08 3d
       0.004001042 -0.027837118 0.026174322 0.03343429
000110 2e 4b a3 3c 47 e1 5a 3d a5 d4 87 bd 01 5c 0d 3d
       0.01993331 0.053437497 -0.066323556 0.03451157
000120 10 b0 67 3d 94 cb 92 be 24 0a 14 be e6 10 a2 3d
       0.05656439 -0.28670943 -0.14456993 0.07913379
000130 6c c2 41 3e e4 30 ac bd 61 0d a3 bc 36 b6 87 be
       0.18921822 -0.08407763 -0.01990384 -0.26506203
000140 47 66 a5 3c 04 3c 68 3e 90 1c b8 bd 1b 29 1f 3d
       0.020190371 0.22679144 -0.08989823 0.03885756
000150 86 8c 8e bd 29 0a 01 3e e5 8a 12 3e 96 38 94 3d
       -0.069603965 0.12601532 0.14310797 0.072373554
000160 d1 75 3c 3e 11 6b a4 3d d7 82 09 3d 41 5c 09 3e
       0.18404318 0.08028234 0.033572044 0.13414098
000170 b8 9a e8 3d 12 74 14 3d 58 47 c0 3d 77 a8 03 bd
       0.11357635 0.036243506 0.09388608 -0.032143082
000180 3d 2f 42 3d 17 2f 04 be 64 a1 09 3e bb 6f bb 3d
       0.04740833 -0.12908588 0.13440472 0.0915217
000190 c9 28 3b bc 02 43 4e be 56 80 1c 3e 76 63 0b 3d
       -0.011423298 -0.20142749 0.15283331 0.0340304
0001a0 36 ab b1 bc f5 24 d2 3d d2 07 0d be 7f 15 5d bd
       -0.021688085 0.10260955 -0.13772514 -0.05397558
0001b0 89 ad d7 bd a1 af 2d 3e 1b dc 67 bd 8a 7f 0a be
       -0.10531146 0.16961528 -0.056606393 -0.13525215
0001c0 08 54 f2 3c 1d 96 d3 bc e2 d1 0b 3c 53 a4 9f 3c
       0.029581085 -0.025828416 0.008533927 0.019487536
0001d0 2f 88 49 bd b3 d1 8c 3d e4 44 03 3e aa 21 18 bd
       -0.04920214 0.068759345 0.12819248 -0.03714148
0001e0 ae 06 fe 3d de 11 12 3d 4b 70 6b bd 3b 5a 2c be
       0.12403618 0.03566157 -0.057480138 -0.16831295
0001f0 8b c8 81 bd ca 6c 33 be 3c 41 25 be b8 f5 bc bb
       -0.06337079 -0.17521968 -0.16138166 -0.0057665966
000200 b8 0f d2 3c ea 54 58 be 6c 72 8e 3e 4b 00 7a 3d
       0.02564226 -0.21126142 0.27821672 0.061035436
000210 12 f7 14 3e 61 b1 b2 bd 85 e1 1e 3d 6e fd 2d 3e
       0.14547375 -0.087252386 0.03878929 0.16991207
000220 4c f1 10 3e 5a 8b 98 3d 49 c9 bf bc 40 89 60 3e
       0.14154547 0.07448454 -0.02341141 0.21927357
000230 be c3 27 be 11 11 b9 bd 04 75 59 3e db 79 7f be
       -0.16383263 -0.09036458 0.21236044 -0.24948828
000240 16 19 da 3d cf 72 47 be 69 1f 46 be 21 a1 12 3e
       0.10649316 -0.1947739 -0.1934792 0.14319278
000250 ca ac 80 3e a2 25 00 3e e0 5d b4 be d3 aa c3 bc
       0.25131828 0.12514356 -0.3522787 -0.023885166
000260 07 3a df 3d 3f a7 15 3e 58 7b f9 bd 94 ce 55 3e
       0.1089974 0.1461458 -0.12181729 0.20879585
000270 c9 05 17 bc 09 9c 0a be 3a ae 18 be c0 dc be 3c
       -0.009217688 -0.13536085 -0.14910212 0.023298621
000280 a9 3e ef 3d 75 71 53 3e bb 9e 12 3e fa 10 ba 3d
       0.11681873 0.20648749 0.14318363 0.09085269
000290 50 11 49 bd 0c 1c d5 3c 48 f9 05 3d 73 44 fe 3d
       -0.049088776 0.02601435 0.032708436 0.124153994
0002a0 b8 bf fc bc d8 8a 01 bd 09 90 58 bc 4d 7d 4b bd
       -0.030853137 -0.031626552 -0.013217934 -0.049680043
0002b0 c4 c5 87 3e 74 0d e9 bd f9 14 1b be 20 b4 a6 3d
       0.2651807 -0.11379519 -0.15144719 0.08139825
0002c0 c1 c6 e5 ba c9 d3 90 3e 42 a1 45 3e 91 c8 f1 bd
       -0.0017530547 0.2828658 0.19299796 -0.11805833
0002d0 d2 7f 89 ba ba 51 2c 3e a5 03 c5 bc be 92 20 be
       -0.0010490364 0.16828051 -0.02404959 -0.15680978
0002e0 05 02 f4 bd b9 77 36 be 02 b0 87 3e 7a 3e b0 3d
       -0.11914448 -0.17819108 0.2650147 0.086056665
0002f0 1b 4c 30 3d a4 50 e7 3d ac 4a 30 bd 3d b7 6d 3d
       0.04304133 0.11294678 -0.043039963 0.058036078
000300 5b 30 2b bd 1b ff 1f be ab 37 3a be b0 be 02 3e
       -0.041794162 -0.15624659 -0.18185298 0.12768054
000310 65 64 b5 bd 6a e5 0d be 2b 39 cb bc b4 74 01 be
       -0.08857039 -0.13857046 -0.024807533 -0.12642175
000320 b8 de fa bd 0e 27 a4 bd eb ae b7 bd 33 0d 92 3d
       -0.122495115 -0.080152616 -0.0896891 0.07131424
000330 de 54 84 bd 60 7f cf bb 78 ab 02 3e 02 56 9e 3e
       -0.064615 -0.006332323 0.12760723 0.30924994
000340 d0 08 4b bb 15 84 25 bd ab e1 b1 bd e1 1b 27 3e
       -0.0030980594 -0.040409166 -0.08685621 0.16319229
000350 3a 58 2f 3e 94 30 88 bd 36 cd 20 3e 13 34 6e be
       0.171235 -0.066498905 0.15703282 -0.23262052
000360 83 ad 08 be 67 42 58 3e a6 a8 6a 3d d2 4a f3 3c
       -0.1334744 0.2111908 0.057289742 0.029698763
000370 6a 6b 5a 3e b1 22 69 3e 91 6a c8 bc 3c fb 00 3e
       0.21330038 0.2276714 -0.024464877 0.12595838
000380 8e 0f fd bd 9e 24 25 be aa a8 3d be 9b ac 29 be
       -0.123564824 -0.1612725 -0.18521371 -0.1656975
000390 cd fa 81 be ea fe 1a 3e 3d 39 49 3d 8b 37 b1 bd
       -0.25386658 0.15136304 0.049126852 -0.08653172
0003a0 a0 8e f4 3c 25 40 73 be 93 fb 5d 3e cb d7 dd bd
       0.029853165 -0.23754938 0.21677999 -0.10832175
0003b0 36 b4 a1 39 80 de c2 bb 4c 97 c9 3d 16 12 8b 3c
       0.0003084258 -0.005946934 0.09843311 0.016976397
0003c0 6f 07 82 bd ca 7e 0b 3d 7c 0d dd 3d 8e 6b ff 3d
       -0.06349074 0.034056462 0.107935876 0.12471686
0003d0 e6 e8 67 be 54 a5 98 3d a9 d2 a2 3d f8 e2 f5 bd
       -0.22647437 0.07453409 0.079503365 -0.120061815
0003e0 c9 e4 e4 3d 43 5d 54 3e 8a 6b 7d bd db 46 3e bd
       0.1117645 0.20738702 -0.061870135 -0.04645429
0003f0 d9 0a f6 bd 93 8f 40 be 0f e4 5e bd 52 52 bc bd
       -0.12013788 -0.18804769 -0.054416712 -0.09195389

RepVgg_vi1.rbr_1x1.bn.weight f4 [32]
000000 a1 91 6d 3f b3 4f 67 3f ab 4b 77 3f a1 a8 67 3f
       0.9280034 0.90355986 0.96599835 0.9049168
000010 09 5f 66 3f 7f ac 80 3f 1f b4 7b 3f 90 34 6d 3f
       0.8998876 1.0052642 0.9832172 0.9265833
000020 42 e6 6f 3f 90 e7 80 3f 48 bb 83 3f 5a d5 8d 3f
       0.9371072 1.0070667 1.0291529 1.1080735
000030 cb a6 72 3f f9 77 74 3f 1a f2 78 3f 03 17 7e 3f
       0.94785756 0.95495564 0.9724442 0.99253863
000040 9d 4b 68 3f 16 87 7f 3f 9a e5 76 3f d6 b7 75 3f
       0.90740377 0.998155 0.96444094 0.95983636
000050 87 92 7d 3f 14 a2 85 3f 32 5e 71 3f 73 66 72 3f
       0.9905171 1.0440087 0.94284356 0.94687575
000060 db 1d 60 3f 4f f3 73 3f 27 70 8b 3f e4 fa 75 3f
       0.87545556 0.95293134 1.0893601 0.96085954
000070 78 b7 75 3f a9 5c 6c 3f d9 d3 72 3f 5e b1 88 3f
       0.95983076 0.9232889 0.94854504 1.0679128

RepVgg_vi1.rbr_1x1.bn.bias f4 [32]
000000 17 ab 38 3d 29 1d 5d be 24 8c 19 bd fd b2 5d bd
       0.04508504 -0.21593155 -0.037487164 -0.054125775
000010 71 dd 23 3d a5 a3 1e 3c 94 86 72 bc 1d 56 e8 bd
       0.040006105 0.009682571 -0.014802594 -0.1134455
000020 33 af 76 3c d1 cd fd 3d 12 60 97 3b 44 08 26 be
       0.015056419 0.12392772 0.004619607 -0.1621409
000030 78 a0 a6 be c7 d9 97 3d 49 ca 62 bd 2a 05 f1 3d
       -0.32544303 0.074145846 -0.055368695 0.11768563
000040 2b de 58 3e 51 c1 dc bc f9 f1 ca bd a3 83 2c bb
       0.211785 -0.02694765 -0.09909434 -0.0026323579
000050 92 30 70 3d 69 3b a2 3d a2 7f c9 3d 91 4e d9 bc
       0.05864007 0.07921488 0.09838797 -0.026526721
000060 df f8 7c bd 2b f9 82 bd 2d 99 8a bd c3 03 80 bd
       -0.06176078 -0.06395181 -0.06767497 -0.062507175
000070 d4 4d f5 bd ee 91 8c bd 63 11 2d 3c a8 57 9c 3d
       -0.11977735 -0.068637714 0.010563227 0.076339066

RepVgg_vi1.rbr_1x1.bn.running_mean f4 [32]
000000 38 e1 75 41 3c 74 6c c1 d4 48 ad c1 d3 ab b3 41
       15.367485 -14.778378 -21.66056 22.458899
000010 b4 1a 0f c2 b2 35 bf 41 9d e0 20 41 02 79 ac c1
       -35.776077 23.901218 10.054837 -21.559086
000020 e4 00 17 41 19 a2 1c c1 25 14 b5 c0 3b bb 9a 41
       9.437717 -9.789575 -5.658709 19.341421
000030 df 37 9f c1 83 b3 3c 42 b7 23 09 c2 d2 fc 2c c1
       -19.90228 47.175304 -34.284878 -10.811724
000040 9e bd ad c1 98 dd 14 c2 55 c7 3d 41 c6 f9 3c c1
       -21.717587 -37.2164 11.861165 -11.81098
000050 62 d0 db c1 6e 2e 4d 41 2d 71 35 c2 28 61 8a 41
       -27.47675 12.823835 -45.360523 17.29744
000060 4c 86 52 40 e6 7d 47 41 ea 44 42 c1 97 a5 af 40
       3.2894468 12.468237 -12.141825 5.4889636
000070 95 62 ff bf e2 77 75 c1 5e 72 38 c1 98 67 ac c1
       -1.995196 -15.341768 -11.527922 -21.550583

RepVgg_vi1.rbr_1x1.bn.running_var f4 [32]
000000 64 90 b3 42 9a 70 cb 42 f5 97 34 43 12 49 40 43
       89.78201 101.719925 180.59358 192.28543
000010 04 9d ec 43 c1 11 49 43 1c f4 2b 42 a0 30 27 43
       473.22668 201.06935 42.988388 167.18994
000020 41 a0 21 42 86 e0 28 42 f5 27 bf 41 a2 5d 10 43
       40.406498 42.21926 23.89451 144.36575
000030 4f fb 15 43 a0 6d 48 44 e1 94 d3 43 05 f0 23 42
       149.98167 801.7129 423.16312 40.984394
000040 bd 9e 27 43 be 71 f2 43 e2 77 52 42 0c ca 52 42
       167.62007 484.8886 52.617073 52.69731
000050 c0 fe 8c 43 39 7d 86 42 38 0e 4c 44 7a c8 ec 42
       281.99023 67.244576 816.22217 118.391556
000060 69 b7 97 41 dd 60 9a 42 b0 b7 8d 42 7e 32 98 41
       18.964556 77.189186 70.858765 19.024654
000070 c3 ac 56 41 e0 42 ae 42 5b cd bd 42 e4 71 26 43
       13.417178 87.130615 94.901085 166.44489

RepVgg_vi2.rbr_identity.weight f4 [32]
000000 08 65 72 3f 7c 6a 80 3f f8 ec 63 3f 4d e9 7b 3f
       0.9468541 1.0032496 0.8903346 0.98402864
000010 bc 0c 79 3f 86 4f 71 3f 87 85 58 3f 9e d7 73 3f
       0.97285056 0.9426197 0.84578747 0.9525088
000020 02 5d 67 3f 8c 28 55 3f db 97 6b 3f 91 28 47 3f
       0.90376294 0.83264995 0.9202859 0.77796274
000030 05 80 7d 3f 4b f7 7f 3f 07 02 7a 3f ba c8 7f 3f
       0.9902347 0.99986714 0.97659343 0.9991566
000040 60 78 76 3f 61 74 63 3f bd 12 7e 3f 43 d5 6f 3f
       0.9627743 0.88849455 0.9924734 0.93684787
000050 c2 c1 77 3f 8d f1 7c 3f 34 34 79 3f 86 99 72 3f
       0.96780026 0.9880608 0.9734528 0.9476551
000060 e8 6f 78 3f 4b 96 71 3f bd 5d 72 3f 8f 3b 83 3f
       0.97045755 0.94369954 0.94674283 1.0252551
000070 d9 e9 80 3f a6 54 62 3f de 04 83 3f b0 f9 74 3f
       1.0071365 0.88410413 1.023586 0.9569349

RepVgg_vi2.rbr_identity.bias f4 [32]
000000 c0 2a 1e 3e 57 ee 88 bd 9e c9 3a 3e 3d 09 02 3e
       0.15445995 -0.06686085 0.18240973 0.12698837
000010 a3 13 a9 3d e7 1c 08 3e b4 61 c4 3d d0 91 99 be
       0.082556985 0.13292275 0.09588948 -0.2999406
000020 e3 74 21 3e b3 64 1b 3e 32 da 47 3d 92 1f 30 3e
       0.15767245 0.15175132 0.04879207 0.17199543
000030 f9 0b 0d be 65 63 9f bd f6 bb 93 bd 39 f7 50 be
       -0.13774098 -0.0778263 -0.07213585 -0.20406808
000040 e3 47 6e bd 02 56 17 3e a2 ca f4 3b ad 7c c9 3b
       -0.058174025 0.14778903 0.007470445 0.0061488957
000050 33 a9 21 3d 98 86 81 3c 77 7d a6 bc b6 41 ba 3d
       0.039468 0.01581125 -0.020323498 0.090945646
000060 ed c3 56 3e ed 2a 19 3d 9f ff b1 3c 94 92 87 3d
       0.20973177 0.037394453 0.021728335 0.066197544
000070 0a 50 cf bd de a7 7c be 77 c4 1a 39 1b 9c a8 be
       -0.10122688 -0.24673411 0.00014759773 -0.329316

RepVgg_vi2.rbr_identity.running_mean f4 [32]
000000 4f 72 4a 3f 31 c5 03 3f 5d f1 3b 3f cc dc 2d 3f
       0.7908067 0.51472765 0.73415166 0.67915034
000010 61 4e 42 3e 09 9c f3 3d 73 57 3e 3f 15 18 ed 3d
       0.18975212 0.11894996 0.74352187 0.11576859
000020 db 9d 41 3e 0e 52 9f 3e 43 c8 96 3e 53 55 23 3e
       0.18907873 0.3111729 0.29449663 0.15950517
000030 d2 61 d8 3e 47 6b 55 3f d4 ae 3c 3f 76 be 6b 3f
       0.4226213 0.8336682 0.73704267 0.92087495
000040 b4 0a 7a 3f a9 84 46 3f 8b fb 2c 3f a0 d9 1e 3e
       0.9767258 0.77546173 0.67571324 0.15512705
000050 37 6e 80 3e d3 61 8c 3e 73 cf 5f 3f 14 f2 37 3e
       0.25084087 0.27418384 0.8742592 0.17963439
000060 b3 c7 02 3f ae 28 31 3f d9 d5 0c 3e 64 d3 24 3f
       0.51085967 0.692027 0.13753451 0.64385056
000070 e6 b7 f7 3e 6c 6f 09 3e 36 99 37 3f 34 91 e1 3e
       0.4838249 0.1342141 0.71718156 0.44056094

RepVgg_vi2.rbr_identity.running_var f4 [32]
000000 df d7 c0 3f db 7d 10 3f 45 e3 55 3f 92 f1 aa 3f
       1.5065879 0.5644204 0.8354991 1.3354971
000010 49 9b 25 3e d6 17 1c 3e 32 6b ba 3f d4 ee 33 3e
       0.16172518 0.15243468 1.4563963 0.17571574
000020 a2 78 96 3e 8f 3e 62 3e e8 2a f6 3e f9 e9 93 3e
       0.2938891 0.22094177 0.4807961 0.28889444
000030 4d 66 dc 3e b4 0b d8 3f e3 b0 64 3f 48 98 82 3f
       0.430468 1.6878572 0.8933241 1.0202723
000040 ee 1d 85 3f 59 6e 6c 3f 3d 62 b1 3f 89 2d 20 3e
       1.0399759 0.9235588 1.3858105 0.1564237
000050 c3 12 36 3e cf be 28 3e 9a c2 7e 3f 7c 49 9a 3e
       0.17780595 0.16479038 0.9951569 0.3013419
000060 1a 1d 4f 3f 90 0f b9 3f ff 77 90 3e 88 c2 98 3f
       0.8090378 1.4457874 0.2821655 1.1934366
000070 59 30 0f 3f 52 63 48 3e e6 5a 42 3f 31 28 98 3e
       0.5593315 0.19569138 0.7591995 0.29718164

RepVgg_vi2.rbr_dense.conv.weight f4 [32, 32, 3, 3]
000000 fd 07 a1 bd 33 36 17 bd a1 03 f5 3b 6a fa af bc
       -0.07862852 -0.036916923 0.0074772392 -0.021481711
000010 3b ac c5 bc 13 2e c3 3a 63 a4 cf bc 4e 8b c3 3b
       -0.024129977 0.001489105 -0.02534694 0.005967534
000020 3b 9f 52 3d dd 30 4c 3d 99 be bc 3c 7b f7 51 3d
       0.051421385 0.049851287 0.023040103 0.051261406
000030 36 e4 bf bd fe 42 17 bc c1 1b 03 bd c3 d0 4d bd
       -0.093697 -0.009232281 -0.03200889 -0.05024792
000040 98 27 3a ba 30 bd 1d bc be 28 8f 3c 0e 51 cb bc
       -0.0007101237 -0.009627625 0.017475482 -0.024818923
000050 cd 04 be 3c b1 ea a8 bd 9f 24 af bd 90 c4 a1 bd
       0.023195649 -0.08247889 -0.08551907 -0.078988194
000060 63 6e 9b bd c2 eb 3f bd 3c b0 78 bd 7f a1 09 bd
       -0.07589414 -0.046855696 -0.060714945 -0.03360128
000070 45 e5 d6 bc 95 a1 39 3d 6a 62 73 bd ea bb ea bc
       -0.026232371 0.045320112 -0.059420027 -0.028654058
000080 07 8d a0 bb 1d 2b 1f bb c3 28 1b bd 06 22 96 3c
       -0.0048996243 -0.0024287172 -0.03788067 0.01832677
000090 49 1a 98 3c c9 35 ac bc 73 6c 16 3d 79 13 0b 3d
       0.018567221 -0.02102174 0.03672452 0.033954117
0000a0 f7 a8 8f 3c 6b 60 31 bd f1 b0 bf ba 6f 0b 86 bd
       0.017536623 -0.043304842 -0.0014624876 -0.065451495
0000b0 35 41 6f bd b9 3c 99 bd 77 e7 10 bd 5c f0 6a 3c
       -0.058411796 -0.07482285 -0.035376992 0.014339533
0000c0 97 56 f9 bd 42 86 2c 3b 44 d9 2f 3d ae 51 11 be
       -0.12174719 0.002632514 0.04293181 -0.14191315
0000d0 51 94 92 bd 14 27 af bd f6 2e f3 3b fa d4 60 bc
       -0.07157195 -0.085523754 0.0074213697 -0.013722653
0000e0 28 38 18 3d 93 fa 83 bd 51 a5 24 3d c8 d7 47 bd
       0.03716293 -0.064442776 0.04019672 -0.04878977
0000f0 44 fe 49 3d 20 8e 87 3c 4d 73 08 bd 48 e7 b9 bd
       0.049314752 0.016547263 -0.033313084 -0.090773165
000100 4b 9d 0b bc 1f cf e2 39 a3 9e c1 bd 22 9f 05 bd
       -0.008521388 0.00043260396 -0.09454086 -0.032622464
000110 ea 68 87 bd 1d d5 3a bd 4e 3e 5b bd db a3 e9 bd
       -0.06611808 -0.045613397 -0.053526215 -0.11408206
000120 a9 b2 c4 3d 38 b5 54 bd 14 21 b8 bc dd e6 72 bd
       0.09604389 -0.051930636 -0.02247671 -0.0593022
000130 0f e6 17 bd b5 43 f7 bb ed 3c 40 bd 81 5a 89 bd
       -0.037084635 -0.007545913 -0.046933103 -0.067067154
000140 c4 86 75 bd 0e 90 11 bd e0 52 8f 3d 16 62 ef bc
       -0.059942976 -0.035537772 0.06998229 -0.029221576
000150 3d d5 c4 3d 93 d4 e6 3d ec 06 6f 3d 37 5e 2b bd
       0.096109845 0.11271014 0.05835621 -0.041837897
000160 7a 84 8e 3d 94 80 47 bd 9a 1d ca 3c 33 76 61 3d
       0.06958862 -0.048706606 0.024672318 0.055044364
000170 1b b2 9c 3d 5f c3 11 3d 3b 89 b2 bc ad 17 4e bb
       0.076511584 0.03558671 -0.021793952 -0.0031447217
000180 a6 a8 04 bd 48 ae cb 3c f7 96 39 3d 08 ef be bc
       -0.0323874 0.024863377 0.045309987 -0.023307338
000190 bd 75 00 3d 9c ab eb 3d cd 91 29 bc dc 0a 22 bc
       0.031362284 0.11507341 -0.010349703 -0.009890284
0001a0 45 62 34 bb af 6d b9 bc fd ce 59 bd dc 24 8b 3c
       -0.0027524394 -0.022635309 -0.053175915 0.01698535
0001b0 44 61 95 bd 25 7b a4 bd 1a d9 bf bc 73 dc 09 bd
       -0.072939426 -0.080313005 -0.023418952 -0.033657502
0001c0 27 e8 80 bd 79 40 bf bd 05 d4 de bc a5 b9 83 bd
       -0.062942795 -0.09338469 -0.027200708 -0.06431893
0001d0 5a ec 9c bd 75 f2 7a 3d 3a 37 d9 bb cf f4 d3 bb
       -0.07662268 0.06126638 -0.006628898 -0.0064683924
0001e0 4c aa e5 3c 6f f4 a9 bc dd 64 30 3d 7f b9 d5 3c
       0.028035305 -0.020746438 0.04306494 0.026089428
0001f0 5a 4b 94 3b 85 b4 4a 3c 4c fe 80 bd bb 42 84 bd
       0.004525584 0.012372141 -0.06298503 -0.0645804
000200 77 3b 5b bd 63 ca c6 bc 69 c2 fe bb 86 c7 0f bd
       -0.053523507 -0.024266427 -0.0077746403 -0.03510239
000210 7f 4f ab bd 0f 7e 6d 3d c1 52 de 3b c6 cd c6 bd
       -0.08364772 0.057981547 0.0067847674 -0.09707217
000220 86 d2 2a be 43 a5 86 bd 4f 9e 9e bd 78 dc a3 bd
       -0.16681871 -0.0657449 -0.07745039 -0.080010355
000230 53 88 09 bd a7 98 17 3d f9 c1 c1 bc 31 73 e4 bc
       -0.033577275 0.037010815 -0.023652064 -0.027886959
000240 cc 26 bc bc 0f 6b 11 3c 7f 2c c0 bd 7f 14 7c bd
       -0.022967719 0.008875622 -0.09383487 -0.061542984
000250 75 78 e9 3b 5e 0f 51 bd 5b 1a c6 bd 1c 13 f2 bd
       0.0071249553 -0.051040046 -0.09672996 -0.11820051
000260 d2 1f bd bd 02 4f 0a bd fc 6d 03 bd 9b ee 29 ba
       -0.09234585 -0.033766754 -0.03208731 -0.00064823934
000270 cc 2f 49 bc 03 2b a3 bc 34 da 51 bd 5f 43 9c bd
       -0.012279462 -0.01991797 -0.051233485 -0.076300375
000280 2e 85 2c bc 31 f8 23 3d 95 54 9e 3c 39 85 a0 bc
       -0.010529799 0.040031616 0.019327441 -0.019594776
000290 7a b1 6f 3d b4 86 3b 3d 67 c5 37 bd 9f 9a a6 bc
       0.058518864 0.04578276 -0.044865992 -0.020337401
0002a0 33 36 4a 3c d5 c3 fe 3c 68 3e a7 bc 1b 6f a6 3c
       0.012342024 0.03109924 -0.0204155 0.020316651
0002b0 e7 b6 63 bc 96 7b d9 bc 57 38 9b 3c 51 7f 82 bc
       -0.013898588 -0.026548188 0.018947763 -0.01592985
0002c0 46 00 a7 bc bb 38 d6 bc d1 fe 8c 3c df 69 85 bc
       -0.020385873 -0.026150098 0.01721135 -0.016285835
0002d0 56 e3 a1 3d 89 bf 0c 3d 69 64 93 3d 2b cb 2d bd
       0.07904689 0.03436235 0.07196886 -0.042430084
0002e0 b3 cb 27 3d 07 25 ae 3d 7e f7 53 3c 8e e0 fa bc
       0.040965747 0.08503156 0.012937425 -0.030624654
0002f0 eb 8a 23 3a 4b e0 c2 3c 74 1d 45 3d 8c 11 49 bc
       0.0006238657 0.023788592 0.04812379 -0.01227225
000300 81 9d 90 bd ad 0f 1e 3b 6a 7e 03 bd ef 46 ee bc
       -0.070612915 0.002411823 -0.03210298 -0.029086558
000310 b2 1b 47 bd 4b 5a 4e bc 9d 78 95 3b 1a 1e ae bd
       -0.048610397 -0.01259477 0.0045614974 -0.08501835
000320 ce 92 09 bb f6 64 b7 bd 1e b8 e3 3b 2b c3 50 3d
       -0.0020992043 -0.08954804 0.0069494387 0.050967377
000330 2e 14 7c 3c 84 b8 6f bc be 84 9a 3a 66 95 3d bd
       0.015385671 -0.014631394 0.0011788828 -0.046285056
000340 c0 49 41 bd 21 63 77 bb 46 ef a6 bd ed 87 3e 39
       -0.047189474 -0.0037748294 -0.081511065 0.00018170448
000350 dc 01 8d bb 85 37 b8 bd 78 82 f9 bc 7e 11 f1 3c
       -0.0043032 -0.089949645 -0.03045772 0.029427286
000360 24 07 cc 3c 3a 08 51 3c ed c6 96 3c 66 d8 04 bd
       0.024905749 0.012758309 0.018405402 -0.032432936
000370 dd bb b5 bd d4 0f db bc d0 f8 0e bd c1 ab ce 3c
       -0.08873723 -0.026740946 -0.034905255 0.025228383
000380 34 16 2c bd 03 c5 8e 3c 6b f7 2e 3d c7 9c b0 bc
       -0.042013362 0.017427927 0.042716425 -0.021559132
000390 c8 c8 6c 3d 2c 5d 44 3d b6 04 0a 3c c7 d0 77 bc
       0.057808667 0.047940418 0.008423975 -0.01512546
0003a0 14 cb fd 3c d0 25 6e 3c 4f e8 f2 3c e9 fb ef bb
       0.030980624 0.014535382 0.029651789 -0.007323731
0003b0 39 79 5a bb a7 52 e7 3c 89 78 2b b9 5a 39 03 3d
       -0.0033336414 0.028237654 -0.00016352734 0.032037117
0003c0 00 ec d2 3d 6a 13 5f 3d 1b 61 07 3e f6 db 0b 3d
       0.1029892 0.054461874 0.13220637 0.034145318
0003d0 9e f5 7c 3b 53 36 83 3d 53 51 4e bd e3 7f d4 bc
       0.0038598548 0.06406846 -0.050370526 -0.025939887
0003e0 36 22 45 bd d9 fd b7 3b 2b 37 37 bd 82 61 c8 bb
       -0.04812833 0.005614978 -0.044730347 -0.0061151395
0003f0 1a 07 12 bd 00 b7 78 3d 98 3f fe bb d3 26 e1 bd
       -0.035651304 0.060721397 -0.007759046 -0.10993733

RepVgg_vi2.rbr_dense.bn.weight f4 [32]
000000 90 44 87 3f b7 6b 85 3f 41 b8 8c 3f 53 0b 8b 3f
       1.0567799 1.0423497 1.099373 1.0862831
000010 bf d4 90 3f bc 53 85 3f 37 86 91 3f 29 b4 9c 3f
       1.1314925 1.0416179 1.1369084 1.224248
000020 61 ba 98 3f f1 da 8b 3f 12 60 8f 3f 2b 65 90 3f
       1.1931878 1.0926191 1.1201193 1.1280874
000030 9d 0f 8a 3f 78 8e 91 3f da 78 85 3f c3 22 88 3f
       1.0786015 1.1371603 1.0427506 1.0635608
000040 3a 32 92 3f a0 06 8e 3f 9b 75 77 3f 4b 1d 8c 3f
       1.1421578 1.1095772 0.96663827 1.094644
000050 80 c7 80 3f e4 e5 90 3f 67 1d 82 3f 45 3a 89 3f
       1.0060883 1.1320157 1.0165223 1.0720907
000060 a2 c9 81 3f ad a2 81 3f 63 f3 91 3f 99 3b 8d 3f
       1.0139658 1.012777 1.1402401 1.1033813
000070 76 41 93 3f e8 82 8e 3f 1f eb 88 3f 8f 41 93 3f
       1.1504352 1.11337 1.0696753 1.1504382

RepVgg_vi2.rbr_dense.bn.bias f4 [32]
000000 c0 2a 1e 3e 57 ee 88 bd 9e c9 3a 3e 3d 09 02 3e
       0.15445995 -0.06686085 0.18240973 0.12698837
000010 a3 13 a9 3d e7 1c 08 3e b4 61 c4 3d d0 91 99 be
       0.082556985 0.13292275 0.09588948 -0.2999406
000020 e3 74 21 3e b3 64 1b 3e 32 da 47 3d 92 1f 30 3e
       0.15767245 0.15175132 0.04879207 0.17199543
000030 f9 0b 0d be 65 63 9f bd f6 bb 93 bd 39 f7 50 be
       -0.13774098 -0.0778263 -0.07213585 -0.20406808
000040 e3 47 6e bd 02 56 17 3e a2 ca f4 3b ad 7c c9 3b
       -0.058174025 0.14778903 0.007470445 0.0061488957
000050 33 a9 21 3d 98 86 81 3c 77 7d a6 bc b6 41 ba 3d
       0.039468 0.01581125 -0.020323498 0.090945646
000060 ed c3 56 3e ed 2a 19 3d 9f ff b1 3c 94 92 87 3d
       0.20973177 0.037394453 0.021728335 0.066197544
000070 0a 50 cf bd de a7 7c be 77 c4 1a 39 1b 9c a8 be
       -0.10122688 -0.24673411 0.00014759773 -0.329316

RepVgg_vi2.rbr_dense.bn.running_mean f4 [32]
000000 0b 09 06 c0 d6 ec a7 be af 0e 35 be 05 12 8b bd
       -2.094302 -0.3279788 -0.17681383 -0.06790546
000010 07 ca 04 3f 8f ec ab be 77 bb 5c be b1 8f 58 be
       0.5187077 -0.33578917 -0.21555887 -0.21148564
000020 ba a1 d8 be 67 a1 fe bf 25 b1 0b 3e e2 95 ac bf
       -0.42310888 -1.9893006 0.13641794 -1.3483241
000030 5a 95 96 3e ff 40 af 3f 79 95 de 3e eb 51 2b 40
       0.2941082 1.369171 0.43473414 2.6768749
000040 82 20 b1 3f 09 c2 fc be fa 67 d6 bf 51 f0 75 3e
       1.3838046 -0.49366787 -1.6750481 0.24017455
000050 f3 81 85 3e d1 09 7d be bd 92 4b 3e c8 13 bf be
       0.26075706 -0.24710776 0.19880195 -0.3731978
000060 3d 4a a0 bf 6d 16 04 bf 24 ef 01 3e 2a c7 cc 3e
       -1.2522656 -0.5159672 0.12688881 0.399957
000070 05 b5 5c 3e 83 46 55 3f 3a 02 aa 3e d1 63 5e be
       0.21553428 0.8331072 0.33204824 -0.21717764

RepVgg_vi2.rbr_dense.bn.running_var f4 [32]
000000 da 3c bd 40 62 29 d1 3f 9b 91 2b 3f 88 48 e8 3f
       5.913678 1.6340754 0.6701905 1.8147135
000010 e9 bf 8b 3e f4 ab e8 3d 18 31 40 40 0f fa 01 3d
       0.27294853 0.113609225 3.0029964 0.031732615
000020 69 54 dc 3e a9 11 03 40 d7 e4 80 3e e2 7b ad 3f
       0.4303315 2.047953 0.2517459 1.3553431
000030 6a 37 dc 3e 6e d7 14 3f c7 bf 75 3e 2c e4 4e 40
       0.43011028 0.5814122 0.23998939 3.2326765
000040 16 ff 29 3f ea 3a 85 3e 69 1c 0f 40 74 68 f9 3d
       0.66404855 0.2602151 2.236109 0.12178126
000050 49 df 49 3e b8 61 8d 3e cb ea 4c 3f ec 88 19 3f
       0.19714083 0.27613616 0.80045766 0.5997455
000060 e0 c2 a4 3f fb 35 8a 3f 63 cc 46 3e 32 16 85 3e
       1.2871971 1.0797724 0.19413905 0.25993496
000070 d4 b6 b2 3d 58 67 a5 3e 91 53 f7 3d b2 92 65 3d
       0.08726278 0.32305408 0.12076486 0.056048103

RepVgg_vi2.rbr_1x1.conv.weight f4 [32, 32, 1, 1]
000000 89 0d e2 3d ca 35 60 be 20 c3 50 be 42 6c 29 3d
       0.11037738 -0.21895519 -0.20386934 0.04136301
000010 2e 72 1d be a1 e0 de 3d 4c db af 3b 2d e5 1c 3d
       -0.15375587 0.10882688 0.0053667184 0.038304497
000020 a4 d3 45 3d 2a 45 a0 bd c3 7f 92 3d 9f f3 49 3d
       0.04829754 -0.07825692 0.07153275 0.0493046
000030 68 6b 92 be 7c 48 c2 bd 27 4c 57 bd eb 46 b9 bd
       -0.2859757 -0.094864815 -0.05256286 -0.0904673
000040 29 09 b6 3d 35 88 21 bd ee 32 ff bd 4d f4 1c 3e
       0.08888466 -0.039436538 -0.12460886 0.15327568
000050 5a ff 27 be a2 9b bf 3d 58 99 59 be da 71 d8 bd
       -0.16406003 0.093558565 -0.21249902 -0.105685905
000060 68 2a b8 3d 98 37 91 bd ea 22 6b bd b3 7f 8f 3d
       0.08992463 -0.07090682 -0.057406344 0.070067786
000070 26 e8 3b be 2c 17 12 3e c0 e4 17 be 14 b6 1c be
       -0.18350276 0.14266652 -0.14833355 -0.15303832
000080 65 1f b2 bd 91 59 f0 bd d6 24 96 3d e2 92 b2 bd
       -0.08697394 -0.117358334 0.07331245 -0.08719422
000090 f1 f6 77 bd 6b 1e 91 bc 4e 39 55 3d 3e d1 35 3d
       -0.060538236 -0.0177147 0.052056603 0.044389002
0000a0 14 dd c2 bd 69 c4 5b 3e b0 89 4c 3d e4 83 fe 3c
       -0.095148236 0.21461643 0.049935997 0.03106875
0000b0 89 bb f9 3d e2 02 aa 3c 0c 0a 12 3d 84 50 21 3e
       0.121939726 0.020753328 0.035654113 0.1575337
0000c0 da 5a ba 3c b7 77 13 bd 5c 40 0e 3e a4 75 1c bd
       0.0227484 -0.03600284 0.13891739 -0.03819813
0000d0 9e dc 17 3e 9f 78 0f 3e 9d 31 1c 3e 1f 61 fb 3d
       0.14830253 0.14010857 0.15253301 0.12274384
0000e0 01 fa f8 bb 62 75 14 3e a3 de 81 bd ec 17 98 3d
       -0.007598162 0.14497903 -0.06341293 0.07426438
0000f0 11 0a 8c bd 23 09 a8 bd 0f 28 1d 3e 96 91 bd bd
       -0.068378575 -0.08204868 0.15347312 -0.09256284
000100 a5 95 99 bd 51 3e 53 bd d6 c8 9a bd 99 89 e8 3d
       -0.074992456 -0.0515731 -0.07557838 0.1135437
000110 c1 bd 32 bd 8d af 8e bd 26 96 03 3d 3a ee 1d 3e
       -0.043637995 -0.069670774 0.032125615 0.15422907
000120 59 5b 80 bd 73 36 02 3d 7b 3a 14 be d1 4c c6 3d
       -0.06267423 0.031790208 -0.14475434 0.0968262
000130 d8 eb 0c 3b 76 ec aa 3d 14 39 d9 3c d1 53 82 bd
       0.0021502879 0.083458826 0.026516475 -0.06363643
000140 63 e4 26 be 11 bf 27 be 00 76 10 3e c9 a4 b1 bd
       -0.1629806 -0.1638148 0.14107513 -0.086740084
000150 92 d7 da bd 96 b6 23 3e c6 df b6 3d 53 82 0b 3e
       -0.10685648 0.1598762 0.089294 0.13623933
000160 6d f6 3a be 7c 2d d9 3d 32 2d 03 be e7 9c 44 bd
       -0.18258066 0.106043786 -0.1281021 -0.048001196
000170 8b 39 ae bd 79 60 eb bd 38 f1 89 bd 76 60 5d 3d
       -0.08507069 -0.1149301 -0.06735462 0.05404707
000180 c7 c8 ea bd 74 fa 86 bd 52 51 50 3d 9c 97 15 be
       -0.114640765 -0.06590739 0.050858803 -0.14608616
000190 0f 24 81 3d 76 1f ed bc b8 64 5e be 67 c7 7a 3d
       0.06305706 -0.028945666 -0.21718109 0.06122532
0001a0 79 b2 9f 39 3c 64 f7 bc 3e a9 44 bd 9e e9 a3 bc
       0.00030459816 -0.030199163 -0.048012964 -0.020008858
0001b0 b7 b0 c8 bd d0 1f 98 bd 0f f4 13 3c f0 97 b8 bd
       -0.09799331 -0.07427943 0.009030356 -0.09013355
0001c0 58 1e 53 bc 0a 5a 24 3c 10 8b 95 bd e4 5b 83 3c
       -0.0128856525 0.010031233 -0.07301915 0.016035028
0001d0 25 d3 83 bd af f3 c4 3d 56 d3 a0 bd 2a b7 e3 3d
       -0.06436757 0.096167915 -0.07852809 0.1111892
0001e0 b2 28 38 be 36 b0 4d bd 9b 09 ed 3d 6b 84 a0 3d
       -0.17984274 -0.050216876 0.11574098 0.07837757
0001f0 d8 6e 92 3d ea a7 14 be b5 df 54 bd cd 25 9a 3d
       0.07150048 -0.14517179 -0.051971156 0.07526741
000200 39 1c 94 bd df d7 0f be 61 41 32 be 31 2e c1 bc
       -0.072319455 -0.14047192 -0.17407753 -0.023581596
000210 9d bf 50 bd 13 e6 26 bd 9c c9 d0 3c 93 a1 9e bc
       -0.050963987 -0.04074676 0.02548676 -0.019364154
000220 78 96 d5 3d fb 99 bb bd ce df 19 be 91 b1 15 3d
       0.1042909 -0.09160229 -0.15026781 0.036546294
000230 ac 25 c0 3d 07 04 ac bd 2b f7 0a bd ea 7f 7b bc
       0.09382185 -0.08399206 -0.033927124 -0.015350321
000240 56 72 0e be 71 dd 3f bc 68 96 52 be 4d 08 7b 3d
       -0.13910803 -0.011710511 -0.20565188 0.061287213
000250 08 10 35 be 31 b8 cf 3d 40 04 bf 3d 04 dc 18 3e
       -0.17681897 0.101425536 0.093269825 0.1492768
000260 79 6f f8 3d dc f7 2b be 87 cf 18 be bb 96 0c be
       0.12130637 -0.1679377 -0.14922915 -0.13729374
000270 9d 0d 8f bd 02 53 31 be 7d 64 bf 3d 25 2d 4a 3d
       -0.069850184 -0.17316821 0.093453385 0.04935946
000280 d5 ba d8 3d 09 b8 05 3e 6a d0 56 be 82 96 28 3e
       0.105825104 0.13058485 -0.20977941 0.16463664
000290 30 cc 3e bd 26 ee c5 3d 33 23 d7 bd 25 e8 d7 bd
       -0.046581447 0.09664564 -0.105047606 -0.10542325
0002a0 fa 28 be 3d 1f 7d af 3d e4 a9 e3 bd 2a e7 19 3b
       0.092851594 0.08568787 -0.111163884 0.0023483732
0002b0 da a4 ca bd a9 48 9c bd 21 0d 0f bc ba eb bf bd
       -0.09894724 -0.07631046 -0.0087311575 -0.09371133
0002c0 60 1f 8e bd 52 54 2a be f9 04 83 bc c8 0f 92 bd
       -0.06939578 -0.16633728 -0.015993582 -0.07131916
0002d0 90 f1 ba 3c aa ff 46 3e d6 f1 a0 3d 93 37 a9 bd
       0.022820264 0.19433466 0.078586265 -0.08262553
0002e0 d6 77 ad bc 61 2b 5c 3e 91 ff 1f be 15 40 17 3e
       -0.021175306 0.21500923 -0.15624835 0.14770539
0002f0 b4 4b f9 bd 30 50 9e 3d 39 91 e2 bd fd bb 63 bc
       -0.12172642 0.07730138 -0.11062855 -0.0138998
000300 8c a3 f0 bd e7 94 7a 3d d1 54 e4 3d c8 f4 81 bd
       -0.11749944 0.06117716 0.1114899 -0.063455164
000310 fb 48 93 3d 95 e0 32 3d 20 8a 04 3b 31 37 f8 3d
       0.07191654 0.04367121 0.002022393 0.12119902
000320 14 59 4f 3d 6d c1 2c be e4 ca 81 bd 7c 47 e6 3d
       0.05062206 -0.16870661 -0.063375264 0.11244103
000330 d0 3a 98 3b 2f 3a 4f be 49 15 fc 3a 6f 35 07 3e
       0.004645683 -0.20237039 0.0019232418 0.13203977
000340 65 da b1 3d cd 47 a0 bd 2b e5 68 bd c1 01 bb 3d
       0.086842336 -0.07826195 -0.056859177 0.09131194
000350 55 f6 e2 3d 31 fc 38 3d 15 43 ef 3d 40 0f 22 3e
       0.1108214 0.045162383 0.11682717 0.1582613
000360 14 91 d4 3d 93 ed c6 bd 39 06 14 bc 04 48 32 be
       0.10379234 -0.097132824 -0.009034687 -0.17410284
000370 c7 71 07 3d 75 90 3a bd 71 50 b0 3c 3f 83 fa 3c
       0.03306749 -0.04554792 0.021522732 0.030580161
000380 7f c7 be bd 8b 7c fd 3d 84 52 e7 bb b2 39 05 be
       -0.093153946 0.1237727 -0.007059397 -0.1301029
000390 b4 4b 76 bd ef b3 77 bc 06 1c 5d 3d fc 8b 48 bd
       -0.06013079 -0.015118583 0.053981803 -0.048961625
0003a0 4d 37 2f 3d 45 93 4c 3d 55 c6 4a be 46 f6 9d bd
       0.04277735 0.049945135 -0.1980222 -0.077129886
0003b0 42 51 43 3e 0b af 47 bd 95 f7 fc bd c2 6f 95 3d
       0.19073966 -0.04875092 -0.1235191 0.07296707
0003c0 ba 40 34 3e 6b 0d 09 be 75 23 8d bc a3 ac 18 3e
       0.17602816 -0.13384025 -0.017228821 0.14909606
0003d0 d1 91 25 3e 64 d3 1b 3e 67 bb 1c bd 51 f5 fe bc
       0.16168906 0.15217358 -0.03826466 -0.031122835
0003e0 97 ab da 3d 12 14 07 3d e2 1c 61 be 16 36 d0 bd
       0.106772594 0.032978125 -0.21983674 -0.10166566
0003f0 99 bf e3 3d 0e ec 8d bd fa 47 1e be fc af 93 3d
       0.11120529 -0.069297895 -0.15457144 0.07211301

RepVgg_vi2.rbr_1x1.bn.weight f4 [32]
000000 40 92 86 3f 1f 81 83 3f 91 c2 85 3f 92 07 7a 3f
       1.0513382 1.027378 1.0450002 0.976678
000010 40 ba 60 3f d7 98 86 3f 0e da 8c 3f 58 bd 6e 3f
       0.87784195 1.0515393 1.1004045 0.93257666
000020 06 88 87 3f e0 73 85 3f 40 47 67 3f 5a a8 83 3f
       1.0588386 1.0425987 0.90343094 1.0285752
000030 15 ea 7d 3f e5 9e 86 3f 8a 6a 82 3f 67 be 80 3f
       0.99185306 1.0517241 1.0188763 1.0058106
000040 c8 f1 83 3f 66 3c 86 3f 17 30 80 3f 04 57 73 3f
       1.0308161 1.0487182 1.0014676 0.9505465
000050 86 62 82 3f 42 56 68 3f 79 aa 7c 3f 34 18 88 3f
       1.0186317 0.9075662 0.9869762 1.0632386
000060 a5 1c 7f 3f 2b e1 7a 3f df 15 67 3f 14 09 7c 3f
       0.99653083 0.9799983 0.9026775 0.9845135
000070 eb b8 6d 3f 08 33 84 3f cd e5 88 3f e9 17 72 3f
       0.9286029 1.0328074 1.069513 0.94567734

RepVgg_vi2.rbr_1x1.bn.bias f4 [32]
000000 c0 2a 1e 3e 57 ee 88 bd 9e c9 3a 3e 3d 09 02 3e
       0.15445995 -0.06686085 0.18240973 0.12698837
000010 a3 13 a9 3d e7 1c 08 3e b4 61 c4 3d d0 91 99 be
       0.082556985 0.13292275 0.09588948 -0.2999406
000020 e3 74 21 3e b3 64 1b 3e 32 da 47 3d 92 1f 30 3e
       0.15767245 0.15175132 0.04879207 0.17199543
000030 f9 0b 0d be 65 63 9f bd f6 bb 93 bd 39 f7 50 be
       -0.13774098 -0.0778263 -0.07213585 -0.20406808
000040 e3 47 6e bd 02 56 17 3e a2 ca f4 3b ad 7c c9 3b
       -0.058174025 0.14778903 0.007470445 0.0061488957
000050 33 a9 21 3d 98 86 81 3c 77 7d a6 bc b6 41 ba 3d
       0.039468 0.01581125 -0.020323498 0.090945646
000060 ed c3 56 3e ed 2a 19 3d 9f ff b1 3c 94 92 87 3d
       0.20973177 0.037394453 0.021728335 0.066197544
000070 0a 50 cf bd de a7 7c be 77 c4 1a 39 1b 9c a8 be
       -0.10122688 -0.24673411 0.00014759773 -0.329316

RepVgg_vi2.rbr_1x1.bn.running_mean f4 [32]
000000 03 6c 65 bf ad 8b 2d 3f 50 1b 8a be 6b 7d 2d bf
       -0.8961794 0.67791253 -0.26973963 -0.677695
000010 37 bd 33 bf 51 cd 45 be e9 b8 b9 3b cb 26 31 bd
       -0.70210594 -0.19316603 0.005667795 -0.043249886
000020 21 c3 1f bf 63 9a 37 bf 86 9e 47 3e 40 4f ac be
       -0.6240712 -0.7171995 0.19494066 -0.33654213
000030 9b 3e 05 3f bd 43 00 be 27 ba 70 be 9c cf e2 3e
       0.52048653 -0.1252584 -0.23508511 0.44299018
000040 cf 7b ab 3d 69 80 ed be ee ae 7b 3e 16 bd ba be
       0.08373224 -0.46387032 0.24578449 -0.36472386
000050 8b 1c 54 bd 69 1f c0 3e 59 2c b7 3d 4b f1 2f bf
       -0.051785033 0.37523964 0.089440055 -0.6872756
000060 ff b5 67 bf e5 39 b6 be 15 ed 7f be 4f a0 e6 be
       -0.9051208 -0.35591045 -0.24992783 -0.4504418
000070 67 6d 0d 3e 04 27 38 3f f9 a5 ec 3d a1 80 00 3f
       0.13811265 0.71934533 0.11555094 0.5019627

RepVgg_vi2.rbr_1x1.bn.running_var f4 [32]
000000 57 c1 a2 3f 01 65 52 3e 5a cb db 3e 32 26 0f 3f
       1.2715253 0.20546342 0.42928582 0.55917656
000010 0b 8d ce 3e af af 54 3f 40 0f 91 3f 23 3c 7e 3e
       0.40341982 0.8308057 1.1332779 0.24827628
000020 e2 65 70 3e f8 80 ce 3e e6 e4 0a 3e 79 28 50 3e
       0.23476365 0.4033277 0.1356388 0.20327939
000030 12 77 a0 3e 37 8b 8f 3f 07 34 4a 3f 49 a7 5b 3e
       0.31340843 1.121436 0.7898564 0.21450533
000040 48 0d b9 3e 5a cb 0f 3f d7 a9 83 3f 33 01 8d 3e
       0.36142945 0.56169665 1.0286206 0.27539977
000050 60 8b 4c 3f 24 0e 40 3e 01 d5 67 3f 0b 93 65 3f
       0.7990017 0.18755394 0.90559393 0.89677495
000060 d5 d2 db 3e aa d6 2a 3f 59 e2 b6 3e 55 81 02 3e
       0.4293429 0.667338 0.35719565 0.12744649
000070 1b 4f 1f 3f 30 68 74 3e a3 03 ec 3e 45 75 52 3e
       0.6223008 0.2386787 0.46096525 0.20552547
